models/TinyVGG_data_manual_10_epochs.pth (torch, 29391 bytes, 10 tensors)

conv_block_1.0.weight f4 [10, 3, 3, 3]
0	0x3cdc6d30	0.026907533
1	0xbe1b281e	-0.15152022
2	0xbd9ef178	-0.077609
3	0x3e060c23	0.13090567
4	0xbdccb62d	-0.09995685
5	0xbdc4107e	-0.09573458
6	0x3ddcd9f8	0.10783762
7	0xbda85838	-0.082199514
8	0x3cec0a4a	0.0288135
9	0xbdc761d3	-0.09735455
10	0x3d503d2d	0.05083959
11	0x3c235eff	0.009971379
12	0xbe22e4d9	-0.15907611
13	0xbe1b5209	-0.15168013
14	0x3d82769f	0.063702814
15	0xbd78ba68	-0.060724646
16	0x3dda604d	0.10662899
17	0x3bf2e245	0.0074122273
18	0xbd8e8ea4	-0.069608
19	0xbd2b9337	-0.041888442
20	0xbdc73e7b	-0.09728714
21	0x3db58d18	0.08864802
22	0x3e16776a	0.1469399
23	0xbc55ec50	-0.01305683
24	0xbdf9608d	-0.12176619
25	0x3e0ee787	0.13955508
26	0x3e1db0c4	0.15399462
27	0x3e0e4185	0.13892181
28	0x3b89e3da	0.00420807
29	0x3d6c3f31	0.05767745
30	0x3c85b960	0.016323745
31	0xbd882815	-0.0664827
32	0xbe395323	-0.1809812
33	0xbc8df506	-0.01732875
34	0x3dbc5727	0.091963105
35	0x3dfc46c1	0.12318183
36	0x3d5b2113	0.05349834
37	0x3dc37b23	0.09544971
38	0x3e05f98c	0.13083476
39	0xbcfb401b	-0.030670216
40	0x3e077575	0.132284
41	0x3bb566fb	0.005535958
42	0xbd7dcc8a	-0.06196264
43	0xbd872dd6	-0.066005394
44	0xbdcf5577	-0.10123723
45	0xbe0fdeda	-0.14049855
46	0x3d54151e	0.05177795
47	0x3e40b854	0.18820316
48	0x3d0ad3a8	0.033893257
49	0x3d05a1a5	0.03262486
50	0xbd803ddc	-0.06261799
51	0xbd8eae7f	-0.06966876
52	0xbd5350bd	-0.05159067
53	0x3d9ecbf1	0.077537425
54	0x3d0a624a	0.033785142
55	0xbd8d07fd	-0.06886289
56	0x3d08cb4c	0.033397004
57	0xbcfa7a04	-0.03057576
58	0xbcb53f89	-0.022125022
59	0x3e076565	0.13222273
60	0xbda1c98c	-0.0789977
61	0x3e31d284	0.17365462
62	0xbdde2cc6	-0.108483836
63	0x3e373290	0.17890382
64	0x3d97d987	0.07414537
65	0x3d956ceb	0.07296165
66	0xbd27d4b9	-0.040974353
67	0xbd7bc02f	-0.061462577
68	0xbe147ccd	-0.14500733
69	0xbe3bc289	-0.18335928
70	0x3e03ec80	0.12883186
71	0x3e3bdda9	0.18346275
72	0x3d648696	0.055792414
73	0xbd9662da	-0.07343073
74	0x3d1b7628	0.03795448
75	0xbb8848fc	-0.004159091
76	0xbe3394ad	-0.17537184
77	0xbe222ab2	-0.158366
78	0x3d8b4b0f	0.06801426
79	0xbd7e6004	-0.062103286
80	0xbd48ad81	-0.04899359
81	0xbe07c4c3	-0.13258652
82	0x3d8ef7cc	0.06980857
83	0xbde05380	-0.10953426
84	0xbd9dda48	-0.077076495
85	0x3db6472e	0.08900295
86	0x3e336bd0	0.17521596
87	0x3e1f9c55	0.1558698
88	0x3d7fff11	0.06249911
89	0xbb9a2b08	-0.0047048368
90	0x3e032978	0.12808788
91	0x3e1ecf89	0.15508856
92	0x3d978313	0.07398047
93	0x3d27c222	0.040956624
94	0x3d04e2c0	0.03244281
95	0x3c206ccb	0.009791563
96	0x3de3feef	0.11132609
97	0x3d28accd	0.04118042
98	0xbe31f9a6	-0.1738039
99	0xbe055c9e	-0.13023612
100	0xbe4263df	-0.1898341
101	0xbd8fe30a	-0.07025726
102	0xbbbd63ef	-0.0057797353
103	0xbdc3b330	-0.09555662
104	0xbe3f4423	-0.18678336
105	0xbe103dc8	-0.14086068
106	0x3d8c961c	0.068645686
107	0xbccd99c3	-0.025097733
108	0xbd08119f	-0.03321993
109	0x3d09e344	0.033664003
110	0xbd0fd743	-0.0351174
111	0xbddbe8aa	-0.107377365
112	0xbdb155cf	-0.08658945
113	0xbd96b7c7	-0.073592715
114	0xbe3fb0c4	-0.18719774
115	0xbe36dbe3	-0.17857318
116	0xbd8df8fe	-0.06932257
117	0x3d91f291	0.07126344
118	0x3e434a93	0.19071417
119	0x39aaaba8	0.0003255282
120	0x3e04055b	0.12892668
121	0x3d85da98	0.06535834
122	0xbe17fcf7	-0.14842592
123	0xbdd3a3b1	-0.10333956
124	0xbd5cc16a	-0.05389539
125	0xbe1ebf2a	-0.15502611
126	0x3cd4f8ed	0.025997603
127	0x3d458195	0.048219282
128	0xbe13f474	-0.1444872
129	0xbd3022eb	-0.04300205
130	0xbe2c0fd9	-0.1680292
131	0x3e4935fe	0.19649503
132	0x3ddaa98f	0.10676872
133	0xbd96e952	-0.07368721
134	0x3e2d18c0	0.16903973
135	0xbde245ed	-0.110484935
136	0x3e2deb30	0.16984248
137	0xbd88aac5	-0.06673197
138	0x3d8825a9	0.06647808
139	0x3e1103ef	0.14161657
140	0x3dc51d72	0.09624757
141	0x3d65f56c	0.056142256
142	0xbc710f47	-0.014713115
143	0x3c0b78d7	0.008512697
144	0x3e327aa5	0.17429598
145	0xbd611ab9	-0.054957125
146	0xbd61baee	-0.05510991
147	0x3d0eb5de	0.03484141
148	0xbdaf1795	-0.0854942
149	0xbd876615	-0.066112675
150	0x3cc91078	0.024543986
151	0x3e1bde81	0.15221597
152	0x3d8f0a5d	0.069843985
153	0xbddf1e86	-0.10894494
154	0x3dfe3e58	0.12414235
155	0xbd8223e5	-0.063545026
156	0x3d75440a	0.05987934
157	0x3c9d6bd1	0.01921645
158	0x3e138d28	0.14409316
159	0xbd0921c8	-0.033479482
160	0xbd90d468	-0.07071763
161	0xbcffeea8	-0.03124173
162	0x3c677b8e	0.014128579
163	0xbd9fae02	-0.07796861
164	0x3e14ab80	0.14518547
165	0xbdb97869	-0.090561695
166	0x3d2d09b6	0.04224559
167	0xbe0b04a0	-0.13575983
168	0xbc1fc741	-0.009752096
169	0xbce7f9dd	-0.028317386
170	0xbd859c8e	-0.06524001
171	0x3de7647d	0.112984635
172	0xbe22ce12	-0.15898922
173	0x3d07916c	0.03309767
174	0xbbb07459	-0.0053849635
175	0xbdb4cfb3	-0.08828678
176	0x3e258a32	0.16165999
177	0x3e0a3264	0.13495785
178	0x3d92090b	0.07130631
179	0x3c7de085	0.015495424
180	0x3df3cead	0.11904655
181	0xbd92ced4	-0.071683556
182	0xbe1323b0	-0.14369082
183	0x3e4a0746	0.19729337
184	0xbd76bfa0	-0.06024134
185	0x3d4f43ed	0.05060189
186	0x3c935ae7	0.017987682
187	0x3e335f0e	0.17516729
188	0x3e500dfc	0.20317835
189	0xbe0bb81e	-0.13644454
190	0xbbf04021	-0.0073318635
191	0xbe2549a7	-0.16141377
192	0x3defaf8b	0.11703404
193	0x3e363559	0.17793788
194	0xbda2da1a	-0.07951756
195	0x3ce0bd9b	0.027434161
196	0xbd49f37f	-0.04930448
197	0xbd5a5e39	-0.053312514
198	0x3e1558ac	0.14584607
199	0xbe3c81df	-0.18408917
200	0xbd020653	-0.031744312
201	0xbc03f56e	-0.0080541205
202	0xbe33c224	-0.17554528
203	0x3d95df2d	0.07317958
204	0x3df79641	0.120892055
205	0xbe23a3f3	-0.1598051
206	0x3d8acc8a	0.06777294
207	0xbc9f0fa8	-0.019416645
208	0x3e3339c7	0.17502509
209	0xbe3f3b72	-0.1867502
210	0x3e1fdeb2	0.15612295
211	0xbd9e5290	-0.07730591
212	0x3e200724	0.15627724
213	0xbdd84cf9	-0.10561556
214	0x3cd240c7	0.025665654
215	0x3d1c7ca3	0.0382048
216	0x3dfd2e73	0.12362375
217	0x3dba7119	0.09103603
218	0x3ddabe39	0.10680813
219	0xbd188401	-0.037235264
220	0xbe1b9014	-0.1519168
221	0x3b9e95ef	0.004839651
222	0x3e353e3d	0.17699523
223	0x3e2c4689	0.16823782
224	0xbddf7a27	-0.109119706
225	0x3e0be5e0	0.13661909
226	0x3db2f8c9	0.08738858
227	0xbd11b1ca	-0.035569943
228	0x3dddd93a	0.10832448
229	0xbbfbbb76	-0.007682259
230	0x3cd54eed	0.026038611
231	0xbdff476e	-0.12464796
232	0xbcb3ab1c	-0.021932177
233	0x3e452115	0.19250901
234	0x3dfcd4f3	0.12345304
235	0xbe1e6989	-0.15469946
236	0xbc3ece99	-0.011645936
237	0x3e00e29b	0.12586443
238	0xbda7f679	-0.08201308
239	0xbcb0216b	-0.02150031
240	0x3dc7941a	0.09745045
241	0x3e276fdb	0.16351263
242	0x3e37030f	0.1787226
243	0xbe1355a6	-0.14388141
244	0xbe3a02a7	-0.18165074
245	0x3e0cbd46	0.13744077
246	0xbc9f52ee	-0.019448724
247	0x3e30993a	0.17245951
248	0x3e0d5701	0.1380272
249	0xbda37205	-0.07980732
250	0x3d58cc37	0.05292913
251	0x3d839846	0.06425528
252	0xbd97011b	-0.07373258
253	0x3e30bdd0	0.17259908
254	0x3c8d1e87	0.01722647
255	0xbd8a1f3d	-0.067442395

conv_block_1.0.bias f4 [10]
0	0xbd9f3f24	-0.07775715
1	0x3de22eb7	0.110440664
2	0xbd9fe256	-0.07806842
3	0x3e262130	0.16223598
4	0x3e440501	0.19142534
5	0x3c446374	0.011986602
6	0xbd9337ed	-0.07188401
7	0x3e0484b2	0.12941244
8	0x3d0ad796	0.033897005
9	0x3c53c61e	0.012925653

conv_block_1.2.weight f4 [10, 10, 3, 3]
0	0x3dc3f693	0.09568515
1	0xbc002035	-0.007820179
2	0x3cd102ae	0.025513973
3	0xbd259b1f	-0.040431138
4	0xbce59818	-0.028026626
5	0xba9cfbbe	-0.001197688
6	0xbb9f2b1e	-0.004857435
7	0x3d0f9559	0.03505454
8	0x3d984a87	0.0743609
9	0x3dabaa8e	0.0838214
10	0xbcc814bf	-0.024423955
11	0x3de7d466	0.11319809
12	0x3db968fd	0.09053228
13	0x3d6c6f51	0.057723347
14	0x3cf2fb83	0.029660946
15	0xbd270cc7	-0.04078367
16	0xbd314ce5	-0.043286223
17	0x3c9eddf2	0.019392941
18	0xbd9f5adc	-0.07781002
19	0x3d01b7a9	0.031669293
20	0xbdd4367f	-0.10361957
21	0xbda923ba	-0.082587674
22	0xbd33aca1	-0.043865804
23	0x3d84b0d1	0.064790376
24	0x3d97b6ec	0.074079365
25	0xbdbf22f2	-0.09332837
26	0xbd9114bf	-0.07084035
27	0x3d2c9e85	0.042143364
28	0x3a86f292	0.001029568
29	0xbd87fadd	-0.06639645
30	0x3d48689b	0.048927885
31	0xbd89b9b5	-0.06724874
32	0x3cdd1246	0.026986253
33	0x3d80f915	0.062975086
34	0x3def8ff3	0.11697378
35	0xbd8f38b9	-0.06993241
36	0x3dc23a54	0.094837815
37	0x3cdf2071	0.027237149
38	0x3dd48a68	0.103779614
39	0x3df7d5f7	0.121013574
40	0xbc434a88	-0.011919625
41	0xbb48aef0	-0.003062185
42	0xbbc6a3be	-0.006062
43	0x3dc8eb92	0.098105565
44	0xbd04579f	-0.032310124
45	0x3da75dcb	0.081721865
46	0x3d70cb5c	0.05878769
47	0x3deb53b9	0.11490578
48	0x3dade438	0.08490795
49	0x3dcef65b	0.10105582
50	0xbd91035e	-0.0708072
51	0xbd336b65	-0.04380359
52	0xbd73728c	-0.059435412
53	0x3d8ae616	0.06782167
54	0x3cf36606	0.029711735
55	0x3d336d2e	0.043805294
56	0x3d531237	0.051531043
57	0x3c572c4b	0.013133119
58	0x3d2c8488	0.04211858
59	0xbd38beb1	-0.045103732
60	0x3d96fed1	0.07372821
61	0xbdb347d9	-0.08753938
62	0xbdb021f1	-0.08600224
63	0x3d637fbc	0.05554174
64	0x3dee2452	0.11628021
65	0xbc890503	-0.016726023
66	0x3df0ef94	0.11764446
67	0xbc9f5061	-0.019447507
68	0xbd6eb991	-0.05828244
69	0x3b733cc2	0.0037115072
70	0x3d9fad5b	0.07796737
71	0xbd0c346d	-0.034229685
72	0x3de3c197	0.11120909
73	0xbd0c3dad	-0.034238506
74	0xbd015e79	-0.031584237
75	0xbd010793	-0.031501364
76	0xbd89506b	-0.06704792
77	0x3de89c60	0.11357951
78	0xbd47f48a	-0.048817195
79	0xbd0ea931	-0.034829322
80	0xbc8e85a3	-0.017397707
81	0x3df4bfc9	0.119506426
82	0x3d90b424	0.07065609
83	0x3d5a2385	0.05325653
84	0x3af73a49	0.0018861975
85	0x3d980226	0.07422285
86	0x3d0e7660	0.03478086
87	0x3de3747d	0.11106203
88	0x3d37d357	0.044879284
89	0x3dc25cd3	0.09490361
90	0x3d8ababe	0.067738995
91	0x3c528308	0.012848623
92	0xbdd6fded	-0.10497651
93	0x3d043ce7	0.032284644
94	0xbd8f8701	-0.07008172
95	0x3cdc5218	0.026894614
96	0xbb8551cb	-0.0040685884
97	0x3dbefd5e	0.0932567
98	0xbd6d9678	-0.058004826
99	0xbdc6af80	-0.09701443
100	0x3d1bdab0	0.038050354
101	0x3d7a1c8a	0.061062373
102	0xbd04c0f4	-0.032410577
103	0x3c8fcd26	0.017553877
104	0x3d97ec7c	0.07418153
105	0xba18004c	-0.0005798384
106	0xbd279968	-0.040917784
107	0x3d4ef517	0.050526705
108	0x3dc7ed09	0.09762008
109	0xbbe75b61	-0.0070604538
110	0x3db2b304	0.08725551
111	0x3c5e1546	0.013554877
112	0xbc577136	-0.01314955
113	0xbb9cd1b6	-0.0047857417
114	0xbdbc4f05	-0.09194759
115	0x3d64a5d4	0.05582221
116	0xbd71a98d	-0.058999587
117	0xbdd37820	-0.103256464
118	0xbcfde249	-0.03099169
119	0xbd76d19e	-0.0602585
120	0xbda72be3	-0.081626676
121	0xbd1e202a	-0.038604893
122	0xbce3ed98	-0.027823254
123	0x3c8dcdc1	0.017310025
124	0xbb0c618f	-0.0021420454
125	0xbd003106	-0.031296752
126	0xbc5fa57a	-0.0136502925
127	0xbdb5d152	-0.08877815
128	0x3da7c08f	0.081910245
129	0x3c82927a	0.015938986
130	0x3d440165	0.047852892
131	0xbdd9ec88	-0.10640818
132	0x3d170552	0.03687031
133	0xbb8c4673	-0.004280859
134	0xbde8f187	-0.11374193
135	0x3dd7250a	0.105051115
136	0xb99ee98d	-0.00030310117
137	0x3cad0cc2	0.021124247
138	0x3dbbedf9	0.09176249
139	0x3d8e397e	0.069445595
140	0x3dc1ad86	0.09456925
141	0xbdc19fc4	-0.09454301
142	0x3dd84a98	0.10561103
143	0x3cddf171	0.027092667
144	0x3cba5953	0.022747671
145	0xbd73d8db	-0.05953298
146	0xbd11d0d7	-0.035599556
147	0x3dfe69fb	0.12422558
148	0x3dd4cd32	0.103907004
149	0x3ddac58e	0.10682212
150	0x3c599816	0.013280889
151	0xbd117332	-0.03551025
152	0x3d41510b	0.04719643
153	0xbd801a72	-0.06255044
154	0xbdabf0a7	-0.0839551
155	0x3c689bba	0.014197284
156	0x3d90a738	0.070631444
157	0xbdc4ca6a	-0.0960892
158	0xbde36877	-0.111039095
159	0x39800f1e	0.00024425326
160	0xbd52b92b	-0.05144612
161	0xbd95e1de	-0.07318471
162	0xbc806604	-0.015673645
163	0xbacfe2e2	-0.0015860463
164	0xbcd7a62a	-0.02632435
165	0x3dac0dd0	0.08401072
166	0x3d80f4e9	0.06296713
167	0x3d132eb7	0.035933223
168	0xbcee215b	-0.02906864
169	0xbbcb8642	-0.006211073
170	0x3d901754	0.070356995
171	0xbcf59ec0	-0.029982924
172	0xbe05d41c	-0.13069195
173	0xb887cc28	-6.475329e-05
174	0x3cab31bf	0.020897744
175	0xbd64f2ad	-0.055895496
176	0xbcfe66a0	-0.031054795
177	0xbd3bd097	-0.045853224
178	0x3d279810	0.040916502
179	0x3da1f88b	0.07908734
180	0xbd9df761	-0.077131994
181	0x3d89cffc	0.06729123
182	0x3d076296	0.033053003
183	0x3d199d5f	0.037503596
184	0xbd6b2352	-0.05740673
185	0xbd67f867	-0.05663338
186	0x3dd0567d	0.10172746
187	0x3ccda826	0.025104593
188	0xbcaedd9b	-0.021345904
189	0xbc5044a8	-0.012711681
190	0x3da61dbc	0.0811114
191	0xbc71cb32	-0.014757918
192	0x3da253b9	0.07926125
193	0xbca05afd	-0.019574637
194	0x3d19b67e	0.037527554
195	0x3d12a4f6	0.03580185
196	0xbd2d18fd	-0.04226016
197	0x3c926aff	0.017873285
198	0x3c91292e	0.017719831
199	0xbddfe848	-0.10932976
200	0xbc843cc2	-0.016142253
201	0x3c9418a6	0.01807816
202	0x3dbdee78	0.09274
203	0x3d00b85a	0.03142581
204	0xbda357de	-0.07975744
205	0xbc76bb7b	-0.015059347
206	0x3de2741e	0.11057304
207	0xbc78a2db	-0.0151755465
208	0x3d9f3acf	0.07774889
209	0x3c45c88b	0.012071739
210	0x3d8a5ba8	0.06755763
211	0xbd458084	-0.048218265
212	0x3dd25020	0.10269189
213	0x3caf1f47	0.021377219
214	0xbcd05f07	-0.025435938
215	0x3da05511	0.07828725
216	0x3d85feb3	0.06542721
217	0xbd763023	-0.0601045
218	0xbaf13cc0	-0.0018404946
219	0x3dbebb3e	0.09313057
220	0x3d262c54	0.04056962
221	0xbcd6a735	-0.026202777
222	0xbd4e9cc2	-0.050442465
223	0xbd6de5ba	-0.058080412
224	0x3d8a018d	0.06738577
225	0x3d542589	0.05179361
226	0xbdb3529f	-0.08755993
227	0xbc57139d	-0.013127235
228	0x3ceac3c2	0.028657798
229	0xbdb32b19	-0.087484546
230	0x3dcb4750	0.09925711
231	0xbc3efe6e	-0.01165734
232	0xbd210965	-0.0393156
233	0x3ca65da4	0.020308323
234	0x3d2dfda5	0.042478222
235	0x3d060c81	0.03272677
236	0x3de59993	0.112109326
237	0x3d7da8a1	0.061928395
238	0xbbba09d3	-0.0056774407
239	0x3cecfac3	0.028928166
240	0x3ccef2e5	0.025262306
241	0xbd2fd5a3	-0.04292835
242	0xbdac9c52	-0.08428253
243	0xbc1e4df0	-0.009662136
244	0xbd345209	-0.044023547
245	0xbdddd31d	-0.10831282
246	0x3d1bffc7	0.038085725
247	0xbd3fd1c3	-0.046830904
248	0x3dc05444	0.093910724
249	0x3d14bfeb	0.03631584
250	0x3d1f5156	0.038895927
251	0x3cc113a5	0.023568938
252	0x3d365130	0.04451102
253	0x3d95e077	0.07318204
254	0x3db02426	0.08600645
255	0xbb7da850	-0.0038705058

conv_block_1.2.bias f4 [10]
0	0x3c730190	0.0148319155
1	0xbd2acffb	-0.041702252
2	0x3d9ead16	0.07747857
3	0xbd8f8cdc	-0.07009289
4	0xbdd0da3a	-0.101978734
5	0xbcf1e8ad	-0.029529894
6	0xbd27edeb	-0.04099838
7	0xbd90d0c4	-0.07071069
8	0xbd1880f7	-0.037232365
9	0xbc462749	-0.012094327

conv_block_2.0.weight f4 [10, 10, 3, 3]
0	0x3d963307	0.073339514
1	0x3d881ea0	0.06646466
2	0x3dc2a13e	0.09503411
3	0x3d9f12e1	0.07767273
4	0x3d193ea8	0.03741327
5	0x3c1ad3a7	0.009449876
6	0xbb3fe699	-0.0029281734
7	0xbd9813e7	-0.07425671
8	0x3ca1c8ee	0.019749131
9	0xbc959fc8	-0.018264666
10	0xbcb9d702	-0.022685532
11	0x3dc78033	0.09741249
12	0x3d5a4585	0.053288955
13	0x3d90f3bb	0.07077738
14	0x3d9a923f	0.075474255
15	0xbd697f83	-0.05700637
16	0x3d10885b	0.03528629
17	0xbbb7a3aa	-0.005604227
18	0x3d0a7a52	0.03380806
19	0x3d705620	0.058675885
20	0xbcf6924a	-0.030099053
21	0x3d9acf42	0.075590625
22	0x3a4ce647	0.00078162964
23	0xbcc3422a	-0.02383526
24	0x3d863ac0	0.065541744
25	0x3d9f9c3e	0.07793473
26	0xbd0a0dab	-0.03370444
27	0x3d56e01a	0.052459814
28	0xbcfacf0e	-0.03061631
29	0xbc282806	-0.010263449
30	0xbda8d3c3	-0.08243515
31	0xbd58eea4	-0.05296196
32	0x3bcee47d	0.006313859
33	0xbcfa0a8d	-0.03052261
34	0xbc9be6ec	-0.01903101
35	0x3c8f06c0	0.017459273
36	0xbd43e67d	-0.047827233
37	0x3d54a3b0	0.051913917
38	0x3dd0fb06	0.10204129
39	0x3d9c236b	0.07623943
40	0x3dab5b86	0.08367066
41	0xbd2a8638	-0.041631907
42	0xb9b69972	-0.0003482807
43	0xbd1ead66	-0.038739584
44	0xbd55eb3d	-0.052226294
45	0xbcf6dbe0	-0.030134141
46	0x3d6928e1	0.05692375
47	0xbdde3054	-0.108490616
48	0xbd854735	-0.06507722
49	0x3d39de62	0.045378096
50	0x3d290517	0.04126462
51	0xbd12238d	-0.035678435
52	0xbd0c92f3	-0.03431983
53	0xbcf14c9a	-0.029455472
54	0x3db45030	0.08804357
55	0x3daf9bb6	0.085746214
56	0xbd34636a	-0.04404012
57	0x3cb9a0e2	0.022659723
58	0xbdcecd0b	-0.100977026
59	0xbd93b993	-0.0721313
60	0x3abd5545	0.0014444968
61	0xbccef6b8	-0.025264129
62	0xbd3349ea	-0.04377166
63	0x3dad7114	0.084688336
64	0x3d2d3df3	0.042295408
65	0x3bc06b93	0.005872199
66	0xbd03033c	-0.031985506
67	0xbab531c5	-0.0013824037
68	0x3db6aff7	0.089202814
69	0xbcc79d2c	-0.024366938
70	0x3bc95106	0.006143692
71	0x3d077fa2	0.033080705
72	0x3d931f09	0.07183654
73	0x3da0d04e	0.07852231
74	0xbd0b295e	-0.033974998
75	0x3d5a6144	0.053315416
76	0x3d02f3af	0.031970676
77	0x3cee251a	0.029070426
78	0xbda1be2e	-0.07897602
79	0x3de59566	0.11210136
80	0x3d731819	0.059349153
81	0x3c0e6c2d	0.008692783
82	0x3d220830	0.03955859
83	0xbca8b18d	-0.020592475
84	0xbd981408	-0.07425696
85	0xbcf9f316	-0.03051142
86	0xbdc006d2	-0.09376301
87	0x3dc36144	0.09540036
88	0x3d4d65cd	0.050145913
89	0x3ce6005a	0.02807634
90	0xbda9e5c4	-0.082957774
91	0xbd83cdc6	-0.064357325
92	0x3d409397	0.047015753
93	0xbdcee286	-0.101018
94	0x3cd07372	0.025445674
95	0x3d81b9df	0.0633428
96	0xbde1d795	-0.11027447
97	0x3d9eeea2	0.07760359
98	0xbdd37366	-0.10324745
99	0xbc02c38c	-0.007981192
100	0x3db66756	0.089064285
101	0x3dc31492	0.09525408
102	0x3ddb48a0	0.107072115
103	0x3dd5634c	0.1041933
104	0xbdaca5a4	-0.08430031
105	0x3cce38e1	0.025173606
106	0xbd9f5e89	-0.07781703
107	0x3da0e012	0.07855238
108	0x3cf051da	0.029335905
109	0x3da72032	0.08160438
110	0x3cd9fdf8	0.02661036
111	0x3d8ddb7c	0.06926629
112	0xbb8f0f7d	-0.00436586
113	0xbdaa58c2	-0.083177105
114	0xbd958e5f	-0.07302546
115	0xbae9a7a2	-0.0017826448
116	0xbdbdb0d8	-0.09262246
117	0x3daaac71	0.08333672
118	0xbd709cde	-0.05874335
119	0xbd97936a	-0.07401164
120	0x3dc53b48	0.096304476
121	0xbd784e6b	-0.06062166
122	0xbd24a8e6	-0.040200137
123	0xbb5e1fb2	-0.0033893404
124	0x3cfa64be	0.030565616
125	0xbcf08241	-0.029358985
126	0x3d5a45ac	0.0532891
127	0xbd802d62	-0.06258656
128	0x3cf99cb0	0.030470222
129	0xbddf22a7	-0.10895281
130	0xbdc7367c	-0.09727189
131	0x3d316774	0.04331155
132	0x3d381c37	0.044948783
133	0xbd232582	-0.039830692
134	0x3d2b86b0	0.041876495
135	0xbc8aded9	-0.016951965
136	0x3d8b90cd	0.06814728
137	0x3c861577	0.016367657
138	0xbc720abc	-0.014773067
139	0x3ce18b54	0.027532257
140	0xbdcba6ee	-0.09943949
141	0x3d868a21	0.06569315
142	0x3dd4cb3b	0.10390326
143	0x3dbb0348	0.09131485
144	0xbda25f1c	-0.07928297
145	0xbd6aa497	-0.05728587
146	0xbd77cdb3	-0.060498904
147	0x37f93880	2.9709423e-05
148	0xbdb372cc	-0.0876213
149	0xbdc62744	-0.09675458
150	0xbd876ca2	-0.06612517
151	0x3d95c45f	0.073128454
152	0xba080b32	-0.00051896565
153	0xbdbb047f	-0.09131717
154	0xbd5a927c	-0.053362355
155	0xbd962d11	-0.073328145
156	0xbbe48ce5	-0.0069748037
157	0x3b7efbd1	0.0038907418
158	0xbd7a71a9	-0.06114355
159	0xbda5f867	-0.081040196
160	0xbc85a6b3	-0.01631484
161	0x3c51b5e5	0.012799715
162	0x3da4a419	0.08039112
163	0x3d07b7be	0.033134215
164	0xbd83a947	-0.064287715
165	0xbdc6566d	-0.09684453
166	0x3c6ea52b	0.014565746
167	0xbc9e36b6	-0.019313198
168	0x3d7afadc	0.061274394
169	0xbda4a8fc	-0.08040044
170	0xbc068dc6	-0.008212512
171	0xbd801fb4	-0.06256047
172	0xbd347415	-0.044056017
173	0xbd5bdb73	-0.05367608
174	0xbc045d2b	-0.008078854
175	0xbaa533bc	-0.0012603919
176	0x3de126a7	0.109937005
177	0x3dd48374	0.10376635
178	0x3da2564a	0.079266146
179	0x3cecfc01	0.028928759
180	0xb9f0ad9c	-0.00045905716
181	0x3dcc8219	0.09985752
182	0xbd8ba5fc	-0.068187684
183	0xbdcb024d	-0.09912548
184	0xbd65e64b	-0.056127828
185	0x3da80514	0.082040936
186	0x3ddaecfd	0.10689733
187	0xbd10c9a5	-0.035348553
188	0xbd8b37e4	-0.0679777
189	0xbdce06ae	-0.10059868
190	0x3d2ae676	0.04172369
191	0xbd4b8186	-0.04968407
192	0x3d9365ff	0.071971886
193	0xbd35e6b6	-0.044409476
194	0x3db672ee	0.0890864
195	0x3d7bfa13	0.061517786
196	0x3d7fdfa7	0.06246915
197	0x3d48298d	0.04886775
198	0xbdbbac1c	-0.09163687
199	0x3beba34c	0.0071910974
200	0xbd90868c	-0.07056913
201	0xbd219966	-0.039452933
202	0x3d6e6c2f	0.05820864
203	0xbd7a4a0d	-0.061105777
204	0x3d75aff6	0.059982263
205	0xbaa4b77c	-0.001256689
206	0xbd6904b7	-0.056889262
207	0xbd3246cf	-0.04352456
208	0xbdc2afe3	-0.09506204
209	0x3d033e06	0.032041572
210	0x3bbeb0a6	0.005819398
211	0x3dd360a6	0.103211686
212	0x3d333346	0.04375007
213	0x3d173089	0.03691152
214	0x3b9b03cf	0.0047306786
215	0x3d6b9b07	0.057520892
216	0xbc8d11b2	-0.017220352
217	0x3d322b3b	0.04349826
218	0xbd3373fb	-0.04381178
219	0x3d894cd2	0.067041054
220	0x3cd92148	0.026505128
221	0x3d7f729c	0.06236516
222	0x3c5f4055	0.013626178
223	0x3d7e42fb	0.062075596
224	0x3dcb68ea	0.0993212
225	0x3ca80995	0.020512382
226	0x3d9e0bd2	0.07717098
227	0xbdb160d0	-0.08661044
228	0xbc3974e9	-0.011319377
229	0xbdb162e4	-0.0866144
230	0x3c6a6b84	0.01430786
231	0x3cc31544	0.023813851
232	0x3cfd1b72	0.030896876
233	0xbd2569ba	-0.04038403
234	0x3d4078c5	0.046990175
235	0xbd4d64a1	-0.050144795
236	0xbcf9bb36	-0.030484777
237	0x3db361bc	0.08758876
238	0xbdb4f308	-0.08835417
239	0x3d0635df	0.03276622
240	0xbdbcfbb2	-0.092276946
241	0x3d175086	0.036942028
242	0xbdae26d0	-0.08503497
243	0xbdbcb2ca	-0.09213789
244	0xbcbc15f9	-0.022959696
245	0x3da0b052	0.078461304
246	0x3d61d5db	0.05513559
247	0x3d94a6d9	0.07258386
248	0xbcf1e2e2	-0.029527131
249	0x3dc1df8b	0.094664656
250	0xbd58e340	-0.052951097
251	0xbc4a8c95	-0.012362619
252	0xbdccb249	-0.09994943
253	0x3bc24022	0.0059280554
254	0x3ccd395c	0.025051765
255	0xbdd5a206	-0.10431294

conv_block_2.0.bias f4 [10]
0	0x3d3cbc12	0.046077795
1	0x3d3ff0d1	0.04686052
2	0xbd571a48	-0.052515298
3	0xbca01d19	-0.019545125
4	0x3d246e40	0.040144205
5	0xbdbe3fca	-0.092895105
6	0x3d849717	0.064741306
7	0x3c157780	0.009122729
8	0xbd9ee07d	-0.077576615
9	0xbca5d54b	-0.020243308

conv_block_2.2.weight f4 [10, 10, 3, 3]
0	0x3cc23282	0.023705725
1	0x3d8743ee	0.066047534
2	0x3d8eff53	0.06982293
3	0xbd99533d	-0.074865796
4	0xbd9b0849	-0.0756994
5	0x3d2f778e	0.042838626
6	0x3dc7cdbe	0.09756039
7	0x3da97683	0.082745574
8	0x3d0b6b29	0.034037743
9	0x3dcb3980	0.09923077
10	0xbd56b5bb	-0.052419405
11	0xbc10bf3c	-0.008834656
12	0xbdb77b89	-0.08959109
13	0xbd8a37a1	-0.067488916
14	0xbd9e491b	-0.077287875
15	0xbdca7fd6	-0.09887664
16	0x3cdcbb32	0.02694473
17	0x3cb0eab7	0.021596296
18	0x3d29aa69	0.04142228
19	0x3d747305	0.059680004
20	0xbdb018de	-0.08598493
21	0xbce4485f	-0.02786654
22	0x3da948a7	0.082658105
23	0xbdbc2776	-0.09187214
24	0x3d994d83	0.07485487
25	0x3d12cced	0.035839964
26	0xbda8f74c	-0.08250293
27	0x3cd07389	0.025445716
28	0x3c5c334c	0.0134399645
29	0x3d11647a	0.035496213
30	0xbd29a77f	-0.041419502
31	0x3d71c429	0.059024964
32	0x3dcad13c	0.099031895
33	0x3d7893b9	0.060687754
34	0xbc244ab9	-0.010027581
35	0xbdb18b2f	-0.08669125
36	0x3dbe497d	0.092913605
37	0x3cce4d0b	0.025183221
38	0x3dbcf1e1	0.09225822
39	0x3cdc7be1	0.026914539
40	0xbc1cf148	-0.00957901
41	0x3d546256	0.051851593
42	0x3d3fbe6e	0.046812467
43	0xbca54fa5	-0.020179579
44	0x3c0153f3	0.00789355
45	0xbb8c3950	-0.004279293
46	0x3d93eaf1	0.07222546
47	0x3d448f5e	0.047988288
48	0xbc8ffbdc	-0.01757615
49	0x3dc92d29	0.09823067
50	0x3dcedd1d	0.10100768
51	0x3daf5eef	0.08563029
52	0x3c9ab924	0.01888711
53	0x3bd341e0	0.006447062
54	0xbdc62d71	-0.09676636
55	0x3d169516	0.036763273
56	0xbdead276	-0.114659235
57	0xbe093f8a	-0.13403144
58	0xbc271261	-0.010197253
59	0xbe0cf01e	-0.13763472
60	0xbc0281d9	-0.007965528
61	0xbdbf43f1	-0.09339131
62	0xbd22a48b	-0.0397077
63	0xbd20693e	-0.039162867
64	0x3db6505a	0.089020446
65	0xbd8e9076	-0.069611475
66	0x3ca3714a	0.019951481
67	0x39271b5c	0.00015936553
68	0xbdc888e2	-0.09791733
69	0x3da88286	0.0822802
70	0x3c9a10c3	0.01880682
71	0xbd982276	-0.07428448
72	0xbde1d450	-0.110268235
73	0x3d07f4ce	0.03319245
74	0x3d97d79f	0.07414173
75	0xbcba8f91	-0.022773536
76	0xbccd84db	-0.025087764
77	0xbda6f0ce	-0.081513986
78	0x3d8c5ae6	0.06853275
79	0xbd1ee8c6	-0.03879621
80	0xbd4ddf22	-0.050261624
81	0x3d50b9f7	0.0509586
82	0x3dde9ea8	0.10870105
83	0x3d830475	0.063973345
84	0x3d26c974	0.040719464
85	0x3de05358	0.109533966
86	0x3ca76b4b	0.020436903
87	0x3cce0e9e	0.025153454
88	0x3be94120	0.007118359
89	0xbd4dfa24	-0.05028738
90	0x3c9ea1e4	0.019364305
91	0xbd603677	-0.05473944
92	0x3d79dbaa	0.061000504
93	0xbd94e84f	-0.07270872
94	0xbdb07514	-0.08616081
95	0xbca6d720	-0.020366251
96	0x3da05e61	0.07830501
97	0xbda40558	-0.08008832
98	0xbd099992	-0.03359372
99	0xbc0453a0	-0.008076578
100	0xbd3cd164	-0.046098128
101	0x3d4bf832	0.049797244
102	0x3dbc92d7	0.09207695
103	0x3d69b026	0.057052754
104	0xbcb61bcc	-0.022230051
105	0xbda97dc9	-0.08275945
106	0xbdb23d7e	-0.08703135
107	0xbccec6b0	-0.025241226
108	0xbd0803ae	-0.033206634
109	0xbda3b7f7	-0.07994073
110	0x3cd58c64	0.02606792
111	0xbd2399e8	-0.0399417
112	0x3cfa6a5c	0.030568294
113	0xbd6545eb	-0.055974882
114	0xbc1b9d48	-0.009497948
115	0xbd01efa4	-0.03172268
116	0x3d849a47	0.064747386
117	0xbdc50594	-0.096202046
118	0xbd2a419e	-0.041566484
119	0x3cb8676c	0.022510253
120	0xbcf347a8	-0.029697254
121	0xbaec7400	-0.0018039942
122	0x3d91e6df	0.07124113
123	0x3c773a30	0.015089557
124	0x3c54e610	0.012994304
125	0x3cfc459c	0.030794911
126	0xbd684a87	-0.0567117
127	0xbd2c6e14	-0.042097166
128	0x3d4ed1aa	0.05049292
129	0x3c7a5ba0	0.015280634
130	0x3d8cd32d	0.06876216
131	0xbc5c7e10	-0.01345779
132	0x3dcacc19	0.0990221
133	0x3d80ec15	0.06295029
134	0xbcf1e818	-0.029529616
135	0xbd5ca64e	-0.053869538
136	0x3cae60d4	0.021286406
137	0xbdb41770	-0.08793533
138	0xbd45ba9e	-0.048273675
139	0x3d0444ba	0.032292105
140	0x3c16a1c0	0.009193838
141	0x3d4364d6	0.047703587
142	0xbd3498a5	-0.044090886
143	0x3db5ac17	0.08870714
144	0xbd6d6c60	-0.057964683
145	0xbd5d3b64	-0.054011717
146	0x3d906e57	0.07052296
147	0xbca699d4	-0.020337023
148	0x3cf70784	0.03015495
149	0xbc99662c	-0.018725477
150	0xbd98ad07	-0.07454877
151	0xbb8a2b20	-0.0042165667
152	0x3d43e0c6	0.047821783
153	0x3d917d0b	0.07103928
154	0x3da4ad4f	0.080408685
155	0xbb734300	-0.0037118793
156	0x3d9c5c3b	0.07634779
157	0x3cf39594	0.02973441
158	0x3b7fa580	0.0039008558
159	0x3b0281e0	0.0019913837
160	0xbc24caa0	-0.010058075
161	0x3cf69bc4	0.030103572
162	0xbbb27230	-0.005445741
163	0x3d8ad53b	0.06778952
164	0xbc8385d4	-0.016055025
165	0xbd6fc1ad	-0.058534313
166	0x3cfaf2b4	0.030633308
167	0xbd71edac	-0.059064552
168	0x3d86109b	0.06546136
169	0x3db04f51	0.086088784
170	0x3c8a9f64	0.016921706
171	0xbcad38f0	-0.021145314
172	0xbb9bf940	-0.0047599375
173	0x3d4a34fa	0.04936693
174	0xbda4e9bb	-0.08052393
175	0xbce723e8	-0.028215364
176	0xbd8386c2	-0.064221874
177	0xbdc342ef	-0.09534251
178	0xbd9a761e	-0.0754206
179	0xbd8ab4a0	-0.06772733
180	0x3dab4fc8	0.083648264
181	0x3d8b17b5	0.06791631
182	0xbd8befbd	-0.06832836
183	0xbda2d21d	-0.07950232
184	0x3dc850c5	0.097810306
185	0x3ce08d85	0.027411232
186	0x3d5632c3	0.052294504
187	0x3ca6ce76	0.02036212
188	0xbd169f49	-0.036773
189	0xbd8b3ec9	-0.06799085
190	0x3d4c2533	0.049840163
191	0xbde167ee	-0.11006151
192	0xbdc91a3a	-0.098194554
193	0x3cc6ac73	0.024252152
194	0xbd0e561f	-0.0347501
195	0x3c270f59	0.01019653
196	0x3d4016c0	0.046896696
197	0xbd8ae6b4	-0.067822844
198	0xbd5cf147	-0.053941038
199	0xbd67e56c	-0.056615278
200	0xbdb9d0ac	-0.09073004
201	0xbb58141a	-0.0032970966
202	0x3dbf7aac	0.0934957
203	0xbb7af879	-0.0038295074
204	0x3d89ac03	0.06722262
205	0xbd486b31	-0.04893035
206	0x3c24125d	0.010014144
207	0xbd7c4c75	-0.061596353
208	0x3b71d227	0.0036898942
209	0x3cbc1e31	0.022963615
210	0xbce1673b	-0.027515044
211	0x3de3fa43	0.11131718
212	0x3ce68a52	0.028142128
213	0x3d946676	0.072461054
214	0x3de87684	0.1135073
215	0x3d41ee49	0.047346387
216	0x3b0541e9	0.0020333475
217	0x3d78b768	0.060721785
218	0x3ddf5dfb	0.10906597
219	0xbdbc73f1	-0.092018016
220	0xbc12c9d0	-0.008959249
221	0x3d762a49	0.06009892
222	0xbc5ce220	-0.013481647
223	0xbd96099e	-0.07326053
224	0xbd4ec484	-0.05048038
225	0xbd606819	-0.054786775
226	0x3d32fff6	0.043701135
227	0x3d8970d1	0.06710971
228	0xbc448950	-0.0119956285
229	0xbdb0a46c	-0.08625111
230	0x3c756220	0.014977008
231	0x3cf16acc	0.02946987
232	0xbd22dc82	-0.039761074
233	0x3d14e072	0.03634686
234	0xba87d87f	-0.0010364203
235	0x3d9fd3a0	0.07804036
236	0x3dec34dd	0.1153352
237	0x3dbc946d	0.092079975
238	0x3cf2dda4	0.029646702
239	0x3e0e194b	0.13876836
240	0x3cfb8647	0.030703677
241	0xbd699fca	-0.057037152
242	0x3de2e738	0.11079258
243	0x3dbc26d9	0.09187097
244	0x3d22a710	0.039710104
245	0x3dac2aac	0.084065765
246	0x3d50cc49	0.05097607
247	0x3d2f3021	0.04277051
248	0x3d494a87	0.04914334
249	0xbdb9cf69	-0.090727635
250	0xbc4c10bd	-0.012455163
251	0xbd58e2f3	-0.05295081
252	0x3ce9fa55	0.02856175
253	0xbdc5e187	-0.096621566
254	0x3be438ee	0.0069647944
255	0x3d21a12d	0.03946035

conv_block_2.2.bias f4 [10]
0	0x3d97c480	0.07410526
1	0xbc24d528	-0.010060586
2	0x3d815e7f	0.06316852
3	0xbdd9c709	-0.10633666
4	0x3d9e7d0c	0.077386945
5	0x3d4234ed	0.047413755
6	0xbd97d8b8	-0.07414383
7	0xbd261aaa	-0.040552773
8	0xbd250920	-0.040291905
9	0xbd7c702d	-0.061630417

linear_layer.1.weight f4 [2, 1690]
0	0x3c39bd37	0.011336616
1	0xbb62c87c	-0.0034604361
2	0x3c801c25	0.01563842
3	0xba8de3f5	-0.0010825383
4	0x3cc821f7	0.024430258
5	0xbb886504	-0.0041624326
6	0x39e9468e	0.0004449379
7	0xbb2bbd5d	-0.0026205399
8	0x3bde8bda	0.006791574
9	0xbb4d3e32	-0.003131759
10	0xbc4d4743	-0.012529197
11	0xbca55b77	-0.020185215
12	0x3c7d7375	0.015469422
13	0x3b81f108	0.0039655007
14	0xbc3b1122	-0.011417659
15	0x3c9d8f21	0.019233288
16	0x3c13def0	0.00902532
17	0xbb4dc7a4	-0.0031399513
18	0x3b83e9fd	0.0040256963
19	0x3bfb12a4	0.0076621342
20	0x3cba1a92	0.022717748
21	0xbc89623f	-0.01677048
22	0xbc4b329a	-0.012402201
23	0xbc63f38c	-0.013913047
24	0xbc812695	-0.015765468
25	0xb8a23322	-7.734286e-05
26	0x3c63d30f	0.013905301
27	0x3c3c33dc	0.011486974
28	0x3c8e98c9	0.017406838
29	0x3c148f15	0.009067317
30	0x3b8a872f	0.004227541
31	0xbc8737b6	-0.016506057
32	0x3cdafc18	0.026731536
33	0x3ce572c3	0.028008824
34	0x3b8f1535	0.0043665417
35	0x3c339db2	0.01096289
36	0x3c35746d	0.011075121
37	0x3ce20e05	0.027594576
38	0xbb3dd291	-0.0028964619
39	0xbb5ce28e	-0.0033704373
40	0xbbfc6551	-0.0077025075
41	0x3c560f8d	0.013065231
42	0x3c85c003	0.01632691
43	0xbc89520c	-0.016762756
44	0x3c5ba685	0.013406401
45	0x3c2b6c44	0.010462824
46	0x3c69af2f	0.014262958
47	0x3c70250e	0.014657272
48	0xba478798	-0.00076114526
49	0x3c22e354	0.009941895
50	0xbc5a2c12	-0.013316171
51	0x3c37911d	0.011204031
52	0xbca1fd02	-0.019773964
53	0xbc852f0a	-0.016257782
54	0xbc4a2077	-0.012336842
55	0xbc1f8104	-0.00973535
56	0x3b8c6ff9	0.004285809
57	0x3ca6389b	0.020290663
58	0x398f1fc2	0.00027298747
59	0x3ca59036	0.020210367
60	0xbab7b745	-0.001401641
61	0x3cca446c	0.02469083
62	0x3cb907a9	0.02258666
63	0x3c9cc598	0.019137189
64	0x3bcc5179	0.0062352982
65	0xbc806e01	-0.015677454
66	0x3ce788bd	0.028263444
67	0xbc9bbcf8	-0.019011006
68	0xbc6811d7	-0.01416441
69	0xbc3f0a6a	-0.011660198
70	0xbb3dcf6d	-0.0028962747
71	0x3c5b91f0	0.013401493
72	0x3beb626c	0.0071833637
73	0xbc98a611	-0.018633874
74	0x3cd7e7cc	0.026355647
75	0x3ce2170e	0.027598884
76	0x3c7cfb96	0.015440842
77	0xbcd18c22	-0.025579516
78	0x3c635bbf	0.013876854
79	0x3c277804	0.010221485
80	0xba468bce	-0.0007573933
81	0xbc977a98	-0.018491074
82	0x3cbd9762	0.023143474
83	0xbb9f4429	-0.0048604202
84	0xbc919822	-0.017772738
85	0x3ca3cfb2	0.019996498
86	0x3c336ece	0.010951711
87	0x3c167365	0.009182786
88	0x3c9b15f4	0.018931367
89	0x3c37824a	0.011200497
90	0xbbef009a	-0.007293773
91	0xbb941906	-0.0045195846
92	0x3cb3b515	0.021936933
93	0xb92b8c7a	-0.00016360162
94	0xbc9b9ec9	-0.018996613
95	0xbc797ea1	-0.015227945
96	0xbc879778	-0.016551718
97	0x3b71f63a	0.0036920444
98	0x3c977319	0.0184875
99	0x3c7955db	0.015218223
100	0x3bf3bfe8	0.0074386485
101	0x3c1fbad8	0.009749137
102	0xbc1bac40	-0.009501517
103	0x3ca5b542	0.020228032
104	0x3c0436e1	0.008069725
105	0xbc7ef3ef	-0.015561088
106	0xbc8d8187	-0.017273678
107	0xbcb0f10f	-0.02159932
108	0xbbd10f29	-0.006379981
109	0x3c9c7eab	0.019103369
110	0x3b17b658	0.0023149457
111	0xbc3d4b6e	-0.011553628
112	0x3bc6ae6f	0.0060632746
113	0xbc8f78d5	-0.017513672
114	0x3bdd55ce	0.0067546135
115	0x3c8debe9	0.017324405
116	0x3c0ba2bc	0.008522686
117	0xbc205816	-0.009786626
118	0xbc38c39b	-0.011277105
119	0x3bdf8d40	0.0068222582
120	0x3c5546ed	0.013017398
121	0xbbd9b015	-0.006643305
122	0x3a100b80	0.00054948777
123	0xbb247d60	-0.0025099143
124	0xbb76c814	-0.0037655877
125	0xbcc13c9e	-0.023588475
126	0xbcca8c35	-0.024725059
127	0x3c924882	0.01785684
128	0xbc5b32ad	-0.013378781
129	0x3c641390	0.01392068
130	0x3c375be5	0.011191343
131	0xbc0da1c8	-0.008644529
132	0xbc841e52	-0.01612774
133	0xbab14574	-0.0013524727
134	0xbbb09b11	-0.005389579
135	0xbc6be15f	-0.014396994
136	0x3cbfd303	0.023416048
137	0xbb619ba8	-0.0034425054
138	0xbbd0aef0	-0.0063685104
139	0xbca28f86	-0.019843828
140	0xbb2ccb16	-0.0026366166
141	0xb9c3d9d6	-0.000373556
142	0x3c98d156	0.018654507
143	0xbc4e30c2	-0.012584867
144	0x3c0e9405	0.008702283
145	0xbafe7d74	-0.001941605
146	0x3c35a9ec	0.011087876
147	0xba68c1b3	-0.0008878961
148	0xbb90e8e8	-0.004422296
149	0x3c123bb5	0.008925368
150	0xbc49489c	-0.012285378
151	0x3c5011d4	0.012699563
152	0xbcbb1835	-0.022838691
153	0xbcaec89c	-0.021335892
154	0x3c992e3c	0.018698804
155	0xbc910324	-0.017701693
156	0xbcc844e6	-0.024446916
157	0xbcaba92f	-0.020954696
158	0x3caf3c8c	0.021391176
159	0xbba9a9f3	-0.00517773
160	0xbcb2e327	-0.02183683
161	0xbb887e88	-0.0041654743
162	0xbc51c860	-0.012804121
163	0xbc9271c5	-0.017876515
164	0xbc5e8904	-0.013582472
165	0x3c8884d9	0.01666491
166	0x3bed3049	0.007238422
167	0x3c2ad184	0.010425929
168	0xbbda2e34	-0.00665834
169	0xbc269f19	-0.010169768
170	0xbc22a8a1	-0.0099279
171	0xbc85bdfe	-0.016325947
172	0xbc8ff832	-0.017574403
173	0xbcabd017	-0.020973248
174	0x3b8d9c14	0.0043215845
175	0x3c5120ae	0.012764139
176	0x3ca29d09	0.01985027
177	0xba21f060	-0.0006177481
178	0xbb684af8	-0.0035445075
179	0xbb0482c8	-0.0020219553
180	0x3c1d06b6	0.00958412
181	0xbb7c8210	-0.0038529672
182	0xbc0c0a1e	-0.008547334
183	0xbbdba0a8	-0.0067025013
184	0xbcc2a8f9	-0.023762213
185	0xbc9976c0	-0.018733382
186	0xbc2a980a	-0.0104122255
187	0x3b1a7458	0.0023567881
188	0xbc7a524b	-0.015278409
189	0x3c18a2f6	0.009316197
190	0xbc59f830	-0.013303801
191	0x3cc0cc0f	0.023534803
192	0xbcb01bb7	-0.02149759
193	0x3c5e3a5e	0.0135637205
194	0xbc4eee0d	-0.012629998
195	0xbc0d5034	-0.008625079
196	0xbcba1171	-0.022713395
197	0xbcb8af22	-0.022544447
198	0xbcbc9638	-0.023020849
199	0xb9f4f400	-0.000467211
200	0x3cb78b4d	0.022405291
201	0x3c36bd0a	0.011153469
202	0x3c798c4a	0.015231201
203	0x3bb27938	0.0054465793
204	0xbc19fc4f	-0.009398534
205	0xbc1b36f1	-0.009473548
206	0xbbecc7b0	-0.007225953
207	0xbcba2d6c	-0.022726737
208	0x3c5b11de	0.013370959
209	0xbbecf0a0	-0.007230833
210	0xbc617107	-0.013759858
211	0x3bc5c394	0.0060352776
212	0x35278000	6.239861e-07
213	0x3c58be6e	0.013228996
214	0xbc827fa5	-0.015930006
215	0x3cc5f627	0.024165226
216	0xbc1ea52b	-0.009682934
217	0x3c169622	0.009191068
218	0x3cb568c9	0.022144692
219	0xbab6e750	-0.0013954435
220	0xbcaf1ab4	-0.021375038
221	0xbcc0cc3f	-0.023534892
222	0x3cc404ef	0.023928134
223	0xbcba9267	-0.022774888
224	0xbc13d7fd	-0.009023664
225	0x3c87ea55	0.01659123
226	0xbc9afeaf	-0.01892027
227	0x3cba39e3	0.02273268
228	0x3b1ad198	0.0023623463
229	0x3bf7c214	0.0075609777
230	0x3b7a26b0	0.0038170032
231	0x3b2f4b30	0.0026747696
232	0x3c5faca6	0.013652002
233	0xbcaca9ec	-0.021077119
234	0x3bac4e34	0.005258346
235	0xbc345f97	-0.0110091185
236	0x3cbc983d	0.023021812
237	0x3ca4fd09	0.020140188
238	0xbc1c8e77	-0.009555451
239	0x3c5d9fa2	0.013526829
240	0xbb87bbac	-0.0041422453
241	0x3c524cd2	0.012835698
242	0xbbe17374	-0.006880218
243	0xbc69398e	-0.0142349135
244	0x3c28258e	0.01026286
245	0x3c45558e	0.012044324
246	0x3cb36e05	0.021903047
247	0x3bfc9c64	0.007709073
248	0xbc31d884	-0.010854844
249	0x3bcba568	0.0062147863
250	0x3abfe830	0.0014641341
251	0x3cad5b69	0.021161752
252	0x3c238252	0.009979801
253	0x3ca9f6ed	0.020747626
254	0x3aecd330	0.001806831
255	0xbc9710a1	-0.018440546

linear_layer.1.bias f4 [2]
0	0xb9d42d6c	-0.00040469633
1	0xbbce64c2	-0.0062986324
