models/TinyVGG_data_manual_5_epochs.pth (torch, 29379 bytes, 10 tensors)

conv_block_1.0.weight f4 [10, 3, 3, 3]
000000 60 17 37 be 25 17 02 be fd 45 02 bb 09 57 3c be
       -0.1788001 -0.12704141 -0.0019878142 -0.18392576
000010 bd 85 35 be 72 4f 23 be 19 60 21 3e bb c2 2d 3d
       -0.17726798 -0.15948275 0.15759315 0.042422038
000020 98 8b 5f bd ca 91 c7 bb c5 bb 26 be 4e c1 2e be
       -0.054576486 -0.0060903775 -0.16282566 -0.17065927
000030 63 51 06 be d2 da 38 be c9 49 0d 3e 7b 0d 84 bd
       -0.13116984 -0.18052223 0.13797678 -0.06447884
000040 21 f1 53 bd 58 b6 22 be 8a 01 0a 3d c6 40 c4 bc
       -0.05174363 -0.15889871 0.033692874 -0.023956668
000050 31 97 f5 bd 73 77 01 3e 96 e8 2b 3e 20 d5 00 be
       -0.11991728 0.12643223 0.16787943 -0.125813
000060 d7 2d e5 3d 6a 4c fe bc e6 3a a4 3b a2 c3 a7 3d
       0.11190384 -0.031042296 0.005011904 0.08191611
000070 74 b7 0f bd 33 70 27 3e e2 7f f2 3d f0 d8 ff bd
       -0.035087064 0.16351394 0.11840798 -0.124925494
000080 83 db ef bd 80 41 43 be 0c 61 7c 3d 8d 3b 14 be
       -0.117117904 -0.19067955 0.06161599 -0.14475842
000090 d3 2d 25 be 1e a1 fc bd 22 d6 42 be 44 76 20 be
       -0.16130762 -0.12335418 -0.19026998 -0.15670115
0000a0 4f c7 2f 3e de 28 dc 3d b1 9b 2e 3e 54 30 bf bd
       0.17165874 0.10749982 0.17051579 -0.0933539
0000b0 fd a7 a1 bd 50 4a 8a bd c0 53 76 3b 02 73 0d be
       -0.07893369 -0.06752455 0.003758654 -0.13813403
0000c0 28 20 e7 3c 3a 9a fc bd 78 20 f9 3c bd 83 34 3e
       0.028213575 -0.12334104 0.03041099 0.17628379
0000d0 94 23 05 3d 31 c0 0f 3e 65 b0 0f be 49 8c be bc
       0.032504633 0.14038159 -0.14032133 -0.023260253
0000e0 f7 12 f3 bd eb 0a 9b bc 3a 62 b1 bd 01 79 d9 bd
       -0.11868852 -0.018926105 -0.08661313 -0.10618783
0000f0 7c 1a 44 be aa a3 a2 bd ec 02 ca 3c 4c 03 18 bd
       -0.19150728 -0.07941373 0.024659596 -0.03711252
000100 ea 8b 33 be c0 2e 14 3e 9b 9b 14 3e 8f 1c 01 be
       -0.17533842 0.14470959 0.14512484 -0.1260855
000110 76 85 b9 3c c1 37 fa 3d de 64 43 be 10 45 2f be
       0.022646647 0.122176655 -0.19081447 -0.17116189
000120 1d 06 d4 3d 59 24 b7 38 ac 9c 7b 3d ba ef 9e bd
       0.103527285 8.73289e-05 0.06142871 -0.07760568
000130 26 75 cb 3c 7a dc 05 3e 10 d6 57 bd f3 cd 8f bd
       0.024836134 0.13072386 -0.05269438 -0.070217036
000140 5a c9 3c be 60 46 f3 bc 66 c0 f9 3d 61 3e 3a be
       -0.18436185 -0.029696643 0.121949 -0.18187858
000150 10 91 73 bc 7f a6 0f 3e 44 fc 60 bd 16 9f 91 bd
       -0.014866129 0.14028357 -0.05492808 -0.07110421
000160 d8 c4 6d bd 0e b0 9f bd 08 b1 bc 3c 1c bd 3d be
       -0.058049053 -0.07797252 0.023033634 -0.18529171
000170 5e 9d 96 3d 68 15 47 bd 60 b9 c8 bc b0 bc 54 bc
       0.07354234 -0.0486044 -0.024502456 -0.01298444
000180 d2 2d dc 3d 0e d3 f4 bd 5a 54 33 be b4 8c 0e be
       0.10750927 -0.11954318 -0.17512646 -0.13920861
000190 60 91 10 be ae e4 bf bd e9 a5 1b 3e 9a 74 18 be
       -0.14117956 -0.09369789 0.15200008 -0.1488823
0001a0 69 af e7 bd ba a6 20 be 0f 00 c6 bd 00 09 b1 bb
       -0.11312754 -0.15688601 -0.0966798 -0.005402684
0001b0 9e 14 f3 bd ed b7 12 3b 59 14 88 3d c7 6c 0c bd
       -0.11869167 0.002238746 0.06644506 -0.034283426
0001c0 6a af aa 3d 76 17 39 3d 19 4b 3c 3e 9e a2 1c bc
       0.08334239 0.04518839 0.18388022 -0.009560255
0001d0 bf 00 2c 3e 51 21 12 3e 01 d6 bc 3d d9 f0 e1 3d
       0.1679716 0.14270522 0.092205055 0.11032266
0001e0 fe 8d 05 be bb ab 03 be fa 6a aa 3d 5b f5 8a 3d
       -0.13042447 -0.12858479 0.083211854 0.06785079
0001f0 07 1d 32 3e 3f bc c3 bc db 67 16 bd b2 4e 07 3e
       0.17393886 -0.023893474 -0.036720138 0.13213614
000200 5c d2 f9 3b 77 6f 37 3e 9b 68 c8 bd 48 6d 7e bd
       0.0076239537 0.17913614 -0.09785577 -0.062115937
000210 7f 05 ce 3b 01 c1 d2 3d 84 92 2b be 23 13 7e bd
       0.0062872763 0.10290719 -0.1675511 -0.06202997
000220 a2 53 05 3e 67 52 d9 3c ed dc 01 3e 3e ba 98 bd
       0.13020185 0.02652855 0.12681933 -0.07457398
000230 be cf 09 be 09 a5 0e be 76 f6 ed bd 80 40 21 be
       -0.13458154 -0.13930143 -0.11619274 -0.15747261
000240 59 9c b2 3d 09 b5 2c 3d 4e f5 0b be 15 2c 2b 3e
       0.08721227 0.042164836 -0.13667795 0.16716035
000250 95 fb 39 3d f5 07 6f 3d 8a 47 b6 bd 48 41 00 3e
       0.045405943 0.058357198 -0.08900364 0.12524903
000260 d1 29 18 be fe 4a 07 3e d1 c3 e9 bd c5 aa 8b 3d
       -0.14859702 0.13212201 -0.11414302 0.06819681
000270 84 81 a1 bd 04 d7 ec 3d dc db 32 be 11 1d 3a bd
       -0.07886031 0.115644485 -0.17466682 -0.045437876
000280 58 80 75 bd ae fe 02 be 11 74 c1 bd 15 8b 61 bd
       -0.05993685 -0.12792465 -0.09445966 -0.05506428
000290 35 41 92 3c 6d af 09 3e 25 5a 05 bd 65 6e 3f 3e
       0.017853359 0.13445826 -0.03255667 0.18694456
0002a0 29 3d c0 bd 85 ff cc bd 5c b9 44 bc 2a 6a 0e bd
       -0.093866654 -0.10009674 -0.012007084 -0.034769215
0002b0 6b 08 76 3d d6 ef 33 3e dc 8e 82 3d 01 db 25 be
       0.06006662 0.17571959 0.063749045 -0.16196825
0002c0 db 21 8a bd 9d f6 25 bd c9 7e 34 be bf a9 6b 3d
       -0.06744739 -0.040518392 -0.1762649 0.05753493
0002d0 4e 18 2c 3e 50 93 c1 3d b1 bc c1 bb 9a 96 89 bc
       0.16806147 0.09451926 -0.0059123863 -0.016795445
0002e0 0e 7b ba bd 01 08 bd bc 13 7f 2a 3e a6 b9 cc bd
       -0.09105502 -0.023075106 0.16650037 -0.09996347
0002f0 c0 19 ec 3c d2 f3 08 be 1d 16 26 bd 49 c5 c3 3c
       0.028820872 -0.1337426 -0.040548433 0.023897784
000300 b0 12 0f be 9e 0c 7f 3d 04 32 1d be 46 a6 98 bd
       -0.13971972 0.062267892 -0.1535111 -0.07453589
000310 1b d5 11 3e 5a ff 43 3e 3e 86 f8 bb f2 7b 00 be
       0.1424145 0.19140378 -0.0075843623 -0.12547281
000320 8c bf 14 be 2f c9 2a bd 9c b1 b4 bd 44 af 28 3e
       -0.14526194 -0.04169577 -0.08822939 0.16473109
000330 3c 4e 08 be 42 a1 fe 3d 31 6b 42 3d cb 30 51 bd
       -0.13311094 0.12433101 0.047465507 -0.051071923
000340 68 02 2d 3e ed 73 f5 3d 21 58 94 ba 37 b3 f6 bd
       0.16895449 0.11985002 -0.0011317768 -0.12045901
000350 5a e1 37 bd 2a 70 87 3d 69 72 33 3e 1d 77 5d bd
       -0.044892646 0.066131905 0.17524113 -0.054068673
000360 89 2d 9e bd fb 9b 3d be ee bb f6 3d bf c9 42 3e
       -0.07723529 -0.18516533 0.120475635 0.19022273
000370 0e c7 09 3e 93 8b d8 bd 82 40 0f 3e a8 62 67 bd
       0.1345484 -0.10573497 0.13989452 -0.05649057
000380 a5 52 d2 3d db 13 ec 3d 73 bb 1d be 57 08 4c 3d
       0.102696694 0.11527225 -0.15403537 0.04981264
000390 7d 3c a2 3d 4d be e8 bd 7f bc 37 3e 4a ec 1b 3e
       0.079216935 -0.11364422 0.17943 0.15226856
0003a0 1e 9a 26 3e b4 5e b4 39 81 42 cd bd 95 83 d1 bd
       0.16269729 0.00034402835 -0.1002245 -0.102301754
0003b0 62 c9 8f 3d 9f d4 12 bd d4 bb 1e 3e 21 95 26 3e
       0.070208326 -0.035847303 0.15501338 0.16267826
0003c0 2e 45 8a 3c 47 70 1f be 91 b4 a0 3d ea 92 29 3e
       0.01687869 -0.15570174 0.0784694 0.1655995
0003d0 71 e8 5f bd d3 08 e1 bd ec a7 51 bd fe d7 b0 3c
       -0.054665033 -0.10988011 -0.051185533 0.021587368
0003e0 0a 21 18 be 9b c7 c2 3d 3e 6b 99 3d d0 bc aa bd
       -0.14856353 0.09510728 0.07491158 -0.083367944
0003f0 10 92 9f bd 3f f9 c7 bd be aa 10 3e cc 21 dd 3d
       -0.07791531 -0.09764337 0.14127633 0.10797462

conv_block_1.0.bias f4 [10]
000000 4c a8 38 3e eb d5 24 be 7b 4c 65 3d cc 22 08 be
       0.1803295 -0.16097228 0.05598114 -0.13294524
000010 21 35 37 bd 3c 7d a2 3d 94 55 c9 bb 72 1c 93 3d
       -0.044728402 0.07934043 -0.006144235 0.0718316
000020 5f d2 8b bd 10 e5 3e 3e
       -0.068272345 0.18642068

conv_block_1.2.weight f4 [10, 10, 3, 3]
000000 db 0c 45 bd ea eb a2 3c ae 69 42 3c ee 76 96 3d
       -0.048107963 0.019887883 0.011866016 0.07346903
000010 fa 1e 3d 3c e1 3d 86 3d fd ca de 3c 2b e6 8f 3d
       0.01154303 0.06554771 0.027196402 0.07026323
000020 fd 17 73 3b ca 11 10 3d 4f f2 d4 3d 14 aa 0c bd
       0.0037093156 0.035173215 0.10397779 -0.034341887
000030 a4 b1 2f bd 3f b5 9c 3d 6e 1a 25 3d ed c4 cb bd
       -0.04289402 0.076517574 0.04030841 -0.0994967
000040 46 8f 19 3d 32 b9 d3 bd 87 db 80 bd ad 11 1c 3d
       0.03749015 -0.103380576 -0.062918715 0.038102794
000050 95 b1 5d 3d 7c f8 ec bc 1e c6 ae 3d 69 fb d3 3d
       0.054124434 -0.02892708 0.085338816 0.10350687
000060 3e 7d 9c 3d a4 ae ce bd 3f 4a 25 bd c0 25 d2 3b
       0.076410756 -0.10091904 -0.04035401 0.0064131916
000070 b1 75 af 3d 24 da 90 bc 1c 63 b4 3c 5e 40 63 3d
       0.0856737 -0.017682143 0.022019915 0.055481307
000080 05 e5 61 bd 1e bc 82 bd 41 7d d5 3d 00 25 1a bb
       -0.05515005 -0.06383537 0.10424281 -0.002352059
000090 3f 6c 96 3d d3 ab d4 bd 5d 7a 28 bd d6 bf 94 3d
       0.07344865 -0.10384335 -0.04113232 0.07263152
0000a0 bd 6c 3d bc 97 d6 0c 3d 8a 47 b7 bd 6d 2b cf 3d
       -0.01156157 0.034384336 -0.08949192 0.10115705
0000b0 3f fb 5b bd 56 0a b6 bb 36 e2 8d bd ec 97 40 bd
       -0.053706404 -0.0055554314 -0.06927912 -0.047019884
0000c0 c0 47 bb bd 0a 60 bf bd 63 13 cf bc c0 68 39 bd
       -0.091445446 -0.0934449 -0.025277799 -0.045265913
0000d0 eb 17 a1 3d f7 87 6a ba 0a 17 b1 3d 11 8b 2c bc
       0.0786589 -0.0008946652 0.086469725 -0.010531203
0000e0 30 34 f7 3c 4f e6 d1 3d b9 f9 9c bd 12 00 1a bd
       0.030176252 0.10249006 -0.07664818 -0.037597723
0000f0 4b ea bf 3d 19 44 94 bc a6 3a 82 bc fa 7b 39 3c
       0.0937086 -0.018098878 -0.015897106 0.011321062
000100 64 44 61 bd 37 e9 44 3c ec b1 34 bd 33 0c 06 3d
       -0.054996863 0.012018493 -0.044114992 0.032726478
000110 a4 5d aa bc f9 d5 f5 bc 8d df 1e bd 96 ca 04 3d
       -0.020796604 -0.030009257 -0.038787413 0.032419764
000120 1b 81 4f 3d 79 63 c9 bd 32 14 99 bd 21 78 d3 bd
       0.050660234 -0.09833426 -0.07474555 -0.10325647
000130 67 eb 42 3d 26 4f a0 3d c2 6d d3 bd a0 d5 d0 3c
       0.04758778 0.07827596 -0.10323669 0.02549249
000140 87 a0 a7 3c bd 26 5a bd 89 f8 d3 3c e4 d1 ac 3d
       0.020462288 -0.0532596 0.025875347 0.08438471
000150 5f 54 da 3d 01 fd 46 3d 86 01 94 bc cd 9a 68 bd
       0.10660624 0.048581127 -0.018067133 -0.056788255
000160 ea de 18 bd a7 20 57 3b 18 bd cf bb 3b ec 97 3d
       -0.037321962 0.0032825859 -0.0063396804 0.07418104
000170 9b ba c7 bd b5 e5 33 3c 2a 2e 09 bd 5d 35 05 3c
       -0.09752389 0.010980059 -0.03349129 0.008130399
000180 b8 26 d2 3d fe 93 fb 3a 8c 86 a0 bc 84 56 12 bd
       0.10261291 0.0019193885 -0.019595407 -0.03572704
000190 db 6e d7 bd 7c 96 c3 bd d6 1f 3c 3d 65 d4 83 bd
       -0.10519191 -0.09550187 0.0459288 -0.064369954
0001a0 da 20 75 3d 08 d1 f4 bc 3e c4 1b 3d 0d 97 9d 3d
       0.059845783 -0.02988483 0.038028948 0.07694826
0001b0 ca 62 6b 3c 7d 9e 06 3d 32 7a ad 3d f4 a0 05 bd
       0.014366815 0.03286599 0.084705725 -0.0326242
0001c0 f0 a9 94 3d 9f 7f bc bd e5 e6 c5 3d a8 e5 15 bd
       0.072589755 -0.09204029 0.0966318 -0.03659597
0001d0 fa 87 10 bc c6 35 72 3d b0 95 fd 3b 51 c4 bc 3d
       -0.008821482 0.059133314 0.0077387914 0.09217132
0001e0 b0 c3 3d bd a6 f8 6d bd 1b b7 c0 3d 60 4d 82 bd
       -0.0463292 -0.058098458 0.094099246 -0.06362414
0001f0 65 90 94 3d 7b ea cf 3d c5 53 84 3d c8 d4 3a bd
       0.072541036 0.101521455 0.0646129 -0.04561308
000200 a3 28 d9 bb 2d 7e d1 bd f3 dc 82 bd b3 d0 e9 bc
       -0.0066271587 -0.10229144 -0.06389799 -0.028541898
000210 57 4e 9e bd 90 8b 5c 3d df e7 47 3d f3 27 d2 bc
       -0.07729786 0.053844035 0.048805114 -0.025653815
000220 0d 18 3c bc a4 f4 e2 3d 8c 49 57 3b b8 9e be 3d
       -0.0114803435 0.11081818 0.0032850234 0.09307617
000230 a0 3c df 3d cc 4d dd bc 9c c8 bf bd 7a 18 de 3d
       0.10900235 -0.027014636 -0.09364435 0.10844512
000240 b3 83 47 bd 80 ea d5 3d 9d d6 80 bd 09 84 f4 3c
       -0.048709583 0.10445118 -0.06290934 0.029848116
000250 dc 62 1c 3d a0 c8 64 bc 00 89 bc 3d a1 de a8 bd
       0.038180217 -0.013963848 0.09205818 -0.08245588
000260 3d 65 1a bd aa 3b 2a 3b 95 86 cb 3d c5 8c 82 3d
       -0.037694205 0.0025975504 0.09937779 0.06374506
000270 25 ca b0 3d bb 83 6d 3d 87 58 d3 3d 58 60 58 bc
       0.08632306 0.057986956 0.103196196 -0.013206564
000280 f5 2c 95 bc 4e 47 3a bb 65 c2 0f 3d cd b6 18 bd
       -0.018209914 -0.0028423849 0.0350975 -0.037283707
000290 80 d8 01 3d f2 2b af 3c f6 a8 8b 3c 28 c0 9f 3d
       0.03170061 0.02138326 0.01704834 0.07800323
0002a0 71 73 01 3c 2b e6 7a 3d 9f 91 1c bd 0b c0 c1 bd
       0.0079010585 0.06125466 -0.038224813 -0.094604574
0002b0 56 a3 84 3d 86 7b 39 3d 6e a3 b3 3d df 31 21 3d
       0.06476466 0.045283817 0.08771406 0.0393542
0002c0 b3 62 20 3b 87 74 9d bd ac ca cd bd 63 4a ad 3c
       0.0024472892 -0.076882415 -0.10048422 0.021153634
0002d0 4c 6e a6 3d 78 af 67 bc 5f 19 29 bd b1 19 35 3d
       0.08126506 -0.014140956 -0.04128396 0.044213954
0002e0 5e 48 76 bd bc 45 08 3d e0 77 ad bd 78 0b b8 bd
       -0.06012761 0.03326963 -0.0847013 -0.089865625
0002f0 91 bb 6b bd ac d9 93 bc 7a 96 11 3d ea 74 5a 3d
       -0.057551924 -0.01804813 0.035543896 0.053334154
000300 d6 a3 88 bd cc 58 b1 bc 9e 29 0e 3d 8c 6e be bc
       -0.06671874 -0.021648787 0.034707658 -0.023246072
000310 80 9f cf 3a c3 c2 8b 3d 6e 6a 11 bd c4 fb 3c 3d
       0.0015840381 0.06824257 -0.03550189 0.04613854
000320 51 81 a2 3d 5b ac 22 3d c4 6f 99 bc a4 b0 88 bd
       0.079348214 0.039715152 -0.018730052 -0.066743165
000330 53 5f 99 bd 42 df c9 bc d8 cf 00 3d 9a 22 6c 3d
       -0.07488885 -0.02464259 0.031448215 0.057650186
000340 e0 9f a6 bb e5 f6 ad 3d ba 01 2b bd 04 32 ac 3c
       -0.0050849766 0.08494357 -0.041749693 0.021019943
000350 ef 0b 5d bd d4 08 e8 3c d3 3e b8 3d 7e 49 17 3d
       -0.05396646 0.028324522 0.08996358 0.036935322
000360 7e 17 08 3c 66 82 1e bd bd 45 a6 bd 13 de a2 bd
       0.008306382 -0.038698576 -0.0811877 -0.079525135
000370 c5 15 c5 bd 85 5d 92 3d 09 9f 4a bd 54 cb 8a bc
       -0.09623293 0.07146744 -0.049468074 -0.016942658
000380 96 24 bf bd 96 0a 1a bd 67 b8 a5 3d da 6a 57 3c
       -0.0933315 -0.03760775 0.080918126 0.013148034
000390 bd 34 88 bc d4 85 59 3d ae 8c a5 3d b0 c2 a6 3d
       -0.01662671 0.053106144 0.08083473 0.081426024
0003a0 33 16 a0 bd 85 a1 ec 3b c9 ad b6 bd 2d eb 82 bd
       -0.07816734 0.007221403 -0.08919866 -0.063925125
0003b0 bb c3 99 3d 98 e0 a6 bd e7 85 65 bd 15 52 3f 3d
       0.07508036 -0.081483066 -0.056035902 0.04670914
0003c0 49 79 d6 3d 37 e2 df bd 58 ff 8d bd 2c c6 33 bd
       0.10472352 -0.10931819 -0.069334686 -0.043890163
0003d0 6f c8 a6 3d f9 c5 86 3d fa eb 6c 3d da 45 79 3d
       0.081436984 0.06580729 0.057842232 0.06085763
0003e0 09 f4 10 bd 25 16 a7 3d 1b 74 14 3b 63 a1 52 3c
       -0.03538898 0.081585206 0.0022652212 0.01285586
0003f0 49 96 d7 bc 8e 27 52 3d a1 26 50 3d 6c 3f 84 bc
       -0.026316779 0.051307254 0.05081809 -0.016143523

conv_block_1.2.bias f4 [10]
000000 44 af 0f 3d 87 3b 2e 3d 35 26 2b bd 69 43 a0 3d
       0.035079256 0.04253724 -0.041784484 0.078253575
000010 64 66 c0 bc bf e6 33 bb 11 4a 9c 3d 65 c7 53 3c
       -0.023486324 -0.0027450768 0.076313145 0.012925957
000020 8e ff 5a 3d 3d 98 7e 3d
       0.053466372 0.062156904

conv_block_2.0.weight f4 [10, 10, 3, 3]
000000 d8 80 88 bd e8 cc 83 3a a0 77 c2 3d 2e 3f 80 bd
       -0.066652 0.0010055574 0.09495473 -0.062620506
000010 73 12 7a 3c a7 37 a4 3d 1e 51 61 3c 23 37 a3 bc
       0.015263188 0.08018427 0.01375225 -0.019923752
000020 13 69 29 3d e2 aa b1 bd 64 0a a7 3d 8d 41 99 3d
       0.041359972 -0.086751714 0.08156279 0.07483206
000030 de 92 f1 bc 16 c6 37 bd 66 d6 fc bc 85 df d3 3d
       -0.029488977 -0.044866644 -0.030863952 0.10345367
000040 c8 94 41 bd 19 a2 ab 3c 8b 27 cd bd fe 0e da 3c
       -0.04726103 0.020951318 -0.10017308 0.026618477
000050 a4 3f 7b 3d 73 00 17 3d 2b d1 b8 bb 7c 9f fd 3b
       0.06133999 0.036865663 -0.005640169 0.0077399593
000060 44 6d a9 3d 16 36 1c 3d 38 1e 07 bd 61 90 a4 bd
       0.08272794 0.038137518 -0.032987803 -0.080353506
000070 e1 e4 a0 3d 6e 48 2f bd 7d b9 8d 3d 5e cc c5 bc
       0.07856155 -0.042793684 0.06920145 -0.024145301
000080 ea 4b 9b bb 69 33 aa bd 3a 9b 37 bd 92 00 0b b9
       -0.0047392743 -0.08310587 -0.04482577 -0.00013256285
000090 a8 53 c9 bd 95 64 c5 bc 97 4a 6a 3d 99 74 9c 3d
       -0.09830409 -0.024095813 0.05720004 0.07639427
0000a0 bc 07 97 3d 06 20 1f bd dc 04 07 3c 22 d4 b6 bd
       0.07374522 -0.0388489 0.008240905 -0.0892718
0000b0 6e d8 3a 3d 88 43 5f 3c 89 7d a5 3d c1 14 a6 bc
       0.04561656 0.013626941 0.080805846 -0.020273568
0000c0 50 7e d0 3d c9 20 45 3d df e5 ba 3d ea 60 8f ba
       0.10180342 0.04812697 0.09125876 -0.0010938917
0000d0 f8 1f a3 bd 4b 61 9a bd c5 61 ce bd d4 27 87 3c
       -0.07965082 -0.075380884 -0.10077242 0.016498484
0000e0 ba a6 a4 bd 75 9c 0c bd 01 fd 60 3d a6 d1 c9 3d
       -0.08039613 -0.034328897 0.054928783 0.098544404
0000f0 f8 e2 c6 bc fd 35 9c 3d 02 c6 4f bb cd d0 a6 bc
       -0.024278149 0.07627485 -0.0031703715 -0.020363236
000100 4a b0 5e bc cf c3 3d bd f2 1a 05 3d 40 cf e7 38
       -0.013591835 -0.046329316 0.0324964 0.00011053542
000110 83 16 4e bd 45 b2 90 3d c2 4d 40 bd 0c 36 8d bd
       -0.050314438 0.07065252 -0.046949156 -0.06895074
000120 01 74 17 3d 2f 28 0a bc c8 5b 6f bd 5c 3b b2 bd
       0.036975864 -0.008432432 -0.05843714 -0.08702728
000130 a1 e6 14 bd 4a f9 aa bd db 06 56 3d 78 3a a3 bc
       -0.036352757 -0.08348329 0.05225263 -0.019925341
000140 6c 72 3c 3d 81 04 5c 3d 6b 12 13 3c 86 fa 8b bc
       0.04600756 0.053715233 0.008976559 -0.017087232
000150 f9 32 57 bd 7d e7 a0 3c 64 c7 c9 bd 58 71 4f bd
       -0.052538846 0.019641632 -0.09852484 -0.050645202
000160 86 6d a4 3d b0 f0 db bc 67 27 ae 3d be ac 7f 3d
       0.080287024 -0.026848167 0.08503609 0.0624206
000170 90 08 b6 bc 44 c2 ad bd c7 5e ad 3d f0 7c 11 3c
       -0.02222088 -0.08484319 0.08465343 0.008879885
000180 55 03 cc 3d 2a 3e c3 bd 54 f2 b1 3c 9a ff b9 bd
       0.09961573 -0.09533341 0.021721996 -0.09081955
000190 70 ae 51 bc 47 38 bd bd bb 7c c4 bd c0 3e ae 3b
       -0.012797937 -0.0923925 -0.09594103 0.005317539
0001a0 51 d4 d4 3d 88 54 04 3c c8 00 20 bc 9d 3a c9 3d
       0.10392059 0.008076794 -0.009765811 0.09825633
0001b0 a0 16 1e 3c f3 13 71 bd 2f 46 89 3d 21 0a 9a 3d
       0.009648949 -0.058856916 0.067028396 0.07521463
0001c0 07 30 bb 3d 4d c5 a9 3d 33 ac c8 3d 80 21 20 bd
       0.0914002 0.08289585 0.097984694 -0.039094448
0001d0 78 53 78 3c 96 8c 1d bd 40 e2 65 bc 01 ad aa 3d
       0.015156619 -0.03846415 -0.014030993 0.08333779
0001e0 6c 92 aa bd 7a f0 6b 3d 1b 76 79 bd 80 88 17 3a
       -0.08328709 0.057602383 -0.06090365 0.0005780533
0001f0 80 9f 4d bc 9c 79 42 bd b0 45 13 3c b2 b5 5a bd
       -0.012550235 -0.047479257 0.008988783 -0.053395934
000200 d1 87 c3 3d 1e 4d 1c bd b9 a3 88 3d d8 af cd bc
       0.09547389 -0.038159482 0.066718526 -0.025108263
000210 a3 f7 a9 bd 07 95 a7 3d d0 6f ee bc dc dc 32 bd
       -0.08299186 0.081827216 -0.02910605 -0.04366766
000220 60 79 01 3c 40 c3 8c ba c4 aa f3 3c 14 83 d1 bc
       0.007902473 -0.0010739341 0.029744513 -0.025575198
000230 d8 23 f9 bc 9a 3a 6c 3d d2 e4 45 3d 2f d0 be 3d
       -0.0304126 0.057673074 0.048313923 0.093170516
000240 d8 98 3e 3c 20 2a e0 bc 90 f7 b7 bc 0c f8 af bc
       0.0116331205 -0.027363837 -0.022456914 -0.021480583
000250 5c 72 08 bd d0 59 13 bd 08 4c f3 bc 76 35 02 3d
       -0.033312187 -0.035974324 -0.02969934 0.031789266
000260 a6 d5 2a 3d 79 4f a4 3d ea 13 d2 bd dd 67 a7 3d
       0.041707657 0.08022971 -0.102577046 0.08174107
000270 2c f9 ad bc f0 f3 d2 bd 1b 21 8d 3d 7d c9 74 bd
       -0.021236978 -0.10300434 0.0689108 -0.059762467
000280 a4 8f 42 bd 4e 4b 0f 3d 00 72 8d 3c 85 28 93 3d
       -0.047500268 0.034983926 0.017266273 0.07185463
000290 6f a1 96 bd a6 8e 6a 3d ce 0a 61 3d d9 9f 85 3d
       -0.0735501 0.057264946 0.054941945 0.06524629
0002a0 ea b4 0f bd 2c a7 92 3c b4 2b fe 3c d9 8b cb 3d
       -0.035084642 0.01790198 0.031026699 0.09938783
0002b0 fb 2e 83 bd 9f 37 c6 bd 77 3d c3 bd 50 bb 64 3c
       -0.06405445 -0.09678578 -0.09533208 0.013960674
0002c0 08 12 a4 bd cc d9 9f bc c9 d4 49 bd cc 6c 9c 3c
       -0.08011252 -0.019513033 -0.049275193 0.019094847
0002d0 aa 59 9f bd 6a 5e 80 3d d0 59 e4 bd 62 ce 81 bd
       -0.07780774 0.06268008 -0.11149943 -0.063381925
0002e0 d9 fa 7a 3c f8 e5 e1 bd 5e 7f aa 3c 7b 98 30 bd
       0.015318596 -0.11030191 0.020812687 -0.043114167
0002f0 c5 19 66 bd 0c 6f 93 3d ba 95 0d bd 14 b3 c2 3c
       -0.05617692 0.07198915 -0.03456662 0.023767032
000300 27 7b 35 bd 6c af 39 3d a1 b2 bc 3d f8 ef c7 3d
       -0.0443069 0.04533331 0.09213758 0.09762567
000310 0a 41 8a bd 8b 83 de bd af 03 8e bd 25 58 08 3d
       -0.067506865 -0.108649336 -0.06934296 0.033287186
000320 8c 4f 3a 3d b5 8c 84 3d 4d c3 48 3d 29 62 d7 3d
       0.045486018 0.0647215 0.04901438 0.105167694
000330 e8 ff 9e bd 22 13 b9 bd 7a bc 0d bd 10 c5 a5 3d
       -0.07763654 -0.090368524 -0.034603573 0.08094227
000340 c9 76 a6 bd 97 99 a0 3d 89 7b 8b 3c da ba 84 3d
       -0.08128125 0.07841795 0.01702668 0.064809516
000350 3a 31 d4 3d 2f d9 d1 3d 51 74 ce 3d 55 35 d8 bc
       0.10360952 0.102465026 0.10080779 -0.026392618
000360 14 74 46 bd 94 e7 28 3d 49 89 b0 3d 93 96 70 ba
       -0.048450544 0.041236475 0.08619935 -0.0009177711
000370 d8 9b ec bc e5 ce a6 bc c2 9e 26 bd 0c 8d 45 3d
       -0.028882906 -0.020362327 -0.040678747 0.048230216
000380 b6 63 dd bd 3f 1a b9 3d 70 ed 56 bb ed ce 8d bd
       -0.10810034 0.09038209 -0.0032795332 -0.069242336
000390 57 ef 11 bd 59 6b 8d bd bb e6 cc bd ee 5b 53 3c
       -0.035628643 -0.069052406 -0.10004946 0.012900336
0003a0 3a df ca bc 81 7b 56 bd f5 87 09 bd 5c c2 ef bc
       -0.024764646 -0.052363876 -0.033576924 -0.029267482
0003b0 98 01 12 3d 6a e2 cf bd 22 77 99 bc 42 36 39 bc
       0.03564605 -0.10150607 -0.018733565 -0.01130444
0003c0 16 8a d8 bd d5 7c a7 3d bb f1 80 bd e5 b6 92 3d
       -0.10573213 0.08178107 -0.062961064 0.071637906
0003d0 57 5c 91 3d f4 57 d7 bb 10 83 87 3d 19 36 bc bd
       0.070976906 -0.006571764 0.06616795 -0.09190006
0003e0 d9 00 ad bc fc 28 cd bd ef 81 9b bd 96 7f b4 3c
       -0.021118568 -0.10017583 -0.07593142 0.022033494
0003f0 0b 6e 9f 3d c9 fc 7c bd 81 19 2f bd 8e 4f 73 bd
       0.07784661 -0.061764512 -0.04274893 -0.05940204

conv_block_2.0.bias f4 [10]
000000 9f 5b a6 3d f8 36 17 bd e6 42 bf bc 8b 5c ca 3b
       0.08122944 -0.036917657 -0.02334733 0.0061755828
000010 53 75 e1 3d 5e 1c 8e bd 3e 51 99 bd 5b 57 69 3d
       0.11008706 -0.06939004 -0.07486199 0.056968074
000020 08 e5 4a bd 00 71 06 bd
       -0.049534827 -0.03282261

conv_block_2.2.weight f4 [10, 10, 3, 3]
000000 78 6b 47 3d d7 88 59 bd 2b 75 5c 3d 41 7f 5d bd
       0.048686475 -0.053109016 0.053822678 -0.054076437
000010 b9 95 8f 3d e7 12 c5 3d b0 05 e9 b9 d5 f4 44 bd
       0.07010979 0.09622746 -0.0004444546 -0.048085053
000020 80 f2 4f 3d f4 5b f1 3c 00 e4 ef 39 a7 98 c0 3d
       0.050768375 0.029462792 0.00045755506 0.09404116
000030 30 c9 c7 bb a2 c3 17 3d 20 96 00 bd 38 aa 9c bc
       -0.0060969815 0.037051804 -0.03139317 -0.019124135
000040 d0 ad 94 bb 20 68 e8 3b a5 34 5d 3d 0c 23 af 3d
       -0.0045373216 0.007092491 0.054005284 0.085516065
000050 b1 ee 88 3d d4 5b 15 bd 7a 5d cc 3d 3f ab 94 3d
       0.06686152 -0.036464527 0.09978767 0.07259225
000060 1b 29 3e 3d a6 c1 90 3c 6c 97 6c bd 21 99 8d bd
       0.04642592 0.017670464 -0.057761595 -0.06913973
000070 a2 4e 84 bb d2 33 97 bd 75 f5 1a 3d f8 90 b5 bd
       -0.004037694 -0.07382931 0.037831742 -0.08865541
000080 6e f1 b8 bd b2 36 21 bd d3 db 90 3d 9b dd ad 3d
       -0.09030424 -0.039358802 0.07073178 0.084895335
000090 70 97 d8 bd e4 b9 a0 bd 49 0f 43 3c b4 54 1d bd
       -0.105757594 -0.07847956 0.0119055 -0.038410857
0000a0 54 23 c9 bd 1c c1 94 3c ec 76 d9 bd 15 aa d2 bb
       -0.098211914 0.018158488 -0.10618386 -0.0064289668
0000b0 a4 5a fd 3c 75 20 c7 3d 0b 3d b8 bd 0b 32 a1 3d
       0.03092701 0.097229876 -0.08996018 0.07870873
0000c0 a0 50 70 3c ab f4 bb 3d b3 7f d4 3d 34 5d d7 bc
       0.01466766 0.09177526 0.10375919 -0.02628956
0000d0 ec 7c 86 bc 98 be d0 bc 2b c9 a9 3d da f7 3a bd
       -0.01641699 -0.025481507 0.08290323 -0.045646526
0000e0 45 91 8e 3d e2 92 31 3d 81 fb ca 3d 45 e8 98 3d
       0.06961302 0.04335297 0.09911252 0.07466177
0000f0 35 33 af 3d 2e 71 b1 bd 9f 40 63 bd 06 f6 a2 bd
       0.08554689 -0.086641654 -0.05548155 -0.079570815
000100 70 aa 42 3d 9b e6 5d 3c 25 2a 0c 3d cf f8 0e 3d
       0.047525823 0.01354375 0.03421988 0.03490525
000110 5e 73 a0 ba 54 59 0a 3d 50 bd 80 bd 88 f6 80 3d
       -0.0012241413 0.033776596 -0.062861085 0.06297022
000120 2b 67 b6 bd 37 04 b9 bd 50 82 15 3d 19 04 c6 3d
       -0.089063965 -0.09034007 0.03650123 0.0966875
000130 c6 66 2d bd 46 08 d0 3d f2 a2 2c bd fc 86 9a bd
       -0.04233434 0.10157828 -0.042147584 -0.075452775
000140 c0 16 36 bc 10 86 11 3d 04 d5 98 bd e2 f4 a2 3d
       -0.011113822 0.035528243 -0.074625045 0.07956864
000150 7a c7 8c bd b4 0e 88 bd cd 42 77 bd 9f 83 d3 bd
       -0.06873985 -0.066434294 -0.06036644 -0.10327839
000160 5c e4 9d 3d 51 1e 9f bd 17 8e 55 bd b1 fc 21 bd
       0.07709572 -0.07769454 -0.05213746 -0.039547626
000170 2b 8f af 3d 61 dc 27 3d 2d fa 0c 3d 1c 8f f6 bc
       0.08572229 0.040981654 0.034418274 -0.030097537
000180 5e 8c 41 3d 53 2f 5d 3c 7f 69 a6 3d 6c b1 bf 3c
       0.047253005 0.0135000525 0.081255905 0.023400031
000190 59 72 9e 3d 8f fb 94 3d 40 e6 96 3c 8a de ce bd
       0.07736654 0.072745435 0.018420339 -0.1010104
0001a0 d4 b2 af 3c 6b e1 a2 bd 2c 5c 94 3c 78 67 41 bc
       0.021447577 -0.07953151 0.018110357 -0.011804454
0001b0 15 e3 9b 3d 07 b4 a8 bd ce b0 c2 bd ba 09 20 3d
       0.07611672 -0.082374625 -0.09506379 0.039071776
0001c0 64 39 81 3d 10 9d f4 bc 01 79 ac 3c 1a 3f a1 3d
       0.063097745 -0.02986005 0.021053793 0.07873364
0001d0 5f 81 50 3b cc a1 fa bc a5 15 93 3d 85 4d da 3d
       0.0031815392 -0.030594729 0.07181863 0.10659317
0001e0 1f 79 9c bc 5a 35 93 3d df f9 9b 3c 28 fd b5 bc
       -0.019100724 0.071879104 0.019040046 -0.02221544
0001f0 9f 97 bf bb bb d4 c3 bd 4e 15 69 3d e1 28 58 bd
       -0.005846932 -0.095620595 0.056905083 -0.05277336
000200 85 bb af bd ae 41 90 bb 14 51 24 bd 2b 4b 7f bd
       -0.085806884 -0.004402361 -0.040116385 -0.062327545
000210 67 2f 5f bc 56 39 3c bc 2e ef 05 3d 50 b4 6c 3c
       -0.013622141 -0.011488279 0.032698803 0.014447287
000220 68 bf 66 bc cc 15 be 3c 48 ae 8b bd 9b aa b6 3d
       -0.014083721 0.023203753 -0.06820351 0.08919259
000230 9e 6a 53 3d f5 91 88 3d 0c 8d c0 bd 97 5a 93 3d
       0.05161535 0.06668464 -0.094019026 0.07195013
000240 14 a3 98 3c 0c 9e d0 bd a3 fb cc 3d 60 90 10 bb
       0.01863245 -0.10186395 0.100089334 -0.002205871
000250 7c 9b a5 3c af 98 b2 3d 47 37 8b 3d b1 0f c0 3d
       0.020215742 0.08720528 0.06797653 0.09377993
000260 33 7e c9 bd 9f 83 c3 3d 3d 07 85 3c 09 ee eb bb
       -0.09838524 0.09546589 0.016238803 -0.007200007
000270 5b 46 bc bd 2f 07 85 bd 6a b7 c0 3d ee 10 8d 3d
       -0.09193107 -0.06495511 0.094099835 0.06887995
000280 15 72 96 3d 54 b4 83 bc 5a 3a 4b bd ef dd b9 3c
       0.07345978 -0.016077198 -0.049616195 0.022688834
000290 71 4f 47 bd 9f 15 87 bd 68 00 2e 3d 20 a1 be 3d
       -0.048659746 -0.06595921 0.042480856 0.09308076
0002a0 70 56 ac bd 72 2a b9 bd a9 72 71 3c cf 50 92 bc
       -0.08414924 -0.09041299 0.01473681 -0.017860798
0002b0 47 66 2a bd d6 6e f5 bc e3 c9 60 3c 43 2c 2f bc
       -0.041601446 -0.029960077 0.013720009 -0.010691705
0002c0 99 85 94 3d 9d 1a a1 3d 9b 10 4f 3d 65 3f 2c bd
       0.07252044 0.07866404 0.050552946 -0.042052645
0002d0 18 7a e4 bb 61 58 92 3d 29 7b 50 3c eb b4 ce bd
       -0.0069725625 0.07145763 0.012724676 -0.10093101
0002e0 7e fb 52 3c 01 9b 6f 3d 11 5e da bc 27 4b 8e bc
       0.012877343 0.058497433 -0.026656182 -0.01736982
0002f0 a7 0c 3c bc 4d aa 84 3d d7 41 b2 3d ea 69 a9 bd
       -0.011477626 0.06477795 0.08703964 -0.08272155
000300 69 3b 8e 3d 42 cd 30 3d 46 24 17 3d cd 42 75 bd
       0.06944925 0.0431645 0.036899827 -0.05987816
000310 8d 7d 76 bd 21 5c d6 3d fe 77 4f 3c 24 c8 20 bd
       -0.06017833 0.10466791 0.012662886 -0.03925337
000320 13 cf 1c bd 59 b4 64 3d d7 20 2f bd 24 b4 5d 3d
       -0.03828342 0.055836055 -0.042755928 0.054126874
000330 d8 14 36 bd a1 54 19 3c 28 05 3f 3c 07 52 77 bd
       -0.044453472 0.009358556 0.011658944 -0.06038096
000340 b8 32 6d 3a 6e 30 df 3c 56 9b da bd 54 10 d1 bc
       0.000904839 0.027244773 -0.10674159 -0.025520481
000350 79 1e 1f 3c c3 59 aa 3d cc d4 76 3c be fc c1 bd
       0.009711855 0.08317902 0.015065383 -0.09472035
000360 94 66 00 bd 32 5c d6 3d 38 8b 39 bc e4 4a a1 3d
       -0.031347826 0.104668036 -0.011324696 0.078756124
000370 3e f9 51 3c 53 65 95 3d a2 df 33 bd a5 d1 d8 3d
       0.012815772 0.07294717 -0.043914445 0.105868615
000380 e4 df e0 3c 98 c9 b0 bc 77 fd a5 3d 22 ea 54 3d
       0.02745051 -0.021580502 0.08104985 0.0519811
000390 6e 1b 91 bd e0 5a f8 bb c5 b9 9a 3d 9c 22 d7 3c
       -0.0708531 -0.0075791925 0.07554964 0.02626162
0003a0 0e 8c 08 bd a4 8d 8c bd c0 2b 97 bd 3e 01 70 3d
       -0.03333669 -0.06862953 -0.073813915 0.058594935
0003b0 72 5e 43 3d d8 4b bf bd 78 4d b1 bc 5c 8c da 3c
       0.047697492 -0.09340638 -0.021643385 0.026678257
0003c0 73 00 bf bd 17 0b ba 3d 80 2f 38 bc 5a 2e 35 bd
       -0.093262576 0.090841465 -0.011241794 -0.044233657
0003d0 be e1 22 3c a3 c2 0a 3d ce 76 a4 3c ac 90 c7 3d
       0.009941516 0.033877026 0.020076182 0.09744391
0003e0 e2 63 5d 3d 97 40 76 bc bc af 5d 3c 6c 43 a2 3c
       0.054050334 -0.015030048 0.013530668 0.01980754
0003f0 42 0b 19 bd 61 42 b2 bd e1 bb 00 bc 74 04 3e bd
       -0.037364252 -0.08704067 -0.007857294 -0.046390966

conv_block_2.2.bias f4 [10]
000000 4d ba bf 3d 24 34 98 3c bf 95 cb 3c f9 26 af 3c
       0.09361706 0.01857955 0.024851678 0.021380888
000010 e3 97 97 3c dc 1b 25 bd 37 0e d2 bd 02 b3 74 3d
       0.018505042 -0.040309772 -0.102566175 0.059741028
000020 00 0a 76 3d c8 d7 93 bc
       0.06006813 -0.018047228

linear_layer.1.weight f4 [2, 1690]
000000 90 1a c1 3a e2 88 02 ba 71 6b 88 bb 8d b8 97 3c
       0.0014732648 -0.00049795036 -0.0041631986 0.018520618
000010 2b 5a 4a bc 66 45 a8 bc 5c 7a e8 ba b5 d2 43 bc
       -0.012350599 -0.020540904 -0.0017736661 -0.011952092
000020 4f c4 61 bc 73 84 9f bb 2c e7 84 3a d3 41 95 3c
       -0.013779714 -0.004868084 0.0010139695 0.018219864
000030 7a 23 7b 3c 3c d3 9c 3c c4 69 98 3c a0 79 0f 3c
       0.0153282825 0.019143693 0.01860512 0.008757025
000040 04 12 07 3b cb 54 ce 3a 5f 3a 85 bc 4a bc 95 3b
       0.0020610103 0.0015741823 -0.016263185 0.004569565
000050 b7 82 66 bb 17 60 98 bb 4f c5 b5 3c 96 5a 56 3c
       -0.0035173127 -0.0046501267 0.02218881 0.013083121
000060 59 af 8a 3c ae 23 88 3c 77 0a 7d bc 03 2d f6 3b
       0.016929315 0.016618576 -0.01544439 0.00751269
000070 86 c2 a8 ba 7f 3d 2e 3c 97 9e 85 3c 7a a3 8b bb
       -0.0012875355 0.010634779 0.016310973 -0.0042614313
000080 a8 a0 a8 3c 05 01 4c 3b 64 21 49 bb 57 f5 8f 3c
       0.02058442 0.0031128537 -0.0030690068 0.017573042
000090 dd ba ae 3c fc 9e a2 bb 3a 2e 6e 3c 52 24 ee bb
       0.021329338 -0.0049628 0.014537388 -0.0072675133
0000a0 76 45 d2 b8 21 8b 7c bc a0 90 08 bc 88 58 9d 3b
       -0.000100265184 -0.01541403 -0.008335263 0.0048018135
0000b0 c7 ce 80 bb 40 1d b8 b9 eb c3 f9 3b ac 2d 0b bc
       -0.0039309 -0.00035117008 0.007622232 -0.008494776
0000c0 b1 23 6d 3c be db d8 3c 04 e1 ac 3c 0b 98 b0 3c
       0.0144738415 0.026471969 0.02110339 0.021556875
0000d0 3b ac 10 bc 5d ff a3 3a 05 c9 d4 bb 19 3c 26 bc
       -0.008830125 0.0012512017 -0.00649369 -0.010146164
0000e0 07 43 88 bb 50 e3 85 3c ae ce aa bc 55 4f 35 bc
       -0.004158381 0.016343743 -0.020850506 -0.0110662775
0000f0 0e c1 60 3c 92 80 68 3c d0 59 83 bb 83 26 86 bb
       0.013717903 0.01419081 -0.004008509 -0.0040939464
000100 a4 b9 5b bb e3 cf 7b 3c ea 01 94 3c a0 da 23 bc
       -0.0033527398 0.015369388 0.018067319 -0.010000855
000110 e7 f8 ad 3b 19 7d b9 bc cd 78 73 bc 5b 86 f9 b9
       0.0053092125 -0.022642659 -0.014860344 -0.00047593084
000120 8c 65 d3 bb a9 f4 28 bc 4a d9 ab 3c 25 6b 5c 3c
       -0.0064513143 -0.010312238 0.020977635 0.01345328
000130 7e 0b 42 3b 82 27 eb bb c6 e8 0d bb 31 7a a4 3c
       0.00296089 -0.0071763406 -0.0021653636 0.020077797
000140 76 7f 6f bb 51 4b 30 3b 5c 85 04 3c 45 48 7c 3c
       -0.0036544478 0.002690036 0.008088436 0.01539809
000150 a2 fc 84 3c 54 78 27 bc be 30 28 3c 3a 68 8d 3b
       0.016233746 -0.01022156 0.010265527 0.0043154033
000160 8a 7a 86 3b b8 d3 a4 bc 82 d8 b5 3c d0 46 01 3c
       0.0041039633 -0.020120487 0.022197966 0.007890418
000170 2c 56 3b 3b fb 8a 23 3c 10 77 be bb 0c 9e 8c bc
       0.0028585298 0.009981866 -0.005812533 -0.017165206
000180 9e 53 c1 bb 24 6d ac bc 6a 5f b0 3c 0a 80 2c 3c
       -0.0058998605 -0.021048136 0.021529872 0.010528574
000190 27 4d d1 3b 91 b7 86 bc ad 73 7f bc 8e 3f 56 3c
       0.006387371 -0.016444953 -0.015591544 0.013076676
0001a0 f9 40 bb bc 8d 6b 8f 3b b2 52 94 3c db 4b b1 bc
       -0.02285813 0.0043768347 0.018105838 -0.021642616
0001b0 cf 75 89 3c fc c9 a5 bc 07 b0 98 bb ff b1 88 3c
       0.016779808 -0.020237915 -0.004659656 0.016686438
0001c0 83 a0 91 3c 0c de af 3c c2 0a 9f 3c 9f dd c5 bc
       0.017776733 0.021468185 0.01941431 -0.024153529
0001d0 17 95 30 3b b2 bf cc bc f9 e1 51 3c f0 4d c2 3b
       0.0026944333 -0.024993751 0.012810224 0.005929701
0001e0 30 11 8b 3c d6 38 89 3b 1c b9 7f 3c ea 36 d2 ba
       0.01697597 0.0041876836 0.015608098 -0.0016038094
0001f0 38 fb a5 bc 84 52 8c bc 81 86 ef ba 63 4b c1 bc
       -0.020261392 -0.01712919 -0.0018274338 -0.023595518
000200 82 f2 99 3c 6d 60 88 bc 4b 92 b7 bc e1 6a ae 3c
       0.018792395 -0.016647542 -0.022408625 0.021291198
000210 a7 52 97 bc c1 de 62 bc 94 11 0c bb 16 ca c1 3b
       -0.018472029 -0.013847054 -0.0021372782 0.005913983
000220 fc 74 23 bc 33 e2 3a 3c c0 11 92 bc 57 64 01 3b
       -0.009976622 0.011406469 -0.01783073 0.0019743645
000230 b4 b2 dc bc 25 72 cb bc 0e 3a c5 3b 61 ed eb 3b
       -0.026940681 -0.024834702 0.0060188835 0.0071999286
000240 d7 fd 68 bc 34 55 b2 3b 81 e3 15 bc 23 d8 33 3c
       -0.014220676 0.005442286 -0.009148479 0.010976824
000250 6a b1 06 3a fb 87 e8 bb 98 a3 2a 3b 80 08 d1 bc
       0.0005138131 -0.0070962883 0.002603745 -0.025516748
000260 6f 92 32 3c 77 15 9c 3c 84 7e 8c 3c c7 37 8b bc
       0.01089917 0.019053204 0.017150171 -0.01699437
000270 8e 88 6c bc f1 f4 68 bc 6c cb 96 3a f4 93 9d bc
       -0.014436854 -0.014218555 0.0011504716 -0.019235589
000280 68 b6 a8 bc 23 e7 39 bc b9 88 a0 3c c3 a3 91 3b
       -0.02059479 -0.011346611 0.019596444 0.0044445707
000290 2f 27 c7 bc ac c9 63 bc 88 fc b6 bc 07 b7 d1 bb
       -0.024310676 -0.013903063 -0.022337213 -0.0063999924
0002a0 d3 30 0a bb 27 29 85 bc 63 f6 96 bc d3 bd 8a bb
       -0.002108623 -0.016254975 -0.018428033 -0.0042340546
0002b0 ea 16 43 3b c3 c9 a3 3c f0 50 31 3c 80 2e 44 bc
       0.0029768297 0.019993668 0.01082252 -0.011973977
0002c0 8a f9 a4 bc b5 66 e8 3b d9 ed a7 ba 3e d1 89 3c
       -0.02013852 0.0070923218 -0.0012811973 0.016823407
0002d0 98 88 5c bc 4e fe 23 3b d2 c0 a0 bc 82 67 5c bc
       -0.013460301 0.0025023404 -0.019623194 -0.013452413
0002e0 82 ce 5e bc f7 b1 3b bb be 7e 5c 38 50 c6 c8 3c
       -0.01359904 -0.002864001 5.2570125e-05 0.024508625
0002f0 81 87 c2 3c 0a 0f ad 3c ff 37 ff 3b a0 1f bf 3a
       0.023746254 0.021125335 0.0077886577 0.0014581569
000300 44 4a d2 3c dc c7 60 bc e8 e8 9f bc 95 5f 88 bc
       0.025670178 -0.013719525 -0.019520238 -0.01664714
000310 4f 74 88 3c d7 c0 d0 3c f8 ae fa bb 14 5f 67 bc
       0.016657023 0.025482578 -0.0076502524 -0.0141217895
000320 c8 64 a5 bc 3f 38 61 3c 48 d5 ed bb 37 fc 9d 3c
       -0.020189658 0.01374632 -0.007258091 0.019285304
000330 d5 21 01 bc d5 a7 cb 3c bb 54 9a 3c 0d bd 97 3c
       -0.007881601 0.024860302 0.01883923 0.018522764
000340 22 54 09 3c 4b 86 a5 bc 20 a0 a2 3b 64 44 4e bc
       0.008381875 -0.020205637 0.004962936 -0.012589548
000350 66 37 ca bb 4d 54 82 3c 9e 64 26 bc 69 3b 8a 3c
       -0.006171155 0.015909338 -0.010155825 0.016874032
000360 18 ec e3 3a f2 03 28 bc f3 43 12 bc 60 02 ac bc
       0.0017389087 -0.010254847 -0.008927333 -0.020997226
000370 aa c4 29 3c 7a c4 66 bb 0c a6 ae 3c d0 d4 26 3c
       0.01036183 -0.0035212324 0.021319412 0.010182574
000380 d5 7a 1b 3c a7 03 82 b9 85 4a 4b 3c c0 18 dd ba
       0.009489735 -0.00024798253 0.012407904 -0.0016868338
000390 65 47 3a 3c c0 9c 27 bc 1b c4 89 3c 13 58 14 3c
       0.011369561 -0.010230243 0.016817143 0.009054202
0003a0 67 49 7d 3c dd a4 7f 3b 02 3f f2 3b 78 6b b1 3c
       0.015459395 0.0039008178 0.007392765 0.02165769
0003b0 0e 03 9b 3b 78 c5 97 3c 36 76 b2 bc a9 d9 bd ba
       0.0047305888 0.018526778 -0.021784883 -0.0014484423
0003c0 f9 c1 9d bc d5 8e 4b 3b a5 e8 b8 3b af 36 05 3c
       -0.019257532 0.0031060476 0.0056429678 0.008130713
0003d0 31 60 0e bc 6f 67 61 3c 62 19 fa bb 2f 29 29 bc
       -0.008689926 0.013757571 -0.0076324204 -0.01032476
0003e0 fc ae 92 3c f3 bd ae bc bb dd b1 3b 5e c0 a8 bc
       0.017905705 -0.02133081 0.0054280437 -0.02059954
0003f0 40 8d 39 3c c5 95 9a bc 6d 75 b2 bc eb ea cf bb
       0.0113251805 -0.018870244 -0.021784509 -0.006345143

linear_layer.1.bias f4 [2]
000000 4b 57 81 3b 60 4d a2 bc
       0.0039471737 -0.019812286
