models/TinyVGGV1.pth (torch, 29023 bytes, 10 tensors)

conv_block_1.0.weight f4 [10, 3, 3, 3]
000000 9e 72 1a bd a7 4a 0b 3d 73 31 cd bd 69 58 02 be
       -0.037706964 0.03400674 -0.10019197 -0.12729038
000010 87 18 3e 3e cd 04 05 be 07 31 07 3d e3 d5 cc 3d
       0.18564044 -0.12990113 0.03300574 0.10001733
000020 f9 7c 5b bd a6 59 07 be 81 e3 f7 3d bd 31 ef 3d
       -0.05358598 -0.13217792 0.1210394 0.11679409
000030 28 8e 23 be ec c5 c2 bd 62 9c 10 3e aa a5 3d 3e
       -0.15972197 -0.09510407 0.14122155 0.18520227
000040 04 da 47 bc e7 4a 30 be 6d 34 09 3e 5e 45 3a be
       -0.012197975 -0.17216073 0.13398905 -0.18190524
000050 52 c0 36 be 00 bf 10 3e 3d 70 c8 3d 89 ea e2 3d
       -0.17846802 0.1413536 0.09787033 0.1107989
000060 6e 91 a7 bd 52 e1 c1 bd a1 87 a0 3d 11 92 d1 bc
       -0.081820354 -0.094668046 0.07838369 -0.025582345
000070 34 a8 ca 3d 16 6e 8a bd 57 43 13 3e 88 83 23 bd
       0.098953635 -0.067592785 0.14381157 -0.03992036
000080 8b 55 98 bd 24 dd 10 3e e4 1d 2b 3e 54 78 19 3d
       -0.07438191 0.14146858 0.16710621 0.03746827
000090 27 0c f1 3c 19 6d 49 3e 34 2d 3a 3b 13 d0 06 be
       0.02942474 0.19670524 0.002840829 -0.13165312
0000a0 64 c4 bd 3b 9b f1 49 3e c2 09 53 bd f0 25 3a 3e
       0.005791234 0.19721071 -0.051522978 0.18178535
0000b0 68 1b ca 3d c4 08 4a 3e 98 d5 3e 3d 91 ea 48 3e
       0.098685086 0.19729906 0.046590418 0.1962073
0000c0 99 d0 ae 3c ac 48 5a bd 78 02 b8 3c db 87 28 be
       0.021339701 -0.05329196 0.022462115 -0.16458075
0000d0 fe af 76 3d 9e 7f 28 bd c9 94 10 3e 7c bf 81 3d
       0.060226433 -0.04113733 0.14119257 0.06335351
0000e0 8d 73 a2 bd 04 19 e7 3d 13 c2 4c 3e 22 3d 9d 3d
       -0.07932196 0.11284068 0.19995908 0.07677676
0000f0 b5 53 14 be 0f c1 42 3d c6 bd d5 bc 43 02 c4 3b
       -0.14485057 0.047547396 -0.026091468 0.005981715
000100 79 f2 a2 3a 53 13 28 bd a4 38 f7 3d 65 58 16 3e
       0.0012431882 -0.041034054 0.1207135 0.14682157
000110 d7 1b f1 bd 70 16 a8 3c 87 2d 40 3e a3 28 2d bd
       -0.11772888 0.020518512 0.18767367 -0.042275082
000120 62 60 b5 bd 2c 26 d3 bd 57 3d 90 bd 3b b9 19 3d
       -0.08856274 -0.10310015 -0.0704295 0.037530165
000130 ea 40 10 3c 31 13 71 3d c8 36 a7 bd 53 94 83 3d
       0.008804539 0.058856193 -0.081647456 0.06424775
000140 32 09 25 3d 18 b9 38 bd 92 68 a5 3d 1d 11 17 3e
       0.040291972 -0.045098394 0.08076586 0.14752622
000150 29 c4 3b 3e ed f9 19 3e 33 95 22 be 24 66 99 bd
       0.18336548 0.15036745 -0.15877227 -0.07490185
000160 1d e4 40 3e 46 25 82 bd a8 db 93 bc c5 d1 26 be
       0.18837018 -0.063547656 -0.018049076 -0.16290958
000170 35 d6 2e be 6e 81 8f 3d fd 6d 1e 3e 2c e7 24 3d
       -0.17073901 0.07007109 0.15471645 0.040259525
000180 a8 45 3b be a4 1d c5 bd 56 cd 2c be aa d3 e8 3d
       -0.1828829 -0.09624794 -0.16875204 0.11368497
000190 28 6a 8d bc 9a 6f 83 bd 09 27 d7 bd 9c 1a 7e bd
       -0.017262533 -0.06417771 -0.10505492 -0.062037095
0001a0 72 a0 c2 3d 4d 71 fd bd 05 19 aa bd c8 d3 0a be
       0.09503259 -0.12375126 -0.08305553 -0.1355735
0001b0 06 2d bd 3d 4a 2e bc bd 27 f3 0f 3e 34 56 86 bd
       0.09237103 -0.091885164 0.14057599 -0.06559411
0001c0 48 43 7e bd 17 76 a2 bd bc aa 06 be 7b 22 1a be
       -0.062075883 -0.0793268 -0.13151067 -0.15052216
0001d0 c8 6c 1d bd 3f fc a7 bd 4c a3 08 3d 18 6f c9 3c
       -0.03843382 -0.08202409 0.033358857 0.024589106
0001e0 be 1f fc 3d fa d5 ed 3d 22 3f 9a 3d 18 40 01 bd
       0.12310742 0.116130784 0.07531573 -0.031555265
0001f0 5a 24 9b 3d f5 d3 1b 3e b5 8e 1d 3e c0 9c e6 3b
       0.07575293 0.15217574 0.1538647 0.007037729
000200 15 37 40 be bc 23 11 bd 14 4c 64 bd b0 94 22 bc
       -0.18771012 -0.03543447 -0.055736616 -0.009923145
000210 16 0c 26 be f6 b4 d9 3d 3e b2 13 be 6e b8 3c 3e
       -0.16215548 0.10630219 -0.14423463 0.1842973
000220 72 88 33 3e f4 d9 72 3d 90 27 d7 bc 15 64 99 bc
       0.17532519 0.059289888 -0.026263982 -0.01872448
000230 30 5a 0f be c5 10 ea bd 1d 9f 8d bb 18 82 fc bd
       -0.13999248 -0.1142898 -0.0043219463 -0.12329501
000240 e2 8d 18 3e 3f db fc 3d cd 0a 9d bd 6e 93 ab bd
       0.14897874 0.123465054 -0.07668076 -0.08377729
000250 59 fc 43 bc 95 1b d0 bd 4c 0b 04 3e 6f 76 2a 3e
       -0.01196202 -0.10161511 0.12894934 0.16646741
000260 7b 6e b0 bd 9e e7 dd bd 8c 19 0e be b3 b8 bf 3c
       -0.086148225 -0.10835193 -0.13876933 0.023403501
000270 cd a0 5e 3d 4b 39 0e 3d 48 b2 12 bc 37 c5 ac 3d
       0.05435257 0.034722608 -0.008953638 0.08436053
000280 b4 b2 d1 3d 30 74 0d 3d 9b 62 30 be 54 69 54 3d
       0.10239163 0.034534633 -0.17225115 0.05185826
000290 d1 62 1e 3e c7 fc 05 be 2d 30 19 be 7c 38 5d 3d
       0.15467383 -0.13084708 -0.14959784 0.054008946
0002a0 40 4d a7 3b 70 b1 13 3d f0 e0 b6 bc be 9a dc bd
       0.0051056445 0.03605789 -0.022324055 -0.10771702
0002b0 02 85 e3 bd 00 74 ce 3b c2 06 40 be dc 7f 04 bd
       -0.111093536 0.0063004494 -0.18752578 -0.0323485
0002c0 80 68 98 3c 42 23 ca 3d 3a e8 ef bd 35 f5 b8 bd
       0.018604517 0.09870006 -0.117142156 -0.090311445
0002d0 d2 13 81 3d 50 3e de 3c 60 47 47 bd ea 64 05 be
       0.063026085 0.027129322 -0.048652053 -0.13026777
0002e0 be 0d 31 be a1 2e 31 be 08 4a ba 3c a4 d3 10 be
       -0.17290398 -0.17302944 0.022740379 -0.14143234
0002f0 af 81 41 3e 9c 3c 1e 3d 20 a7 d1 3d 9f 87 25 3e
       0.18897127 0.03863202 0.10236955 0.16165017
000300 34 06 93 bd 16 29 e2 bd 71 a3 61 bd 97 1a 5f 3d
       -0.071789175 -0.11042993 -0.05508751 0.054468717
000310 49 22 c4 bd 20 d7 dc bc 8c 87 0f 3d 5f bb 66 bd
       -0.09576852 -0.026958048 0.035041377 -0.056331035
000320 0e c0 d0 3d 99 98 23 3e 76 25 9e 3d b1 b7 59 bd
       0.101928815 0.1597618 0.07721989 -0.053153697
000330 83 5f 09 3e 02 ba 5e 3d 79 36 dd 3d 43 0b 6d bc
       0.13415341 0.05437661 0.108014055 -0.014468017
000340 ae 8d e7 bd 65 93 b7 bd b1 88 fd bb 30 5e 1e 3e
       -0.1130632 -0.0896366 -0.007737242 0.15465617
000350 9a b8 be bd 49 0e b6 3d 95 74 33 be e3 80 83 bc
       -0.09312554 0.088894434 -0.17524941 -0.016052669
000360 f8 d2 34 be 3c c7 37 be 2d 49 05 3e c0 75 3d bd
       -0.17658603 -0.17947096 0.13016196 -0.046254873
000370 06 cd a4 3d b8 f9 9c bd 2d 98 07 3e b2 f7 c0 3d
       0.080469176 -0.076648176 0.13241644 0.09422244
000380 e0 27 fe bb a0 ba 7c bc 90 b2 4d bc ea 86 eb bd
       -0.0077562183 -0.015425354 -0.01255478 -0.11500342
000390 70 c9 6c bc 18 11 42 be aa d1 e2 3d 92 65 06 be
       -0.014452323 -0.18951833 0.110751465 -0.13124683
0003a0 31 0f 45 3e 5f a2 ba bd 14 30 04 be 92 d1 25 be
       0.19244076 -0.09113001 -0.12908965 -0.16193226
0003b0 e4 fa 31 bd 0a 33 f9 bd a5 8b 02 be 48 2d 0f bd
       -0.04345216 -0.12167938 -0.12748583 -0.034955293
0003c0 f4 7d 30 be 2a dc 00 be 40 7b cc 3c 11 86 4b 3d
       -0.17235547 -0.12583986 0.024961114 0.049688403
0003d0 36 fd d2 3c 5d ad 47 3e d2 82 de 3d b5 dc ab bd
       0.025755506 0.19499727 0.10864796 -0.08391706
0003e0 4d cf 18 3d 64 8d 34 3e 63 36 b6 bd f0 3e 21 be
       0.037307072 0.17632061 -0.08897092 -0.15746665
0003f0 5d d8 f0 bb 25 21 95 bd 33 ca 26 be c7 9e 0c be
       -0.0073500113 -0.072817124 -0.1628807 -0.13732444

conv_block_1.0.bias f4 [10]
000000 4b 9f 82 3d 9b 3a 0c be 24 c8 29 3d 6c f1 f2 bd
       0.06378039 -0.13694231 0.041450635 -0.11862454
000010 e5 88 c1 bd 33 f2 72 bd b8 1d 02 be ff 8e 15 bd
       -0.09449939 -0.05931301 -0.1270665 -0.036513325
000020 d9 91 a2 bd 9e d4 04 3e
       -0.079379745 0.12971732

conv_block_1.2.weight f4 [10, 10, 3, 3]
000000 73 28 b7 bb 78 88 5f bd 4f 3f 80 bd 39 eb ea 3d
       -0.0055895387 -0.054573506 -0.06262075 0.114706464
000010 90 af 50 bd bd 2f 8f 3d b4 98 f1 3d 42 05 1c bd
       -0.05094868 0.06991527 0.11796704 -0.03809095
000020 80 33 84 3d 14 3c 36 bd db 17 9e 3d 23 57 a6 3d
       0.06455135 -0.04449089 0.07719394 0.08122089
000030 76 79 dc bd f0 1b a7 bd 7d dc 1c bd 85 43 88 3d
       -0.10765354 -0.081596255 -0.03829621 0.06653503
000040 f3 6b a4 3d aa 43 c0 bd f6 de da bb a1 fa 97 3c
       0.08028402 -0.09387906 -0.006679411 0.018552126
000050 0d 9a 67 3d 88 df 28 bc 88 78 85 bd c3 c2 cf 3d
       0.0565434 -0.0103072 -0.0651713 0.1014457
000060 0e 53 da bd 58 93 78 bd c0 0a 60 bc b9 be c3 bd
       -0.10660373 -0.060687393 -0.013674438 -0.09557862
000070 81 5b 5c bd 00 0d 78 bc 50 18 c2 3b ec 1b 15 bd
       -0.053798202 -0.015139818 0.0059233084 -0.03640358
000080 fd 67 a7 3d 98 8d 66 bd 7b d8 ad bd b3 65 af 3d
       0.08174131 -0.056287378 -0.08488556 0.085643195
000090 ed b6 96 3d 24 2c d2 3c 76 d0 0f 3d 38 8a 0d bc
       0.07359109 0.025655814 0.035110913 -0.008638911
0000a0 41 a2 b4 3d fe 3b 76 3d 62 b5 a8 bd ba bb 78 3d
       0.0882001 0.060115807 -0.08237721 0.060725905
0000b0 b6 bd cd bd 8f 31 dd bc ff f1 32 bc c3 1c e5 bc
       -0.1004595 -0.02700117 -0.010921954 -0.027967816
0000c0 ff 1a 19 bd 2e 15 47 bc 0b f1 8d bd 17 91 a5 3d
       -0.03737926 -0.012151046 -0.06930741 0.08084314
0000d0 bd ab 58 3c 25 ca ef 3c f6 e5 4e 3d 39 c1 d6 3d
       0.013224539 0.029271195 0.050512277 0.10486073
0000e0 3a 4f 8f bd f5 db 8f 3d d8 43 5b bc ad 64 c3 3d
       -0.06997533 0.07024375 -0.013382874 0.09540687
0000f0 40 28 0d bc c8 f3 6f 3c 90 9d 20 bc f7 13 b0 3a
       -0.008615553 0.014645524 -0.009803191 0.0013433684
000100 5a 87 92 bd e8 6a 51 bd 9e 84 0e bd 77 b7 0d 3d
       -0.071547225 -0.051127344 -0.034794442 0.034598794
000110 c5 d6 90 bd 17 bd 9f bd 0a 82 8b 3d b7 26 63 3b
       -0.07072214 -0.07799738 0.06811912 0.0034660527
000120 60 53 bf 3b 04 bd d5 bc c8 1d 80 bd 57 28 a8 3d
       0.0058387965 -0.026091106 -0.0625568 0.08210819
000130 0f 2c d2 3d 63 56 cd 3d 15 34 b2 3d b8 5d 1e bc
       0.1026231 0.100262426 0.0870134 -0.009665899
000140 b8 3b 5d 3c 02 13 14 3c 16 b0 30 bd 26 88 45 3d
       0.013503008 0.009037735 -0.04313668 0.048225544
000150 35 8f bd 3d 39 b0 8a bd fa 89 f8 3d 58 a0 56 3d
       0.0925583 -0.06771893 0.12135692 0.05239901
000160 c2 01 0c bc c4 ec 42 bd 6a 54 b8 bd c9 98 13 bd
       -0.008545341 -0.04758908 -0.09000476 -0.03603438
000170 c9 4e 48 bd ea d7 bf bb 85 d3 a9 bd de 6e d5 bd
       -0.04890326 -0.0058545964 -0.08292297 -0.10421537
000180 2c c8 1b 3d ff db af bd 0c ef a7 3c 38 ef 8c 3d
       0.038032696 -0.08586883 0.020499729 0.06881565
000190 1f f8 f2 3c 27 32 7d bc 62 29 db bd ea 60 c3 3c
       0.029659329 -0.015453852 -0.107012525 0.023849923
0001a0 ad cb 89 bc db 46 6f bd 8f 36 36 3d a3 c1 a5 3c
       -0.016820753 -0.058417182 0.044485625 0.020233935
0001b0 e5 b2 60 bd 1e e5 89 bd 51 bf 46 bd 73 ef b6 3d
       -0.054858107 -0.06733154 -0.048522297 0.0893239
0001c0 a3 62 2d 3d 49 23 c3 bd 9e 6f 05 bd 76 5f 89 bd
       0.042330395 -0.095282145 -0.03257715 -0.06707661
0001d0 bf f2 d4 bc 39 a7 93 3d 37 5d 9a 3d 6e ee 29 bd
       -0.025994657 0.072096296 0.075373106 -0.04148715
0001e0 6a 7c 67 3d 50 5c fc bc 30 42 8e bb 80 ec 6f 3c
       0.056515135 -0.030805737 -0.0043413863 0.014643788
0001f0 a4 3c d9 3c da a6 3c 3d ea d9 03 3d 19 d3 b6 3d
       0.026518174 0.04605756 0.03219024 0.089269824
000200 09 fc 89 3d 2c 51 c5 bd 3b bd c5 3d 04 9c 97 bd
       0.06737525 -0.09634623 0.096552335 -0.074028045
000210 02 36 2f 3d 9c 79 af bd a3 12 89 bd 23 d5 2c bd
       0.042776115 -0.08568117 -0.06693008 -0.04219545
000220 04 84 97 3c 19 b3 c9 bd 4a 04 ae 3d 65 60 9c bb
       0.018495567 -0.09848613 0.08496912 -0.0047722333
000230 93 ee 23 3d 46 77 15 bd 85 c1 cf bd f5 77 86 3d
       0.040022444 -0.0364907 -0.10144333 0.06565849
000240 80 8c 09 3c 03 33 5b bd c0 5b 7e 3b 40 e4 82 3a
       0.008395314 -0.053515445 0.0038812011 0.0009986237
000250 26 b3 51 3d 04 df bf 3c 70 de 15 bc 3e 85 41 3d
       0.05119624 0.023421772 -0.0091472715 0.04724621
000260 6a e0 b5 bd 06 77 ab bd 28 dc b8 3b f7 53 90 3d
       -0.08880694 -0.08372311 0.005641479 0.07047265
000270 d7 3e 0c 3d 19 12 d0 bc fe 40 9b 3d aa c0 85 3d
       0.034239616 -0.025399255 0.07580756 0.065308884
000280 16 c3 c5 bd d9 69 9a 3d ba ef d1 bd 59 a8 ad 3d
       -0.0965635 0.0753972 -0.10250802 0.084793754
000290 94 5c f5 bc 22 61 1f 3d 03 38 a7 3d e8 27 13 3c
       -0.029951371 0.038910992 0.0816498 0.008981682
0002a0 00 f6 10 3c bc 5f a3 bc d0 9b 5b bc ac a2 c8 bc
       0.0088477135 -0.01994311 -0.013403848 -0.02449163
0002b0 c2 47 15 3d ca 2e c6 3d 7d 08 99 3d 52 01 39 bd
       0.036445387 0.09676893 0.07472322 -0.045167275
0002c0 08 a1 3e 3d ef 99 95 bd a8 34 57 bd 56 e8 88 bd
       0.04654029 -0.07304751 -0.05254045 -0.066849396
0002d0 b6 ff 68 bd e6 a2 f5 bd d4 60 4b bd 46 34 a1 3d
       -0.05688449 -0.11993961 -0.04965289 0.078712985
0002e0 15 c2 cf bd 04 73 f4 bd 1a e4 f4 bc ef 64 fe bd
       -0.1014444 -0.11936 -0.029893924 -0.12421595
0002f0 8a 69 c0 bd 61 8c fd 3d e1 e4 4c 3d c4 93 17 3d
       -0.0939513 0.12380291 0.050022963 0.037006155
000300 6d 50 aa 3d 91 19 1a bc 28 19 f8 3b 16 aa 84 3b
       0.08316121 -0.00940551 0.0075713582 0.004048596
000310 47 bf 97 3d ec 33 15 3d 90 78 74 bd 02 23 6d 3d
       0.0740953 0.03642647 -0.05968529 0.057894714
000320 b5 dd b2 3d af f2 01 3b 4b 01 a5 bd 8c 95 c8 bc
       0.087336935 0.0019828489 -0.08056887 -0.024485372
000330 14 e8 34 3d 1e ca 0f 3d c5 b6 49 3d 59 c8 ce 3d
       0.04416664 0.035104863 0.04924657 0.10096807
000340 6b 81 9d 3d 4e 12 56 3d 0c 36 bb bd 1a 3e 0f bd
       0.076907 0.05226355 -0.09141168 -0.034971334
000350 fb 45 b6 3d 97 ea 4f bd 00 8c 06 3b 24 10 a5 3c
       0.089000665 -0.05076083 0.0020530224 0.020149298
000360 a2 7a 25 bd 1c 2c bc bd 17 99 ad bd d0 8e 2f bc
       -0.040400155 -0.09188101 -0.08476465 -0.0107152015
000370 8c c8 ef 3c 26 6a 32 bd 46 45 07 bd 9e 7d 00 bd
       0.029270433 -0.043558262 -0.03302505 -0.031369798
000380 48 79 54 bc 9b e7 67 3c 98 9e 2c bd 8d 29 95 3c
       -0.012968369 0.01415434 -0.042143434 0.01820829
000390 7f 9f b6 bc 6c 3c 07 3d 70 d1 41 bd 1a 96 d4 3d
       -0.02229285 0.033016607 -0.047318876 0.10380192
0003a0 6c 82 21 3c 40 99 c5 3d a8 aa d3 bd 39 ed 95 bd
       0.009857755 0.09648371 -0.103352845 -0.07320637
0003b0 7e b1 64 3d b3 59 88 3d 3b 5a c9 3d b6 c3 4a 3d
       0.055833332 0.06657734 0.09831663 0.04950305
0003c0 6e 95 32 3d 9a ea 31 bd 9d 49 cd 3d 49 82 c2 3c
       0.04359954 -0.043436624 0.10023806 0.023743765
0003d0 4a 64 94 bd bd ae 1b 3d 0f 9b 99 3d 54 fa d9 3c
       -0.07245691 0.03800844 0.07500278 0.026608624
0003e0 56 b0 5c bd 44 60 a0 bd 69 d7 95 3d b9 7e f7 3b
       -0.053879105 -0.07830861 0.07316477 0.0075529483
0003f0 c0 37 5d 3c bd b0 cd 3d 2f 42 c4 3d ce b6 1e 3d
       0.013502061 0.10043476 0.09582936 0.038748555

conv_block_1.2.bias f4 [10]
000000 c7 39 f6 3d 12 8f 77 b9 b9 fd ad 3d 77 04 51 bd
       0.12022739 -0.00023609053 0.084956594 -0.05102965
000010 14 5d a1 bc ee 58 cb bd 7f 3d 8d bd 2a 3f 83 3d
       -0.019697703 -0.09929071 -0.06896495 0.06408532
000020 f0 4d 8d bd f5 a2 7a 3d
       -0.06899631 0.061190564

conv_block_2.0.weight f4 [10, 10, 3, 3]
000000 2f 13 55 3d 90 f3 43 3d af be e0 3d 7e 63 37 bd
       0.052020248 0.0478397 0.1097387 -0.044772618
000010 c0 33 3b 3d 3b 37 8d bd 46 19 9a bd 75 d0 24 bd
       0.04570365 -0.068953 -0.07524352 -0.040237863
000020 97 98 d8 3d 57 ef b6 3d 02 a2 93 3c 55 87 8c bb
       0.10575979 0.08932369 0.018021587 -0.004288594
000030 44 cf a3 bc 0f aa 6d bd 23 ba d0 bc 51 bf ae 3d
       -0.019996293 -0.05802351 -0.025479382 0.085325845
000040 2b eb e6 3c 57 d3 4b 3d 1a 60 97 3d 8d 02 bf 3d
       0.028188309 0.049762096 0.07391377 0.093266584
000050 ed a8 02 3d 65 1d 4e 3d 20 77 12 3d d5 74 bc 3d
       0.03189938 0.050321 0.035758138 0.092019714
000060 fd 34 b0 3d 97 b2 b5 bd c0 18 35 3c cd 35 4a bd
       0.08603857 -0.08871954 0.011053264 -0.049367715
000070 a8 d2 91 bc 1c a5 a3 bd 03 8a ae bd 35 87 74 bd
       -0.017800644 -0.079904765 -0.085224174 -0.059699256
000080 97 b4 95 bd b9 ff 54 3d dd 48 56 3d fd 08 a3 3d
       -0.073098354 0.05200169 0.05231558 0.07960699
000090 66 a9 7b 3d 79 f1 a1 bd 20 6f 8a bb 4c 04 a7 3c
       0.061440848 -0.079073854 -0.004224673 0.020387791
0000a0 e8 8c a0 bd e0 83 bd bb 5c 9a dc 3c 00 62 b8 bc
       -0.07839376 -0.005783543 0.026929073 -0.022507668
0000b0 e2 09 3f 3d 00 53 68 3d e0 66 ce 3d ab 4a fe bc
       0.046640284 0.05671978 0.100782156 -0.031041464
0000c0 2f 49 5a ba e3 06 90 3d de 9a 09 3d aa 0b 7a bd
       -0.0008326945 0.070325635 0.03359496 -0.06104628
0000d0 2c a0 fc 3c 7a ce 5e 3c ab 57 3d bd c1 e1 aa 3d
       0.030838095 0.013599033 -0.046226185 0.083438404
0000e0 7e 44 89 bd 88 d2 4d bd 22 1e 8e bd db 1e ce 3d
       -0.06702517 -0.050249606 -0.06939341 0.10064479
0000f0 b7 ca 8e 3d 82 e4 78 3d 12 c1 b6 bd 4a c6 41 bc
       0.069722585 0.060764797 -0.08923544 -0.011827061
000100 d1 c6 88 3d 28 fc 18 ba c2 b9 c8 3c 6a f4 de 3d
       0.06678546 -0.0005835914 0.024502639 0.10886462
000110 c0 f8 c4 bd ec bc 5e 3d cd c0 57 3b aa ac 21 3d
       -0.09617758 0.05437939 0.0032921315 0.039471306
000120 76 4b 21 bc a3 4f a4 3c fe f6 2d 3c 6d 2c 9d 3d
       -0.009844651 0.020057505 0.01061797 0.07674489
000130 d7 e8 d6 3d 26 ba 58 3d 72 22 74 3d d2 74 6d bd
       0.104936294 0.0529119 0.059603162 -0.057972737
000140 08 8e bb 3d ce 7a 81 3d 18 a8 e1 3d 2c 51 e9 bc
       0.0915795 0.06322251 0.110183895 -0.028481089
000150 76 b8 2c ba ff 4f 58 bd 01 70 28 3d 23 2e b3 bd
       -0.0006588766 -0.052810665 0.04112244 -0.08749034
000160 5e 84 ba 3d 18 66 72 bc d4 b5 b7 bd d4 9d c5 bc
       0.09107278 -0.014794849 -0.08970228 -0.02412311
000170 34 85 b9 3c 4c 36 c0 3c c3 dd b1 3d 00 80 64 3b
       0.022646524 0.02346339 0.08684876 0.0034866333
000180 0d b8 45 bd 1f 6a 6c bd a0 9a 13 3c 1f d0 ae 3d
       -0.048271228 -0.057718392 0.009009033 0.0853579
000190 76 22 6f 3d 80 ff 10 3b b5 75 d1 3d d7 2b ad 3d
       0.058382474 0.0022124946 0.10227529 0.084556274
0001a0 d3 7d d3 3d 90 06 57 3c 74 09 21 bd 6b 26 80 3d
       0.103267334 0.013124123 -0.039315656 0.06257328
0001b0 56 af 11 3d 34 00 80 bc e8 b9 67 3c 40 78 76 bb
       0.035567604 -0.015625097 0.014143445 -0.0037608296
0001c0 a5 2f 97 bd f7 01 4f bd 48 10 18 bc 07 40 cf 3d
       -0.07382134 -0.050538983 -0.0092812255 0.10119634
0001d0 04 29 a4 bd e0 fd 9f 3c 6c d1 54 bd 74 25 60 bd
       -0.080156356 0.019530237 -0.051957533 -0.054723218
0001e0 02 e7 0a 3d 81 3c b5 3d 4c f9 df 3c 10 7c 01 3c
       0.033911712 0.08849431 0.027340554 0.007903114
0001f0 01 5f 8e bd 96 36 30 3d 47 cd 45 bd 72 18 7a 3d
       -0.06951714 0.043020807 -0.04829147 0.06105847
000200 04 4c b0 bd 5f 1e 89 3d ff 38 d7 3d bb 91 c4 3d
       -0.08608249 0.06695246 0.10508918 0.095981084
000210 08 20 a9 bc ce 54 06 3d 54 62 19 bd 26 62 63 3d
       -0.020645157 0.03279572 -0.03744729 0.055513524
000220 80 52 6a 3b e9 93 9f 3d e3 d3 99 3d bf 04 a4 3d
       0.003575474 0.077918835 0.07511117 0.08008718
000230 0d 86 59 bd c8 a2 18 bc d0 f2 bf bd 5a cf 3f 3d
       -0.053106356 -0.009316154 -0.09372485 0.046828605
000240 3f d7 9d 3d 80 80 b2 bc 18 30 7a bc 2d af d0 bd
       0.077070706 -0.02178979 -0.0152702555 -0.10189662
000250 b7 1b 63 bd 81 27 66 bd bd 70 c6 3d 86 78 7e 3d
       -0.055446353 -0.056190018 0.09689472 0.06212666
000260 5b b6 bb bd d1 8c ca 3d 0e d4 b4 bd 4f 65 b9 3d
       -0.09165641 0.0989014 -0.08829509 0.09052526
000270 be 5e 10 3d 7c 0c 85 bd 06 eb 29 3d bc 92 c8 bd
       0.035246603 -0.06496522 0.0414839 -0.09793612
000280 b0 02 a9 3b 77 b5 83 3d 30 e6 50 bd f0 2f f2 bc
       0.005157791 0.06431096 -0.051000774 -0.029563874
000290 c4 4a c0 3c ab 1b 8a bd 84 13 b1 3c 46 0b 50 3d
       0.023473151 -0.067435585 0.021615751 0.050792
0002a0 2f f5 cd 3d e0 04 06 3b 78 bf 3e 3c 66 7c b0 bd
       0.10056531 0.0020449683 0.011642329 -0.08617477
0002b0 47 06 82 3d fa a8 3a 3d 47 27 92 3d c8 b7 0f 3c
       0.063488536 0.045571305 0.07136398 0.008771844
0002c0 06 97 35 3d a1 bc a5 3d 49 60 a9 3d b1 37 5b bd
       0.04433348 0.08092619 0.08270318 -0.05351991
0002d0 f1 1f 87 bd 8c 4e 6f 3d 66 df 32 bd 28 a7 96 bd
       -0.06597889 0.058424518 -0.04367008 -0.07356101
0002e0 a0 d4 d7 3b d0 dd c4 bd b1 f5 35 bc 5e 4f ad bd
       0.006586626 -0.0961262 -0.011105941 -0.08462404
0002f0 76 77 4e bd 35 7f 89 3d a3 20 71 3c 6e bb 43 bd
       -0.050406896 0.06713716 0.014717254 -0.04778617
000300 a7 c4 96 3d d4 58 46 bc 14 d2 49 bc 3a c4 6a 3d
       0.07361727 -0.012106139 -0.012318153 0.057316042
000310 77 8c a8 bd 0e a0 e5 3c a0 35 94 3d b1 29 ef 3c
       -0.082299165 0.028030422 0.07236791 0.029194685
000320 69 57 c5 bc dc d2 02 3c 68 3a 24 bd 3d f1 c6 3d
       -0.024089532 0.007984843 -0.040094763 0.09713981
000330 0a 69 9d ba dd 15 c3 3c c6 19 5b 3d 55 e4 84 3c
       -0.0012009453 0.023814136 0.053491376 0.016222158
000340 db 51 77 bd 2b bf 1f 3c 17 56 c8 3d b5 5f 23 3d
       -0.060380798 0.009750168 0.09782045 0.039886195
000350 ca 6d 88 bc 88 41 cf 3d 83 98 81 3d fc 32 b9 3d
       -0.016653914 0.10119921 0.063279174 0.090429276
000360 1e ad bf bd 83 97 b7 3d 82 e0 45 3d 10 bf 90 3c
       -0.09359191 0.089644454 0.04830981 0.01766923
000370 68 f5 cd bd 88 06 c2 bc 97 3c 90 3d 76 ba 6a 3d
       -0.10056573 -0.023684755 0.070428066 0.05730673
000380 92 ce 6e 3d 71 69 62 3d 20 5b c9 3d fc 9f b3 3d
       0.05830247 0.055276338 0.09831834 0.08770749
000390 06 41 18 bd 3f 2a 01 bd 5c 3b 86 bd 26 16 36 3d
       -0.037171386 -0.03153443 -0.06554291 0.044454716
0003a0 90 3d b6 3c 20 d3 da bb 24 6e ce bc 2c 1c db bc
       0.022246152 -0.006678 -0.025199004 -0.026746832
0003b0 b2 eb 13 3d 02 7b 84 bd 21 c4 ae bd 7d e1 af 3d
       0.03611345 -0.064687744 -0.08533502 0.0858793
0003c0 40 eb 91 bb 98 69 33 3c 9c 7a 9f bc 3b 17 a2 3d
       -0.004453093 0.0109504685 -0.019467644 0.07914587
0003d0 31 ee 0b 3d ec 75 68 bd 61 5d ff bc 4f 0a 97 3d
       0.034162704 -0.056753084 -0.031172456 0.07375013
0003e0 94 40 a9 3d 44 09 7f bd d0 b1 83 bd 45 da 95 bc
       0.082642704 -0.062264696 -0.064303994 -0.018292556
0003f0 e6 54 26 3c c9 84 a9 3c 89 fe 46 3d 60 2f b8 3b
       0.010152077 0.0206932 0.048582587 0.005620882

conv_block_2.0.bias f4 [10]
000000 6f ae 34 3d d1 8a 62 bd ae 58 ef 3b 93 87 54 3d
       0.044111665 -0.055308167 0.0073042726 0.051887106
000010 23 97 f4 bc 04 05 5b bd dc e6 6b 3d 1b 0a 22 bc
       -0.029857224 -0.05347158 0.05759321 -0.009890105
000020 ac 9a bd 3d 9d 30 1c 3d
       0.09258017 0.0381323

conv_block_2.2.weight f4 [10, 10, 3, 3]
000000 a1 e4 c5 3d 22 32 17 bc 20 39 14 bd 45 d8 6c 3c
       0.09662748 -0.009228261 -0.03618729 0.01445586
000010 ce a9 14 3d 11 a7 34 3c 76 6b d2 3a 73 06 89 3b
       0.03629475 0.01102616 0.0016053754 0.004181677
000020 0d 78 d5 3d d3 bf a7 bd c5 a8 bb bd 65 09 8a 3d
       0.104232885 -0.081908844 -0.091630496 0.06740073
000030 15 54 ca 3d 56 cc 4e bd 7f 83 a1 3d 46 15 6a 3d
       0.098793186 -0.05048784 0.07886409 0.057149194
000040 6b bb ac 3d 4b 39 a9 3d 06 68 0f 3d d6 25 1b 3d
       0.08434185 0.08262881 0.035011314 0.03787788
000050 71 ee 4c bd 92 52 72 bd 2c cd b8 3d 8c f3 52 3d
       -0.050032083 -0.059160776 0.090235084 0.051501796
000060 58 22 35 bd 6c 12 9f bd 3b 96 81 3d 91 1f d8 bc
       -0.044222206 -0.077671856 0.06327482 -0.02638224
000070 94 d5 88 3d d0 c2 56 bd cf 6d be bd 09 5d 99 bd
       0.06681362 -0.05243188 -0.09298288 -0.07488448
000080 dc b3 c5 bd ad 88 2a bc f9 86 17 3d d4 47 34 bd
       -0.09653446 -0.010408563 0.036993954 -0.044013813
000090 46 21 d9 bc 62 98 ba 3d 52 eb 68 bc eb d2 92 3d
       -0.026505124 0.09111096 -0.014216261 0.07169136
0000a0 63 2f 91 3d e9 c9 53 bc 09 04 ee 3d f8 54 60 3d
       0.070891164 -0.012926557 0.116218634 0.054768533
0000b0 b4 17 05 3d 2f 6b bd 3d c4 11 46 bd 50 5e d9 bb
       0.03249331 0.09248959 -0.048356786 -0.0066335574
0000c0 80 b1 46 3b 69 b2 a7 bd c0 0e da 3b cd 6e 31 bd
       0.00303182 -0.08188326 0.0066545904 -0.04331856
0000d0 dc 15 80 bd 0e c6 4f 3d fe 65 d6 bd 19 b9 a0 3d
       -0.06254169 0.05072599 -0.10468672 0.078478046
0000e0 f6 6c a1 bd 68 e9 98 3b 4f 52 d4 bd ce c5 3b bd
       -0.07882111 0.004666496 -0.103672616 -0.045842938
0000f0 8b e0 63 bd c4 5e 10 3c 28 99 56 bd 2d 8b 66 bd
       -0.055634063 0.008811656 -0.052392155 -0.056285072
000100 ac 1c 8c bd 41 8d be bc 73 d2 92 bd 2c 03 1a 3d
       -0.06841406 -0.023260714 -0.07169046 0.03760068
000110 f3 64 87 bc b3 dd 97 bd e9 8f 7f 3d 9e 82 0f bd
       -0.016527629 -0.07415333 0.062393103 -0.035036676
000120 ff 70 1f bd 6b 48 3b 3d 60 db 11 bc 21 e0 9f bd
       -0.03892612 0.04572336 -0.008902401 -0.07806421
000130 a6 15 6e bd 09 31 16 bc bb 8f 8b bd 7b b2 ae bd
       -0.058126114 -0.009166964 -0.06814524 -0.08530136
000140 de 5c 2c bc 4b f3 7b bd 7e 04 eb 3d 8d d5 b8 bd
       -0.010520188 -0.06151132 0.11475466 -0.090251066
000150 2f f1 b4 3b a0 76 16 bb 11 74 36 3d af 96 76 bd
       0.0055219154 -0.002295889 0.044544283 -0.060202297
000160 8f 89 25 ba 12 d4 01 3d d3 c1 f4 3c 3e ad 32 bd
       -0.00063147483 0.031696387 0.029877579 -0.043622248
000170 83 9f f7 ba 82 33 6e bd d8 dd 8f 3d f7 8e 2f bd
       -0.0018892143 -0.05815459 0.07024735 -0.04286095
000180 0a 22 86 3d 7f 93 a6 3d 22 29 7c 3d c1 5b 93 3d
       0.06549461 0.081336014 0.061562665 0.07195235
000190 00 ae cc bc 4a ae 72 3d 02 cb a7 bd 58 95 c5 bc
       -0.024985313 0.059248246 -0.081930175 -0.024119064
0001a0 80 66 85 ba c4 c4 f6 3c 35 01 79 bd 1e 7b 64 3d
       -0.0010177642 0.030123122 -0.060792167 0.055781476
0001b0 06 9c 17 bd 2f 2b b5 bc 5b 52 a5 bb d5 db c5 bd
       -0.03701403 -0.022115318 -0.005045218 -0.0966107
0001c0 46 2e b8 bd dc e2 a1 bd 92 de b9 bd 81 f4 4d 3d
       -0.08993201 -0.07904598 -0.09075655 0.050282005
0001d0 c2 31 ac 3d 11 3a c8 3c 8c ad 9c 3c 0b 80 af 3d
       0.08407928 0.02444175 0.019125722 0.08569344
0001e0 76 10 b3 bd 13 43 48 3d 39 3f a4 3d bc 4b 79 3c
       -0.08743374 0.048892092 0.08019871 0.01521581
0001f0 d0 56 95 bc 24 a0 b2 bd 54 39 a6 bd 80 d3 a9 bd
       -0.018229872 -0.08721951 -0.08116403 -0.082922935
000200 5d 3f 52 3d 7b 8f 62 bc 88 c3 90 bd 9e 85 42 3b
       0.05132996 -0.013828154 -0.070685446 0.0029681693
000210 51 6f 3a 3d da 4d e9 3c 28 61 76 3c cc 4d a3 bc
       0.045516316 0.028479505 0.015037812 -0.019934557
000220 5d b3 d7 bd eb 53 c3 3d 3c 1b fb 3c 90 c5 e6 bc
       -0.10532258 0.095374905 0.030652635 -0.028170377
000230 68 22 07 bd 8b ad cf bd e1 78 88 3d a0 99 25 bd
       -0.032991797 -0.101405226 0.06663681 -0.04042971
000240 cd 87 a3 3d 8c b1 12 3c 4a 27 86 3c 81 30 3c 3d
       0.07984886 0.008953463 0.016376156 0.045944694
000250 17 63 13 bd 37 d5 d8 3d 94 2e e6 bc 16 30 c9 3d
       -0.03598317 0.105875425 -0.028098382 0.09823625
000260 74 28 20 bd f6 c3 9b bd 6e ca ce 3d 59 ab 89 bd
       -0.03910108 -0.07605736 0.10097204 -0.06722135
000270 18 ae b7 3b 9a c0 93 3d 66 47 55 bc 0c ba b4 3d
       0.0056054704 0.0721447 -0.013017511 0.08824548
000280 51 dd 64 bd 2d c7 6e 3c be 89 34 3d 0c 1a 8e bc
       -0.055875126 0.014573854 0.044076674 -0.017346404
000290 44 80 c0 3d a2 d2 1e 3b 5d 72 c8 3c f6 89 c2 3d
       0.09399465 0.0024234434 0.024468595 0.0949897
0002a0 80 19 8e bd d7 60 b9 bc 74 fb 59 3b 71 07 85 bc
       -0.069384575 -0.022629185 0.003326145 -0.0162389
0002b0 71 a9 3d bd 13 61 e5 3c c4 19 e9 bd c5 4b 1b bd
       -0.04630417 0.02800039 -0.113818675 -0.037914056
0002c0 4c 11 81 3d 23 c5 66 ba 55 d7 9d 3d 79 5a d2 bb
       0.06302127 -0.00088031794 0.07707087 -0.0064194766
0002d0 c3 5f 96 bc c0 1e 60 3d 51 ec 17 3d 06 f7 9f bd
       -0.01835621 0.054716825 0.037090603 -0.07810788
0002e0 27 63 c4 bd e2 be c1 3c 11 a1 10 bd b2 1d 0b bd
       -0.09589224 0.02365059 -0.035309855 -0.033963867
0002f0 f4 88 8e 3c b3 85 aa 3d ff 32 be 3d b1 7d 96 3d
       0.017399289 0.08326282 0.092870705 0.073481925
000300 9e 0f d7 bd 1b d2 a2 3d 34 7e e9 3c e2 cf cc bd
       -0.105010256 0.07950231 0.028502561 -0.10000588
000310 44 21 eb bc c3 1b ca 3d 6f a5 8a bd 03 fe ea 3c
       -0.028702386 0.098685764 -0.06769835 0.028685575
000320 fa 2c 79 3c 6b 9c be 3d 6f 72 90 3d 97 37 19 3d
       0.015208477 0.09307178 0.070530765 0.03740653
000330 a5 06 b2 bd 19 03 79 3c ed 44 ce 3d fe 13 83 3d
       -0.086926736 0.015198492 0.1007174 0.064002976
000340 d7 9f 41 3d 18 5d 50 bb c7 aa 40 bd b9 7b 9b 3c
       0.047271576 -0.003179377 -0.047037866 0.018979894
000350 83 00 82 3c d6 99 06 3d 01 1d ae bc eb 37 be 3d
       0.015869385 0.032861553 -0.021254065 0.09288009
000360 8f 02 33 3d 1d b4 c1 3d d1 07 f5 3c dd e5 46 bd
       0.043703612 0.09458182 0.029910954 -0.04855906
000370 63 08 a9 3d fe 9d 81 bc de 0d df 3c c6 5c b8 bd
       0.08253553 -0.015822407 0.027228292 -0.0900207
000380 70 36 79 bd 41 78 ad bd d0 3c 9b bd fe 18 05 bd
       -0.06084293 -0.08470202 -0.075799584 -0.032494538
000390 a2 c4 b9 bd 78 ab 0a 3c 1f fb b9 bd 1a a1 6c 3d
       -0.09070708 0.008463733 -0.09081101 0.057770826
0003a0 74 0b d6 3c 08 06 91 3c ea 88 83 bd bf ef 17 bd
       0.026128508 0.017703071 -0.06422599 -0.037093874
0003b0 86 45 5e 3d 2d 3f 8e bd 4c 0b 1a 3c 35 ba 56 3d
       0.05426552 -0.069456436 0.009402107 0.052423675
0003c0 92 27 23 bb dd b5 b4 bc 26 cf c7 bc 68 8c c6 bd
       -0.0024895412 -0.022059375 -0.024390768 -0.09694749
0003d0 cf e4 7e bd 88 7c 68 3a d4 f7 65 3d 29 f7 e1 bc
       -0.062229928 0.0008868654 0.05614455 -0.027583675
0003e0 ef 50 c8 bd ec 02 92 3c e0 e1 cb bc 77 b9 60 3d
       -0.09781062 0.017823659 -0.024887979 0.054864373
0003f0 82 b6 40 bc 7c fa e5 3c b3 f7 69 3c a3 6d 6a bd
       -0.011762263 0.028073542 0.0142802475 -0.057233464

conv_block_2.2.bias f4 [10]
000000 8d c6 b5 3d 63 7b 95 bb 41 a9 6a bd e0 a9 b8 bd
       0.08875761 -0.004561828 -0.05729032 -0.09016776
000010 1c 84 6b 3d c1 5b a8 3d d4 6a cd bd 50 bf 00 bd
       0.057499036 0.08220626 -0.100301415 -0.03143245
000020 af 7b c0 bd 29 59 bc bd
       -0.09398591 -0.091966935

linear_layer.1.weight f4 [2, 1690]
000000 b0 27 fe bb e3 e1 86 3c c9 29 2c bc 17 1f d1 3c
       -0.007756196 0.016465133 -0.010508009 0.02552752
000010 d2 ae 3d 3c d3 37 1e 3c 63 12 95 3c 57 7e ba 3c
       0.011577325 0.009656864 0.018197244 0.022765322
000020 ea 52 71 3c 86 78 2f 3c d6 88 d2 3c ef 6b 03 bc
       0.014729241 0.010709887 0.025700014 -0.008021339
000030 93 21 a9 3c 87 97 91 bc 8f e7 a2 3a 91 66 45 bc
       0.020645892 -0.01777245 0.0012428629 -0.0120483795
000040 60 14 a4 3c e8 e2 fb 3b b1 ef 0c bc 54 94 e2 3b
       0.020029247 0.0076869614 -0.008602069 0.0069146547
000050 60 fb 19 3c f8 bd cb 3c 97 63 a8 3c ff fc 47 bb
       0.009398311 0.024870858 0.0205553 -0.0030515788
000060 4c 19 70 bc ff 27 90 3c 64 dd 5b bc 1c 7e 93 3c
       -0.014654469 0.017597197 -0.013419483 0.01800447
000070 c0 d1 cb 3b 70 73 83 3c 1c ed eb 3b c7 d7 91 39
       0.0062200725 0.016046256 0.0071998965 0.00027817322
000080 54 d8 99 ba 5e 25 ec 3c 8a 4d a8 3c ba 30 93 bc
       -0.0011737444 0.028826412 0.020544786 -0.01796757
000090 95 87 02 3b 8c f9 99 3c e5 84 6a bc 3e a1 99 3b
       0.001991724 0.018795751 -0.014313911 0.004688411
0000a0 52 c8 11 3c 1c 8d 4e bc 74 d5 60 3c 08 86 4d 3c
       0.008897858 -0.012606885 0.013722766 0.012544163
0000b0 2d d1 06 bb 34 d2 d9 3b d0 31 0e 3c 33 8a 37 bb
       -0.0020571456 0.0066473726 0.008678868 -0.0028005957
0000c0 06 f7 0e 3c a0 67 99 3c 71 ad 74 bc 87 27 3f bc
       0.008725887 0.01872617 -0.01493393 -0.011667139
0000d0 85 a1 c1 bc 7a fc c1 bb b1 7f 54 bc 88 8f f7 3c
       -0.023636589 -0.00591999 -0.012969897 0.030219808
0000e0 95 a0 0b 3c 12 ad 26 bc 34 28 ef 3a 68 37 87 bb
       0.008522172 -0.010173099 0.0018246234 -0.004126478
0000f0 23 5a 39 bb 65 d7 a1 3b 64 09 42 3c 71 3c 01 bc
       -0.0028282485 0.004939007 0.011843059 -0.0078879455
000100 e2 5e a3 bc c6 0d bb 3b 49 cf 39 3b f1 59 35 bc
       -0.019942705 0.005708429 0.0028352311 -0.011068807
000110 45 3f c6 b9 c4 c4 38 3c c6 03 b8 3c bc 57 b1 3c
       -0.00037812642 0.011277381 0.022462737 0.02164828
000120 6c d6 2f 3c 06 48 a4 bb 30 9c 53 3b f3 ff 76 bc
       0.0107322745 -0.0050134687 0.003228914 -0.0150756715
000130 78 57 4f 3b ee 0b ce 3c 26 de d2 bc 1d 52 99 bc
       0.0031637829 0.025152173 -0.025740694 -0.018715912
000140 38 a1 c0 3c 0b 88 04 3b 37 c2 a9 bc 23 36 06 3c
       0.023514375 0.002022269 -0.020722492 0.008191618
000150 70 02 c7 3a 1f a7 b9 3c 74 a5 64 bc d6 2e c0 39
       0.0015183222 0.022662697 -0.013955463 0.0003665599
000160 a3 a6 48 bc 60 73 ec 3c 22 bd 4e 3c e6 4b 59 3c
       -0.012246761 0.028863609 0.012618335 0.0132627245
000170 a2 45 b8 3b 20 0d 75 3c 7e 11 e1 3a 62 d3 70 bc
       0.0056235353 0.0149567425 0.0017171351 -0.014698835
000180 90 d0 56 bc 44 80 64 3c 5a d3 71 bc bc 61 df 3b
       -0.013111249 0.0139465965 -0.014759863 0.006817071
000190 c3 06 8b 3c 39 07 9d 3c 5d 9c 88 ba e1 a5 31 bc
       0.016970998 0.019168483 -0.0010422576 -0.010842771
0001a0 be 87 64 bc 93 cf 72 3c dc 57 65 bb 5f cc 69 bc
       -0.013948379 0.014819997 -0.0034994995 -0.014269917
0001b0 6f 83 44 bc 1c fb 3a 3b 8f 8d 56 bb e9 64 bb 3b
       -0.011994227 0.002853102 -0.0032738184 0.0057188165
0001c0 3c c5 a2 3b 9e cb 1b 3c 33 31 c8 bb ed 3e 94 3c
       0.00496736 0.009508995 -0.0061093806 0.018096412
0001d0 82 d4 34 bc 69 1d af bc 10 30 9a bc 3b c7 a4 3c
       -0.011036994 -0.021376329 -0.018821746 0.020114532
0001e0 0f 86 9a bc 8c f7 b3 bc 70 1c cd bb 7e 22 8c bc
       -0.018862752 -0.021968625 -0.0062594935 -0.01710629
0001f0 f8 d5 a3 3c e7 7a 42 3c bf a7 7b 3c cb 23 b0 bc
       0.01999949 0.0118701225 0.015359818 -0.021501442
000200 ad 5e 51 bb b9 05 b1 bc 1a 5b b4 bb c0 42 8a bc
       -0.00319473 -0.021609174 -0.005504024 -0.016877532
000210 35 8b 2a bc de 8f df bc 02 fe d3 bc 48 11 2c bc
       -0.010409166 -0.02729028 -0.025877956 -0.010502167
000220 96 b1 49 b9 57 c3 58 3c 8e 82 86 3c cc a1 9d bc
       -0.0001923501 0.013230166 0.016419675 -0.01924219
000230 0f 59 7e bb d4 a1 96 bc bb d8 70 bc 90 73 02 bd
       -0.0038810407 -0.018387713 -0.01470011 -0.03184849
000240 7b 40 89 3c 55 a4 24 bc d8 31 d2 39 00 bf da bb
       0.01675438 -0.010048945 0.00040091458 -0.006675601
000250 cb fc 1a bc 80 df 1d bc 75 31 10 bc 94 ac 38 bc
       -0.009459685 -0.009635806 -0.008800854 -0.011271615
000260 70 93 0d 3c 2c 87 2f 3c 81 f2 b0 bc aa 4c 4e bb
       0.008641109 0.01071338 -0.02160001 -0.00314788
000270 2a c9 ea bc 2d 11 4e bc 44 79 7b 39 5a 83 33 bb
       -0.028660376 -0.012577337 0.000239824 -0.0027391524
000280 b9 25 90 3c 1c a9 17 3c 63 8f 9a bc c4 fc 07 3b
       0.017596113 0.009256627 -0.0188672 0.0020750025
000290 df ce 4e 3b 34 69 9f 3c 82 c8 b2 3a 9d a4 17 3c
       0.003155641 0.019459344 0.0013640078 0.009255555
0002a0 0c 80 10 bc 69 9e 1b bb 29 9d b0 bb b5 56 03 bc
       -0.008819591 -0.0023745543 -0.0053898287 -0.008016278
0002b0 70 95 13 3a fe ba 8b bc f7 4d f1 bb 29 2e 84 3c
       0.0005629873 -0.017056938 -0.0073640305 0.016135292
0002c0 07 28 96 3a f0 39 29 bc f2 e2 04 bc 7e 8d a2 3c
       0.0011456021 -0.010328755 -0.008110749 0.01984286
0002d0 94 8b 7d 3c 8f 7b b9 bb a0 c9 16 3c 7e 8a ce 3c
       0.015475173 -0.0056604813 0.009203345 0.025212523
0002e0 99 31 4e bc 36 9f f2 bb a5 dc 97 bc 47 5a 1c bc
       -0.012585067 -0.0074042333 -0.018537829 -0.009543008
0002f0 c9 a2 a4 bc 2d cc 8c bc 7f 70 fd 3b fb ec 96 bc
       -0.020097153 -0.017187202 0.007734358 -0.018423548
000300 39 1c 04 3b 8a e1 2b bc 45 99 96 bc 2b 09 24 3c
       0.0020158424 -0.010490784 -0.018383631 0.010011951
000310 6e 85 d3 ba d6 91 7a 3b 61 1c 05 bd 4e 8c 7e bc
       -0.0016137788 0.0038233898 -0.032497767 -0.015536381
000320 f2 92 0c ba 7c e8 a9 bc 26 74 a6 bc 01 e0 e8 3a
       -0.0005362473 -0.02074074 -0.020319056 0.0017766954
000330 a0 37 18 3c 2a bf 83 ba 6c 08 f5 3b f4 98 12 3c
       0.009290606 -0.0010051478 0.0074778106 0.0089476
000340 5a b6 d5 3c f4 4a d1 3c d6 34 d0 bc f9 79 bd bc
       0.026087929 0.025548436 -0.02541582 -0.02312945
000350 dc 70 dd bb c0 58 bd bc 1d cf 78 3a a9 94 cc bc
       -0.0067578387 -0.023113608 0.00094913115 -0.02497323
000360 97 0d 5c bc 88 31 53 3b ce 67 c1 bb 6b 1c a1 bc
       -0.013430974 0.0032225568 -0.005902267 -0.019666871
000370 3a be 8d bc 2c 83 1c bc 26 a3 5b bc 9c a4 b5 bb
       -0.017302621 -0.009552758 -0.013405597 -0.0055433046
000380 7e 7e 47 3c 53 51 70 bc fb 82 ba bc ab 56 b3 3c
       0.012176154 -0.014667827 -0.022767534 0.021891912
000390 0b a2 79 bb c3 05 04 bc 4c 85 d3 bc 90 d6 47 3c
       -0.003809097 -0.008058014 -0.025820397 0.012197152
0003a0 0c 14 e7 bb 6a 89 93 bc 63 eb 6a 3c 02 49 6c bc
       -0.0070519503 -0.01800986 0.014338347 -0.014421703
0003b0 f5 15 9e bc f5 0a 65 3b 3b 9a ea bc 7f c8 be 3c
       -0.01929758 0.0034949158 -0.028637996 0.023288963
0003c0 46 1d ca bc eb d1 f4 bc b9 96 78 3c 58 a2 65 b9
       -0.024672162 -0.029885253 0.015172654 -0.0002189962
0003d0 93 a1 e5 bc d8 8b 29 3c 0e 7d 6d 3b ec b1 9d 3c
       -0.028031146 0.010348283 0.0036237868 0.019249879
0003e0 c5 90 f3 ba 3e f7 07 bc 29 9b a4 bc 1e 3f fc bb
       -0.0018582573 -0.008298693 -0.020093517 -0.007697954
0003f0 27 b4 16 3c e2 69 dd bc d6 f1 c7 3b e2 f5 d3 bc
       0.009198225 -0.027028028 0.006101827 -0.025874082

linear_layer.1.bias f4 [2]
000000 5c 3b 84 bc 1a 92 88 3b
       -0.016141586 0.0041678073
