models/TinyVGG_data_manual_10_epochs.pth (torch, 29391 bytes, 10 tensors)

conv_block_1.0.weight f4 [10, 3, 3, 3]
000000 22 be 30 3e 57 5a 93 3d 0d c5 03 3e 17 62 85 3d
       0.1726003 0.07194965 0.12868138 0.0651285
000010 ac b7 42 3e 4b a4 0f 3e 47 5c 29 3e 20 cc 98 b6
       0.19015378 0.14027517 0.16539107 -4.5537163e-06
000020 72 3f 0a be 64 82 81 bd 82 12 bc 3d f4 da 23 3e
       -0.13500765 -0.06323698 0.091832176 0.16001493
000030 a1 d0 41 bd 04 d1 3d 3e ec 67 56 3d d4 03 e9 3c
       -0.047318105 0.18536764 0.0523452 0.028444208
000040 79 e2 08 3d d7 97 1e bc ae 38 55 3e cb d7 0d 3d
       0.033419106 -0.009679756 0.20822403 0.034629624
000050 09 4f 12 3e 73 c9 09 be 5b 8d 95 bd b8 bd 3d 3d
       0.14287962 -0.13455753 -0.07302352 0.046323508
000060 1d b4 39 3e 9d b8 f0 3d bf c0 79 3d 1b c7 4a be
       0.18135114 0.11753962 0.060974833 -0.19802515
000070 db 06 85 ba f6 98 01 be 69 7c 2f be 30 8e ba 3c
       -0.0010149138 -0.12656006 -0.17137302 0.022772878
000080 91 dc f7 bd 93 f2 2c 3e 2d 19 db bd ac 14 81 3d
       -0.121026166 0.1688941 -0.10698161 0.06302771
000090 90 31 d7 3d d4 e9 1d be 1c b0 ca 3d 93 67 06 bd
       0.105075 -0.1542123 0.098968714 -0.03281362
0000a0 7b f8 c4 3d 52 77 3f 3e c9 ce b3 bd 13 92 af bd
       0.096177064 0.18697861 -0.087796755 -0.08572783
0000b0 bd 9c 1d 3e e8 6b 5d 3c b4 2f c3 bc 79 ff 15 3e
       0.15391822 0.013514496 -0.023826458 0.14648236
0000c0 a7 da cc bd 3e be 55 bc 18 1e 08 3e 8a 31 8e 3d
       -0.10002642 -0.013045846 0.1329273 0.069430426
0000d0 a9 e6 01 be e1 02 51 3d a8 40 16 be b7 0b d6 bd
       -0.12685646 0.051028136 -0.14673102 -0.10451453
0000e0 6e 6f fd 3d cc 15 52 bd c3 c1 c8 bd d0 7f 5f 3c
       0.12374769 -0.05129032 -0.09802582 0.013641313
0000f0 94 a1 40 3d b0 00 f5 bd 63 e5 04 be eb da 3e be
       0.047029093 -0.11963022 -0.12978129 -0.18638198
000100 6c ad 4b 3d 2f 4f fe bd f0 4a 70 3c e8 4d 30 bd
       0.049725935 -0.12417447 0.014666304 -0.043043047
000110 00 db 00 be b0 89 7b bd 22 7c 17 be 4d a1 d0 bd
       -0.12583542 -0.061410606 -0.14793447 -0.10187016
000120 60 92 c4 bb 28 7a 28 be 04 d6 2c be d5 9d 13 3e
       -0.0059988946 -0.16452849 -0.16878515 0.14415677
000130 b8 59 94 3c 17 4f ae bd 40 ac d1 bb b1 23 12 3e
       0.018109187 -0.08511179 -0.0063987076 0.14271428
000140 65 68 24 be 2c e2 c0 bd 59 be 03 be 62 20 49 ba
       -0.16055448 -0.09418139 -0.1286558 -0.0007672367
000150 4c e8 93 3a 9c 6d 0f be e6 1a 15 3e f2 cf 0e be
       0.001128444 -0.14006656 0.14561042 -0.13946512
000160 04 7f 42 3e 09 84 f7 bd 62 bb 97 bc 08 75 3e 3d
       0.18993765 -0.120857306 -0.018521968 0.04649833
000170 3a 1a 94 bd 8a 2b 3d 3e 3e 6f fb bd 7e 23 b3 3a
       -0.07231565 0.1847364 -0.12277077 0.0013667194
000180 e0 2d 08 be 8c 6b 82 3d ab ea 33 3e dc d6 3e 3e
       -0.1329875 0.06368169 0.17569987 0.1863665
000190 9f a3 08 3d 86 3d aa bd 2a 75 47 3e 54 d9 c6 3c
       0.033359166 -0.08312516 0.19478288 0.024273552
0001a0 ac a7 11 3e 24 ae bb bd d5 e7 a1 bd f7 b1 17 be
       0.14224118 -0.09164074 -0.079055466 -0.14813982
0001b0 8a f8 50 3e 2e f3 6b 3d ba 68 e8 bd 58 12 31 3d
       0.2040731 0.05760496 -0.113481 0.043230385
0001c0 09 7c 69 bd 1f cc 0b 3d db b3 b8 3d 91 3d 90 bd
       -0.057003055 0.034130212 0.0901868 -0.07042993
0001d0 28 a3 6c 3d eb 90 c1 bd da 8a 80 3d ee f2 24 be
       0.057772785 -0.09451469 0.06276484 -0.16108295
0001e0 fd fa 6a 3d c6 f1 5d 3e 89 a0 4e 3e 37 a7 c5 3d
       0.057368267 0.2167426 0.20178427 0.09651034
0001f0 69 ae 2a 3e 67 5f 58 3e ca f8 a6 3d bd 0b b8 3d
       0.16668095 0.21130143 0.081529215 0.08986614
000200 ce d0 4b 3d 15 d0 49 3e 60 71 43 3e 6e 23 87 bd
       0.04975968 0.19708283 0.19086218 -0.065985546
000210 96 b4 96 3c 41 3d 93 bd 70 f8 be 3d a1 61 22 be
       0.018396657 -0.07189418 0.093247294 -0.15857555
000220 2d 28 c3 3d ed ba d8 bc 23 1b c8 3d 5a 7a b2 3d
       0.09529147 -0.02645632 0.09770801 0.08714743
000230 06 76 8e bd 07 a3 02 3e 78 3e de 3d 37 1f 0d be
       -0.06956105 0.12757502 0.10851759 -0.13781439
000240 e0 33 61 3e 3e 78 45 3e 53 9b 15 3e 4a 54 09 3c
       0.21992445 0.1928415 0.14610033 0.0083819125
000250 72 1a c3 3d b8 90 9f bd 21 46 1a bd e0 e3 f0 3d
       0.095265284 -0.07791275 -0.037664536 0.11762214
000260 31 3f e4 3d f7 39 d5 3d 2a 1c 20 be 05 4d 3e 3e
       0.11144865 0.104114465 -0.15635744 0.18584068
000270 fe e8 56 bd 78 47 46 3e b5 35 3d 3e d8 e0 ca 3d
       -0.052468292 0.193632 0.18477519 0.09906167
000280 44 c6 5f 3e 3e 8e 0b 3e d5 95 0c 3e 8f d0 26 bd
       0.21852976 0.1362848 0.13729031 -0.04072624
000290 df 42 4d 3e b7 a9 9b 3d 58 7c 0d 3e 3c 81 c0 bc
       0.2004504 0.0760073 0.13816965 -0.023499124
0002a0 1a 57 29 3e b4 be 48 3e 81 24 01 be aa 90 3a 3e
       0.16537133 0.19603997 -0.12611581 0.18219247
0002b0 fe 0c d2 bd 57 63 e2 bd c6 81 0a be a1 fd a3 3d
       -0.10256384 -0.11054104 -0.13526067 0.0800736
0002c0 20 f0 fe bd 27 42 3e bd 32 47 92 bd 10 10 95 3d
       -0.12448144 -0.046449807 -0.07142486 0.07278454
0002d0 a7 77 28 be 1d 42 82 bd 1e 65 bf 3c fd 82 2f 3d
       -0.16451894 -0.06360266 0.023363646 0.04284953
0002e0 89 cd 7f bd 5b 32 b6 3d e1 cb ce bd 8f f8 0c be
       -0.062451873 0.08896323 -0.100974806 -0.13766693
0002f0 64 f2 c4 bb 73 f3 d7 bd b8 5f f9 3d d3 6c 06 be
       -0.0060103405 -0.10544481 0.1217646 -0.1312745
000300 a2 5b 98 bc 3b 79 a1 3d f5 a4 2e be a9 24 16 3e
       -0.018598381 0.07884451 -0.17055114 0.14662422
000310 a3 4f b8 bd 89 b0 5e bd e7 f5 f3 bd 50 ef 91 bd
       -0.089995645 -0.054367576 -0.119121365 -0.07125723
000320 d2 6c 97 bd 0e de 31 be 67 72 84 3d 60 77 2c bb
       -0.07393803 -0.17369863 0.06467133 -0.002631627
000330 fb 5d 3e 3e 6b 58 02 3e e2 63 29 3e aa 35 62 3d
       0.18590538 0.12729041 0.16542009 0.05522696
000340 03 0a d0 3d b8 ce 38 3e 0e 4d 1f 3e 40 8b 18 be
       0.101581596 0.18047607 0.15556738 -0.1489687
000350 0f 02 39 bd 4f 7a 40 be 56 f9 9a 3b 81 4c 8f bd
       -0.04516798 -0.18796657 0.00472943 -0.06997014
000360 19 74 4d 3e 97 36 82 3d aa 54 11 3d 23 a7 d8 bd
       0.20063819 0.063580684 0.035481133 -0.10578754
000370 df 96 f1 bd 56 36 82 3d d1 28 7f bd 6d 49 62 bd
       -0.117963545 0.0635802 -0.062294785 -0.055245806
000380 6e 54 2c 3e ae a4 88 bd c2 11 57 bd 89 79 39 3e
       0.16829082 -0.06672035 -0.05250717 0.18112768
000390 d9 6f de 3d d0 3f 9c bd 93 87 bb 3d df 7a 05 3e
       0.10861177 -0.07629359 0.09156718 0.13035153
0003a0 a2 1a 0d be 50 d3 8d 3d 74 e0 9e 3d 98 30 d2 3c
       -0.13779691 0.0692507 0.07757655 0.025657937
0003b0 15 1d 5f 3e 5f 11 c0 bd 8b af 0c 3e f7 34 8d bd
       0.21788438 -0.09378313 0.1373884 -0.06894868
0003c0 f0 94 06 be 21 3d 28 3e 12 c2 71 bd 69 7d b3 3b
       -0.13142753 0.16429569 -0.05902297 0.0054775965
0003d0 ad 1d cb 3d 26 57 26 be f2 4a 2c be 46 5c 82 3d
       0.099177696 -0.16244182 -0.16825464 0.06365256
0003e0 57 0f 2a 3e 0a bc c5 bc a0 83 08 3e a3 77 86 3d
       0.16607414 -0.024137516 0.13331461 0.06565788
0003f0 99 48 52 3d 0b 74 ff bd f3 b2 39 3e b8 52 ad 3d
       0.051338766 -0.12473305 0.1813467 0.08463043

conv_block_1.0.bias f4 [10]
000000 01 af 26 3e 35 a9 50 3d 00 07 0c be 48 ab 01 3e
       0.16277696 0.05094262 -0.13674545 0.12662995
000010 57 43 78 3d 53 16 ea bd a9 cf 05 3e 59 d2 f7 bd
       0.060611095 -0.11430039 0.13067497 -0.121006675
000020 33 bf 57 3d 32 4b 57 3e
       0.052672576 0.21024778

conv_block_1.2.weight f4 [10, 10, 3, 3]
000000 a1 00 be 3d 9c 94 97 3d 7d b2 7a b9 0f 07 2f 3d
       0.09277464 0.07401392 -0.0002390835 0.04273134
000010 a2 ae 6f 3d 8d a1 3f 3d 00 21 b0 3a db 22 14 3d
       0.058516152 0.046784926 0.0013437569 0.036166053
000020 27 43 b3 bc 99 ee 97 bd 34 17 e7 bd 5d 65 cf bd
       -0.021882607 -0.07418556 -0.112837225 -0.101267554
000030 3a c5 a5 bd 82 83 ac 3d 14 65 b2 3b a4 72 e0 bd
       -0.080942586 0.084235206 0.0054441784 -0.10959366
000040 b8 b6 90 bd fc a8 08 3c 36 3a 01 bd 18 6d f4 bc
       -0.07066101 0.00834107 -0.031549655 -0.029837176
000050 84 21 22 bd 78 e7 d2 bc a8 a7 46 3c e0 8a cc 3b
       -0.039582744 -0.025745139 0.012124933 0.006242141
000060 a3 b2 8a 3d 59 26 8a 3d 77 aa b1 3d e3 ec 3c bd
       0.067723535 0.067455955 0.08675092 -0.04612435
000070 20 40 c4 bd 75 93 48 bd c2 7f e9 bd 74 be 93 bb
       -0.095825434 -0.04896875 -0.11401321 -0.0045087878
000080 0a 7d 7d bd 46 f7 a0 bd 4f 81 0a be d6 33 50 3b
       -0.061886825 -0.07859664 -0.1352589 0.0031769178
000090 eb d0 ad 3d 94 23 f7 3d 33 70 5f bc 1b 60 6b 3d
       0.084871136 0.12067333 -0.01363759 0.0574647
0000a0 04 a7 e6 3c 35 a3 33 bd ee f7 24 bd 63 25 a0 3d
       0.028155811 -0.04385682 -0.040275507 0.07819631
0000b0 e5 d3 18 bd f2 63 dd 3d fc 0a 89 3d fb 52 86 3d
       -0.037311453 0.10810079 0.06691548 0.06558796
0000c0 df ba cd 3d 55 c9 a6 3d 38 22 99 3d 7f ae ae 3d
       0.100454085 0.0814387 0.0747723 0.08529376
0000d0 78 78 79 bc e3 74 dc bc 95 6e 6a bd 33 89 a0 3c
       -0.015226476 -0.026911205 -0.057234365 0.019596672
0000e0 f4 e8 0a 3d 6b 37 1d 3d 86 7b 93 bd 51 4a 58 bd
       0.033913568 0.03838293 -0.072012946 -0.05280525
0000f0 a5 be ed bd 82 38 c7 3c b0 42 df bd 7e 02 08 bd
       -0.11608628 0.024318937 -0.109013915 -0.0332055
000100 3b de c3 3d 25 9b 0a 3d cb 2b 16 bd a3 4c 78 bd
       0.095638715 0.033839364 -0.036662858 -0.06061996
000110 39 1f 83 bd 82 5f c5 3d 4f f2 b4 bd 51 6d d0 3d
       -0.064024396 0.09637357 -0.08835279 0.101771004
000120 eb 34 d7 3d 1d db e2 3c f8 43 66 3c 6c aa d2 3d
       0.1050814 0.027692372 0.014054291 0.10286412
000130 d6 68 8e 3d 47 c9 fa 3d 6f d4 d7 3d 24 86 3d bd
       0.069535896 0.12245422 0.10538565 -0.046270505
000140 38 93 b2 3d f2 69 c1 3c 71 ec d5 bd 7a e9 ac 3c
       0.08719486 0.023610089 -0.10445488 0.021107424
000150 c2 9a ab bd b8 ac bb bd c8 19 db bc 40 88 2b bd
       -0.08379127 -0.09163803 -0.026745692 -0.041877985
000160 49 82 69 bd 7f ef c7 bd 40 9a 96 3d ae 7f f6 3d
       -0.057009015 -0.09762477 0.073536396 0.12036072
000170 ef 48 24 bc a5 af 60 bd 46 e1 23 3c d2 1a a0 bd
       -0.010027154 -0.054855008 0.01000244 -0.078176156
000180 23 ae 8d bd 0c db 9f bc 19 d9 a2 3d 0d bc 36 bd
       -0.069179796 -0.01951363 0.07951564 -0.044612933
000190 5f 09 2b 3c 0d 37 d3 bc db 2b 6d bd c5 2d 8b 3b
       0.010439246 -0.025783086 -0.057903152 0.0042473995
0001a0 c2 7e c1 3c 26 8b b5 3c ea 32 d8 3d 5e ce 94 3d
       0.023620013 0.022161078 0.10556586 0.07265924
0001b0 95 67 86 3d 42 1d 29 3d f8 31 35 3c f6 56 6a 3d
       0.065627255 0.041287668 0.011059277 0.05721184
0001c0 2a b8 89 bd 8a fe 5b 3d c6 a6 4d 3d 84 3d 37 bd
       -0.0672458 0.053709544 0.050207876 -0.0447364
0001d0 20 17 6d bb 4d 7b 51 bd c2 e0 81 bd 1e 48 03 3d
       -0.0036177114 -0.05114298 -0.06341697 0.0320512
0001e0 0f 61 40 3d b1 58 dd 3b 1b 63 83 3d 72 c8 57 bd
       0.046967562 0.0067549576 0.06415387 -0.052681394
0001f0 23 9d e4 bc 20 7a dd 3d 47 38 b7 bd ab ba f4 3c
       -0.02790696 0.10814309 -0.08946281 0.029874166
000200 7a 95 bc 3d 36 89 bd 3d 31 c3 4b 3d d3 8d ad bd
       0.09208198 0.092546865 0.049746696 -0.084743164
000210 e6 b9 db 3c 51 18 bf bc b3 a5 94 bc 17 d6 af 3d
       0.026822042 -0.023327025 -0.018145418 0.08585756
000220 18 27 06 bd 4a 99 a0 bd 06 87 a2 bd 67 89 90 3d
       -0.032752126 -0.078417376 -0.0793591 0.070574574
000230 c9 dc 8e 3b 51 83 df 3d d5 49 d0 3c 25 45 ca bd
       0.0043598157 0.109137185 0.02542583 -0.098764695
000240 88 d2 4f 3d 0a 21 f5 3d 31 87 b0 3d c6 30 63 3d
       0.050737888 0.11969192 0.08619536 0.055466436
000250 9e cd 69 bd 21 1f 2e bd b2 1b c3 3d f7 14 46 bd
       -0.057080857 -0.042510156 0.09526767 -0.048359837
000260 90 d8 37 3d ec 3f 88 bc 8c 11 08 3d e3 3d 19 3c
       0.044884264 -0.016632043 0.03321986 0.009353134
000270 d8 c9 b1 bd f7 7e 46 bd 09 11 ae 3d a2 59 85 3b
       -0.08681077 -0.048460927 0.08499343 0.004069523
000280 0c 56 47 3d f7 20 84 bd b1 89 c9 3d 53 c1 53 bc
       0.048666045 -0.064516 0.09840716 -0.01292451
000290 22 7a cf bc b8 7a 07 3d 8c 71 de bc 14 ca 00 bd
       -0.025326792 0.033076018 -0.027153753 -0.031442717
0002a0 37 b7 70 bb f9 ab 1d 3b 44 74 50 bd 49 c4 a3 3d
       -0.0036730298 0.0024058803 -0.05089213 0.07996423
0002b0 32 77 76 bd f1 07 da 3d 79 d5 10 3e 2a cf 71 3d
       -0.060172267 0.10646046 0.14143933 0.059035458
0002c0 bb 67 88 3c d7 ed 56 bd ae 5e bb 3d c0 95 02 3e
       0.016651025 -0.052472916 0.09148918 0.12752438
0002d0 33 33 ea 3d 59 46 05 3d 3d a5 6c 3d 2a 37 00 3e
       0.11435547 0.032537792 0.05777477 0.12521043
0002e0 2a 49 1f 3d 8a a9 e6 bc 29 cf 9b bd ed 6b 8d 3d
       0.038888134 -0.028157014 -0.07607872 0.06905351
0002f0 87 3b 82 3d 31 8e a4 3d ae e9 84 bd df 19 09 3d
       0.0635901 0.08034933 -0.06489883 0.03347194
000300 91 f4 47 bd b4 42 1a bd 54 76 4c 3d 9e 14 e3 bd
       -0.04881722 -0.03766127 0.049917534 -0.11087917
000310 33 44 87 3d f6 4e 18 3d f2 4c 80 bd c6 52 5c 3d
       0.06604805 0.037184678 -0.06264676 0.053789876
000320 8c 33 d9 bc 58 6d 1b 3c 60 20 e7 bc 81 5e d3 bd
       -0.026513837 0.009486519 -0.02821368 -0.103207596
000330 50 dd 32 bc 92 a9 52 3d 18 ef 48 bc 86 1e ad bd
       -0.010917023 0.051431246 -0.012264036 -0.084530875
000340 71 26 1f bd 7c d1 f4 bc a4 83 7e bd 1a 95 00 be
       -0.03885502 -0.029885046 -0.06213726 -0.12556878
000350 0e b1 d6 bd 5d 57 52 bd ca e7 03 bc 97 7d 39 3d
       -0.10482989 -0.051352847 -0.008050868 0.045285787
000360 f9 e0 ee 3c ef 5a 82 3d ea be af 3d d2 f7 9a bc
       0.02916001 0.063650005 0.08581336 -0.018916998
000370 0b 25 18 bc 42 79 c2 3d 77 b1 d1 3d 19 dc 4e 3d
       -0.0092861755 0.09495784 0.10238927 0.05050287
000380 3a 92 67 bd f1 ea bc 3d 44 4b 64 bd 3d 34 ac 3d
       -0.056535937 0.09224499 -0.05573584 0.08408401
000390 06 fa 37 3d 9d 1b 86 3d d5 22 92 bd 0e 24 9f bb
       0.044916175 0.065482356 -0.0713555 -0.004856593
0003a0 55 b8 9b 3d c4 f3 e5 3d 38 54 82 bd b2 29 66 3d
       0.07603518 0.11228135 -0.0636372 0.056192107
0003b0 31 fd 8f bd a7 dc c3 bd ae 72 a9 bd 18 3b 1d bd
       -0.07030714 -0.095635705 -0.082738265 -0.038386434
0003c0 1a 27 4d bd 52 b4 5e 3c b6 13 d0 bd 82 24 e7 bc
       -0.05008612 0.013592796 -0.101600096 -0.02821565
0003d0 d9 70 c4 bd c0 15 ba 3d b4 ac 58 bc 0b 88 a2 bd
       -0.095918365 0.0908618 -0.013224769 -0.079361044
0003e0 7e f5 8e ba 1a 67 a3 3b 4e 90 23 3d 0d c5 26 bc
       -0.0010906903 0.004986656 0.03993254 -0.0101788165
0003f0 74 af b7 3d d6 77 5c bc b6 0a 16 bc e7 ca 94 ba
       0.08969012 -0.0134563055 -0.009157827 -0.0011351974

conv_block_1.2.bias f4 [10]
000000 c2 6b 2f bd cc 3a d2 3d 1b 3a c2 bd 0c c8 ed 3d
       -0.042827375 0.10265121 -0.09483739 0.116104215
000010 39 51 b3 3d 4d 78 7e 3d 17 e8 a6 3d 0d 2a 9a bd
       0.08755726 0.062126447 0.081497364 -0.07527552
000020 92 49 29 bd e5 94 e7 3b
       -0.041329928 0.00706731

conv_block_2.0.weight f4 [10, 10, 3, 3]
000000 8a 09 68 3d 8b d7 72 bd 8a bd 6c 3d 5f 65 1a bd
       0.056649722 -0.05928759 0.057797946 -0.03769433
000010 ce 3b 7a bd cb 94 3b 3c f3 51 b2 bd 47 1a d0 bd
       -0.06109219 0.011449049 -0.08707037 -0.10161262
000020 d0 1d d6 3c 67 01 d9 3c d2 e8 fe 3c 67 88 b8 bc
       0.026137263 0.026489927 0.031116877 -0.02252598
000030 cc 21 b1 bd 3f b0 c1 bd 0f dc be 3d 2b 4c cf bd
       -0.08649024 -0.094574444 0.093193166 -0.1012195
000040 40 e7 b0 3c c9 9a 9f 3d 2c 15 9f 3d 0e 58 97 bd
       0.021594644 0.07793195 0.0776771 -0.07389842
000050 52 92 31 bd b1 1c b3 bd b2 ff 72 3d cd aa dd bd
       -0.043352433 -0.08745707 0.05932588 -0.10823593
000060 16 c8 cc bd d2 c7 9c bd ca f9 9c 3d b8 d6 6f 3d
       -0.09999101 -0.076553 0.07664831 0.05855438
000070 55 d8 78 3d 84 27 91 3d 9f ba 71 bd 74 90 8c bd
       0.060753185 0.07087615 -0.059015866 -0.0686349
000080 e7 4e 99 bd 5b 5a cc 3c 50 1f ff 3c 7c 7c 3e 3c
       -0.074857526 0.024945429 0.03114286 0.011626359
000090 48 14 a6 bd 88 6a 19 3c 87 1b 65 bd a4 ce a9 bc
       -0.08109337 0.009363778 -0.055934455 -0.020728417
0000a0 fc ad 85 bc 50 b1 ab 3b 3e 49 bd bd f9 45 b8 3d
       -0.016318314 0.005239643 -0.092424855 0.08997721
0000b0 ba b8 37 bd 97 03 c1 3c b8 b0 80 3d 3a 85 04 3d
       -0.044853903 0.023561282 0.062837064 0.032353617
0000c0 9e 9c 83 3d 47 ff 4b 3d c7 06 89 3d f0 12 51 3c
       0.06426357 0.049804 0.06690746 0.012760863
0000d0 df 6b 6b 3d 2a 2f 67 bd 49 a6 68 bd 7a 2a 4e 3d
       0.05747592 -0.056441464 -0.056799207 0.050333478
0000e0 9c 92 e2 3c b0 86 81 bb 5b 18 b6 bd 16 15 0d 3d
       0.0276578 -0.0039528236 -0.08891364 0.034443937
0000f0 f5 d5 8b 3d 98 64 47 bc 4c 62 c6 3c a2 35 40 3d
       0.068279184 -0.0121699795 0.024216793 0.04692615
000100 5d 32 d5 bd 8c 12 8e bc 9e 2a 20 bd b9 ad 5c bd
       -0.10409997 -0.017342828 -0.039103143 -0.053876612
000110 4f f2 83 3d 5d 0a d6 3d 34 c8 89 3c ed 5b 86 3d
       0.06442701 0.104511954 0.016819097 0.06560502
000120 ac 82 a6 bd 73 71 1b 3c 01 d6 bc bc ea b2 8b bd
       -0.081303924 0.009487498 -0.023051264 -0.068212345
000130 82 be 74 3c c4 2a c6 3c 70 98 e9 ba 0b 1d 1c 3d
       0.014937999 0.024190314 -0.0017821919 0.038113635
000140 a0 5a 28 3d eb 27 be 3d a6 92 14 3b 0f cd b6 bb
       0.04110205 0.092849575 0.0022670417 -0.005578644
000150 dd 6f 8d bb a3 2d fc 3b 78 35 9f bd 58 66 7f bc
       -0.0043163137 0.00769587 -0.0777387 -0.0155883655
000160 53 3a c8 bd 99 ab aa bd b7 8d b8 bd 65 32 9e 3d
       -0.097767495 -0.08333511 -0.09011405 0.07724456
000170 c3 bb 84 bd e1 97 12 bc 37 26 2d 3c cc ce b3 3d
       -0.06481125 -0.008947344 0.010568193 0.08779678
000180 27 19 3b 3d f5 bf 9b bd f3 3d c2 3d aa 4d de bd
       0.045678284 -0.07604972 0.09484472 -0.10854657
000190 c6 24 a9 3b 5f c0 b7 3d c7 87 a9 3d f1 c9 03 bd
       0.0051618544 0.08972239 0.082778506 -0.03217501
0001a0 4c bd 99 bd 75 a0 1a 3d e7 f3 97 3d fb c2 82 bd
       -0.07506809 0.03775068 0.074195676 -0.06384846
0001b0 89 5f 7f bc 5f 83 8a bd 11 d5 04 3d b1 8e bc 3c
       -0.015586742 -0.06763338 0.03242976 0.02301726
0001c0 34 ef 48 3d 64 43 36 bd 42 21 d2 bd fa ee 43 bd
       0.049056247 -0.044497862 -0.1026025 -0.047835328
0001d0 33 81 ba bd be 17 07 bd 8d f2 02 3d dd 7f a2 bd
       -0.09106674 -0.032981627 0.031969596 -0.07934544
0001e0 5e 6f 5e bc e8 b1 e4 bd 81 a9 83 bd 63 da a8 bd
       -0.013576357 -0.111667454 -0.06428815 -0.08244779
0001f0 aa de 34 bd d7 ea 45 bd 3d b8 05 3c 33 12 66 3d
       -0.04415766 -0.048319664 0.008161602 0.0561697
000200 09 37 92 3d 0e 74 cc 3c fe 24 11 bc da 0b db bc
       0.071394034 0.024957683 -0.008858917 -0.02673905
000210 c9 b5 80 3d 40 dd 8d bd 1d 6e 8a 3d f9 b2 d7 bd
       0.06284673 -0.06926966 0.06759284 -0.10532183
000220 bc cd b3 bd 10 fd 14 3d d5 1b 48 bd 7c d8 2e 3c
       -0.08779475 0.03637415 -0.048854668 0.010671731
000230 fc 3e d2 3d d2 8a 28 3d 3c 24 c3 3d 97 e4 0b bd
       0.102659196 0.041148014 0.095283955 -0.034153547
000240 3c 2d 4e bd 70 48 5b bc 48 e9 ad bc a3 ea 3d bd
       -0.050336108 -0.01338397 -0.021229401 -0.046366345
000250 f0 72 d6 bb 55 07 c3 3d a9 ab 6c bd 8a 77 72 3d
       -0.0065444633 0.09522883 -0.057780895 0.059196033
000260 0e 92 48 3d ae 09 7a 3d a4 f5 e8 3c 4e 7f 1f bd
       0.048967414 0.061044388 0.028437443 -0.038939767
000270 12 31 32 3d f8 5a 4b bd 7e 82 84 bd 45 cd c9 3d
       0.04350383 -0.0496473 -0.06470202 0.09853605
000280 51 f0 b2 3d 10 04 9c bd 56 99 b4 3d 12 33 a0 3c
       0.08737243 -0.07617962 0.08818309 0.019555602
000290 71 7a 9a 3c 58 3d d6 3d 9c 49 3b bc 29 fd 2a bd
       0.018857213 0.10460919 -0.011431124 -0.04174534
0002a0 87 29 88 3d 1b a5 ea bc 38 d6 0a bd 7d a3 4e bd
       0.06648546 -0.028643182 -0.0338957 -0.050448883
0002b0 aa 08 c4 3d 6b c3 2b 3d 3e 3f cd bc 3c 14 26 bc
       0.09571965 0.041934412 -0.02505457 -0.01013666
0002c0 86 74 98 ba 74 49 90 bd 97 6d b2 3c e1 ff b8 bd
       -0.0011631406 -0.0704526 0.021780772 -0.0903318
0002d0 19 0e 7d 3c 5d aa 5d 3a 7f 49 ca bc 66 e4 ec 3d
       0.015445256 0.0008455867 -0.024693249 0.11567001
0002e0 f2 8b 4a 3d a8 ff 8a 3d ab 46 53 bd a7 07 13 3d
       0.04944987 0.06787044 -0.051581066 0.03589597
0002f0 99 17 32 3d 15 82 33 3c eb c3 75 bd c1 a9 0a bd
       0.043479536 0.010956307 -0.060001295 -0.033853296
000300 5d 63 fd bd 4f 8f 36 3d ee 41 73 3d 4e 2a 6c 3c
       -0.12372468 0.044570263 0.059389047 0.014414383
000310 8b 0d 1d 3d e6 71 62 3d ec d5 f6 3d b0 a5 5d 3d
       0.038342994 0.055284403 0.12052521 0.05411309
000320 04 22 51 3d b9 b9 53 3d c5 3c 27 bd db 19 1d 3d
       0.05105783 0.05169079 -0.04082944 0.038354736
000330 75 00 4c 3d 6f 5f 8c bd 76 13 b0 bc de ee b0 bd
       0.049805123 -0.0685414 -0.021493655 -0.0863931
000340 0c e6 cf bd e4 b4 f8 3c 93 fe 63 3d a0 0e 56 bd
       -0.101513 0.030359693 0.055662703 -0.05226004
000350 3f 08 2b bc c6 f9 60 bd 6e 9a 99 bc 0e 66 78 bd
       -0.010438978 -0.054925703 -0.018750396 -0.060644202
000360 a3 42 43 bd 5c fd 5f bd bc 01 b3 3d a6 b1 97 3c
       -0.04767097 -0.05468498 0.08740565 0.018517327
000370 05 4f 84 bd fa 4b 9b 39 26 b9 c6 bd 16 44 fb b8
       -0.06460384 0.0002962051 -0.09703283 -0.00011981295
000380 39 c9 a2 3d b4 d1 f7 bb 84 0b ce 3b ac f4 00 be
       0.079485364 -0.0075628404 0.006287994 -0.12593335
000390 b7 f3 32 bd b4 13 1a 3d 21 fd d4 bd 19 4e 97 bd
       -0.043689456 0.037616447 -0.10399843 -0.07387943
0003a0 9b c6 3a 3d 00 57 00 3b fc ca 63 3d cb 30 d0 bd
       0.04559956 0.0019583106 0.055613503 -0.101655565
0003b0 5a 75 81 3d cc 57 bc bc 1c 7b b5 3c 9d 7e ae 3d
       0.06321211 -0.022991084 0.02215343 0.08520243
0003c0 d5 f1 c6 bd b4 0f f7 3c a9 28 c3 bd ab d2 9f 3d
       -0.097140945 0.030158855 -0.0952924 0.078038536
0003d0 f4 8d fd 3c 48 2a 40 3c 70 f7 2c bd 92 c9 22 3d
       0.030951478 0.011728831 -0.042228162 0.039743014
0003e0 e3 1a 60 bd 24 11 a5 3c 79 4a b5 3d e2 09 a2 bd
       -0.05471314 0.020149775 0.08852095 -0.07912041
0003f0 ee 43 2a bc 16 d9 27 3d 16 2a e6 3c d9 83 a5 3c
       -0.010392172 0.040978514 0.02809624 0.020204471

conv_block_2.0.bias f4 [10]
000000 f1 3b 9f bd 0f 5d 3e bc 6d d4 70 bc a2 8c 7d bd
       -0.07775105 -0.011618867 -0.014699084 -0.061901696
000010 ba 01 3f 3d c8 f3 a3 3d 05 44 cd bd 27 84 1c 3d
       0.046632506 0.08005482 -0.10022739 0.038211968
000020 b7 d5 9f bd f0 f3 c5 bc
       -0.07804435 -0.02416417

conv_block_2.2.weight f4 [10, 10, 3, 3]
000000 f4 98 54 3d 13 85 0a bc 46 6a d7 3c 33 bb 04 bd
       0.05190368 -0.008454579 0.026295792 -0.03240509
000010 c5 e4 cc 3d 64 90 33 bd 55 7b 8a 3c 89 e2 55 3c
       0.10004572 -0.043838874 0.016904512 0.0130544985
000020 ba 67 90 3d 8d e6 a7 3c a5 53 6f 3d 13 4b ef 3c
       0.07051034 0.020495677 0.05842938 0.029210603
000030 9d 24 9c 3d c9 eb f6 bb 2f 8e 17 3d f1 65 e7 3d
       0.07624171 -0.007535432 0.03700083 0.11298741
000040 30 8b 31 bd 13 f9 48 bd e7 ef b1 3d 02 98 34 3d
       -0.04334563 -0.04906566 0.08688336 0.04409028
000050 2e c3 d4 bd 83 18 43 3d a8 e8 cc bd eb 3b 7f bd
       -0.1038879 0.047630798 -0.10005313 -0.062313
000060 5f 7d 51 3d e4 b3 6f 3d dd 62 f1 bc 26 35 b7 3d
       0.051144954 0.058521166 -0.029466087 0.08945684
000070 e0 9f d8 3d ec 92 ab 3d 72 95 bc bd 37 a1 18 bd
       0.10577369 0.083776325 -0.09208192 -0.03726312
000080 0b d6 10 3c 1a b2 b9 3d 6c a6 87 bc b2 6c c8 3c
       0.008840094 0.09067173 -0.016558848 0.024465892
000090 ef ee 6d 3d a2 a5 7b bd 86 2e 9f bd 0e 3b da 3d
       0.058089193 -0.061437257 -0.077725455 0.10655795
0000a0 11 c0 17 bc 21 89 76 3d 08 61 cf bd 88 04 4a bd
       -0.009262101 0.06018937 -0.10125929 -0.049320728
0000b0 0b ae 74 3d 17 be 8e 3a 47 4f 29 3d 2b ef b7 bd
       0.059736293 0.0010890391 0.04133537 -0.089811645
0000c0 88 60 e9 3d 42 4f 40 bd 6e 2a e6 bb a5 83 6d bd
       0.11395365 -0.046950586 -0.007024101 -0.057986874
0000d0 51 b8 28 bd 8a af bc bd 51 e5 9e bd d3 ad ab bc
       -0.041191403 -0.09213169 -0.077585824 -0.02095691
0000e0 a2 25 72 bd 97 52 ba 3d 4c c4 09 bb 2a 09 8a 3d
       -0.05911792 0.09097784 -0.0021021543 0.06740029
0000f0 aa 2b 0e bc 6d e5 97 3c ea 47 af 3d 34 11 95 bd
       -0.0086774025 0.018542016 0.085586384 -0.07278672
000100 bf 3d 2d bd a2 1f b7 3d 00 d0 77 bc 73 2b 10 bd
       -0.042295214 0.0894158 -0.015125275 -0.035197686
000110 d8 7e 55 3b 35 c8 1f bd 9a 8e 14 3c aa 0c 20 bd
       0.0032576825 -0.03900929 0.009067202 -0.039074577
000120 72 66 da 3c 79 89 e2 bc c0 e1 10 bd 5c af 1d bd
       0.026660178 -0.027653443 -0.035371542 -0.038497314
000130 0c 59 e0 3c 2a ac 58 3d 4c 5d c5 bd 52 8f 96 bd
       0.02738621 0.052898563 -0.096369356 -0.07351555
000140 9c 2e cf bd 88 b3 66 3d 42 a8 a6 3d 60 28 d9 bd
       -0.10116312 0.056323558 0.081375614 -0.10603404
000150 d6 fd f6 3c 2d 16 c1 3c aa f5 50 bd c5 fe ed 3c
       0.030150335 0.023570145 -0.051015534 0.029052148
000160 dd 43 a6 3d fa 99 cf 3d b5 53 42 3d 80 cd 8f bc
       0.08118413 0.101367906 0.04744311 -0.017554045
000170 4d 6b 82 bd e0 15 1a bd 5a 37 8b 3b 22 26 92 bc
       -0.06368122 -0.037618518 0.004248542 -0.017840449
000180 77 31 a4 3d 2e 0a bc bd 2d ae 8f b9 ea 16 c5 bc
       0.08017247 -0.09181629 -0.00027404857 -0.024058778
000190 56 44 94 3c ad 63 dd 3d 42 d5 55 3c 95 ca 10 bc
       0.018098991 0.10810027 0.013051333 -0.008837362
0001a0 98 35 fb bc 89 fe c2 bd 0e 80 ae bd 4b 77 58 3d
       -0.030665204 -0.09521205 -0.08520518 0.05284814
0001b0 3d dc 84 bd 63 91 6c 3d a5 77 10 bd ab 53 15 3d
       -0.064873196 0.05775584 -0.035270352 0.036456745
0001c0 16 d4 95 3d b8 f2 11 3c 01 c8 05 3d 63 71 a9 3d
       0.07315843 0.008907966 0.03266144 0.0827358
0001d0 a8 47 2b bd 1d 9a 9e 3d f1 c6 b3 bd 1e 00 c2 3d
       -0.041816384 0.077442385 -0.087781794 0.094726786
0001e0 18 61 0c bd 81 f3 a1 bb 60 e4 7e 3d 3d 15 09 3c
       -0.034272283 -0.004942358 0.062229514 0.00836688
0001f0 d4 bf b7 3d 87 5b 2f bd 20 50 6c bd 41 4c bb 3d
       0.08972135 -0.042811897 -0.0576936 0.09145404
000200 2a 2d 92 bd ef e1 8f 3d 58 3c c6 3d 98 14 82 3d
       -0.071375206 0.07025515 0.096794784 0.06351584
000210 97 de 39 bd 98 56 1a bc 14 e0 d6 bd ca a3 6d bd
       -0.045378294 -0.00942006 -0.10491958 -0.05801753
000220 57 20 ca bc 87 96 99 bd 10 19 72 3d 2e c3 4e 3d
       -0.024673624 -0.07499414 0.059105933 0.050479107
000230 01 30 18 bd fa b1 a2 bc 55 fb c1 3d 47 64 82 bc
       -0.037155155 -0.019860256 0.09471766 -0.015916957
000240 e7 55 c5 3d 39 10 cf 3d 31 f4 18 bd e9 91 c5 bd
       0.09635525 0.10110516 -0.037342254 -0.09646971
000250 1b 51 c8 3d 2f 06 79 bd a3 0b d0 3d 5c 06 94 bd
       0.09781095 -0.060796913 0.101584695 -0.072277755
000260 1b 61 06 3c 62 03 69 3c 8c c2 0b bd b2 12 90 3d
       0.008201863 0.014221998 -0.03412108 0.07034816
000270 67 07 e9 bd fb d3 41 bd 3c 7c 04 bd 1d 0d 7b 3d
       -0.11378365 -0.0473213 -0.03234504 0.061291803
000280 0c 15 36 3d 69 83 5e 3d 5b 47 20 3d 9f c3 c3 3d
       0.044453666 0.05432454 0.03913055 0.09558796
000290 0c 0d d7 bc cc 49 05 bd 30 27 6d bc f6 d8 29 3d
       -0.026251338 -0.03254108 -0.014474675 0.041466676
0002a0 c4 39 fd bc 6e 93 1e 3d ac bf ec 3c 74 ce b5 3c
       -0.030911334 0.03871482 0.02889999 0.022193171
0002b0 3c 7e bb 3d b7 74 75 3c 51 6f 76 3d de 68 21 bd
       0.09154937 0.01498144 0.060164753 -0.03940665
0002c0 87 99 ca bd 40 0a 62 3d ad 10 15 3d 85 4e a8 3d
       -0.09892564 0.055185556 0.036392856 0.082181014
0002d0 96 f8 24 3d 20 0f 0a 3b 59 d2 9b bd da ab cc bd
       0.040276133 0.0021066144 -0.0760848 -0.099937156
0002e0 bc 4c ad 3c 41 1d b0 3d f8 41 06 bc b8 da 0c bd
       0.021154754 0.0859933 -0.008194439 -0.034388274
0002f0 ce ff 57 3d 54 08 51 bd de 59 18 3d 4a 2e af bd
       0.05273419 -0.051033333 0.03719508 -0.08553751
000300 dc a4 c3 bd cc e2 7b bd ac d9 93 bc 7a 96 11 3d
       -0.09552929 -0.061495587 -0.01804813 0.035543896
000310 ea 74 5a 3d d6 a3 88 bd 30 d4 f7 bc 7a 27 d5 3c
       0.053334154 -0.06671874 -0.030252546 0.0260198
000320 da 14 02 bd c5 a2 e7 bb 3f ed 73 3d a6 8b 1f bd
       -0.031758167 -0.007068964 0.059552427 -0.03895154
000330 9a 29 3b 3d e2 77 9d 3d 1a 68 d9 3c c4 6f 99 bc
       0.04569397 0.076888815 0.026538897 -0.018730052
000340 a4 b0 88 bd 20 af 8e bd e0 c7 a7 bc 52 ee 06 3d
       -0.066743165 -0.06966996 -0.02048105 0.032942124
000350 9a 22 6c 3d e0 9f a6 bb e5 f6 ad 3d ba 01 2b bd
       0.057650186 -0.0050849766 0.08494357 -0.041749693
000360 45 e5 4a 3c af 05 80 bd 99 a1 a5 3c 8f 75 a6 3d
       0.012383764 -0.06251084 0.020218657 0.08127891
000370 09 19 e8 3c 2c 81 92 ba 72 a9 42 bd 07 e8 c2 bd
       0.02833225 -0.0011177412 -0.047524877 -0.09516912
000380 89 af a4 bd a2 b9 ca bd 8f cb 87 3d fd ea 56 bd
       -0.08041293 -0.09898688 0.066306226 -0.052470196
000390 f4 9e c7 bc 67 2d d3 bd 8b 47 1b bd ea fb a5 3d
       -0.024367787 -0.10311394 -0.037910026 0.081046894
0003a0 2f 37 2f 3c 3f 47 e0 bc 61 ea 3d 3d ca ce 94 3d
       0.010694309 -0.027377723 0.0463661 0.072660044
0003b0 46 9a 96 3d de 5c b1 bd ad 13 8f ba 46 cb c2 bd
       0.07353644 -0.08660291 -0.0010915898 -0.095114276
0003c0 7f 8e a6 bd f7 ea 93 3d 63 ab bd bd 9b bd 53 bd
       -0.08132648 0.0722255 -0.09261205 -0.051694494
0003d0 ba 0e 4f 3d 2f 0b d2 3d 20 b5 d1 bd 4a 4d 8b bd
       0.050551154 0.10256039 -0.10239625 -0.06801851
0003e0 5c 4e 29 bd 53 3b a7 3d 7a 9d 7b 3d 65 95 86 3d
       -0.041334495 0.08165612 0.06142948 0.065714635
0003f0 87 53 8a 3d f8 1a d8 bc c1 2c 9f 3d c0 1e 42 bb
       0.06754213 -0.026380047 0.07772208 -0.002962038

conv_block_2.2.bias f4 [10]
000000 b2 51 67 3d 62 ce 28 3d 38 51 3e bd 7e 89 16 bd
       0.056474395 0.041212447 -0.046464175 -0.036752217
000010 fe 84 8c bd ff 0a ce 3b ac 93 5d 3c 21 bb 39 bd
       -0.06861304 0.006287932 0.013523977 -0.045344476
000020 8c c1 9e 3d f6 c9 1e bd
       0.0775176 -0.038766824

linear_layer.1.weight f4 [2, 1690]
000000 13 0c 93 bc 16 4a 60 3c e8 d8 60 3a dc 1e 0c 3c
       -0.017950093 0.013689538 0.00085772434 0.008552279
000010 56 f3 68 3c 67 99 9a bc 87 51 39 bb 63 f8 b4 3c
       0.014218172 -0.018871976 -0.0028277354 0.022091096
000020 91 ad 8c bc ac ec 8f 3b bf b7 82 3c aa cf 38 bb
       -0.017172607 0.004392227 0.015956758 -0.002819995
000030 e2 a0 72 ba f5 4a ae 3b 3a c8 ea bc 56 96 4f 3c
       -0.0009255541 0.005318994 -0.028659929 0.01267012
000040 b3 a9 84 3c 5e 63 08 3b 4d 65 51 bc 21 d1 1e bc
       0.0161942 0.002081118 -0.0127805 -0.009693415
000050 9c 36 e9 3c 53 1f 26 bc 25 f1 58 3b 95 fc a2 bc
       0.028468423 -0.010139304 0.0033102718 -0.019895831
000060 e2 e8 5f 3c 24 12 d0 3c 7e f8 5c 3b cb a5 2f bc
       0.013666363 0.025399275 0.0033717449 -0.0107206805
000070 98 63 8f bb 6d c5 bb 3c 6d f3 94 3c 6c e7 87 bc
       -0.004375886 0.022921288 0.01818248 -0.016589843
000080 71 b1 bf bc 50 c1 e0 3c ab ec 26 bc d7 f3 f2 39
       -0.02340004 0.027435929 -0.010188262 0.00046339512
000090 ba d2 17 bc 2c 52 48 3c 1f c2 19 3a 90 e0 b5 bc
       -0.00926655 0.012226623 0.0005865413 -0.022201806
0000a0 df ec 15 bc ca 15 ee bc 3a b4 aa bb 25 d8 ac 3c
       -0.009150713 -0.029063124 -0.005209473 0.02109916
0000b0 6b f0 a4 bb a4 c6 7d 3c c1 5b 62 3b dc f4 d1 ba
       -0.005033543 0.015489254 0.0034539553 -0.0016018408
0000c0 ce 32 24 bd b1 17 6d 3b fc ec 9e 3c 22 f9 3b 3d
       -0.040087514 0.0036177451 0.019400112 0.04589189
0000d0 a9 de ac bc 03 72 37 3c 87 52 d0 3b 94 66 a0 3c
       -0.021102266 0.011196616 0.0063574943 0.019580163
0000e0 d8 38 9b 3b 34 9b 20 bd 2b 79 a1 bc dc 98 4e bc
       0.004737001 -0.039210513 -0.019711098 -0.012609687
0000f0 ea b4 bc 39 48 65 16 bd fe 19 af bc 75 ab c6 3c
       0.00035992946 -0.036717683 -0.021374699 0.024251679
000100 27 38 58 3d cd dd ce bc 8c ea e1 3b 4d 72 fc bb
       0.052787926 -0.025252247 0.0068944152 -0.0077040554
000110 a7 8d 21 bc d7 3c a1 bb 1d bf f4 bc 26 49 df 3b
       -0.009860433 -0.0049205828 -0.029876286 0.00681414
000120 0d 39 00 3c 1f bf 83 bc 68 4e 9e b8 8f 3e d0 bc
       0.007826102 -0.016082345 -7.5486314e-05 -0.025420455
000130 fb 2a 2f bc 79 60 28 3d f2 41 c9 bc 1c 21 aa bc
       -0.0106914 0.04110763 -0.024567578 -0.02076774
000140 94 29 a8 bc 0f 5e 31 bc ab dc b8 bc 08 95 a2 3a
       -0.020527638 -0.010825648 -0.02256616 0.0012404034
000150 79 02 0f bb 88 cc ab 3c 31 da 2d 3c 6c e6 c6 bb
       -0.0021821542 0.020971552 0.010611103 -0.006069949
000160 2d 2a 75 bc 35 d5 54 bc 37 e1 1b 3d 1a bf 39 bd
       -0.014963669 -0.012990286 0.03805658 -0.045348264
000170 b6 79 87 bc c5 bb bf 3c e9 3f 38 bc 10 86 95 3c
       -0.016537528 0.023404965 -0.011245706 0.018252403
000180 8f 02 cb 3b f1 66 9c bb e6 34 53 bc d2 d6 aa 3c
       0.0061953734 -0.0047730138 -0.01289103 0.020854387
000190 f2 69 2b bb 53 1c 8f 3c 20 7e ef bc 29 1f 1e 3d
       -0.0026155678 0.01746956 -0.029234946 0.038603935
0001a0 60 be 37 bd 27 8b b2 ba e3 c4 60 bc de ae f6 bc
       -0.04485929 -0.0013621793 -0.013718816 -0.03011268
0001b0 d6 d0 b5 3b 0e b8 77 3c 49 e8 3c 3a 5a 44 83 3b
       0.005548577 0.015119566 0.0007206244 0.004005951
0001c0 df 08 b6 3c a0 d2 eb 3a 88 ec 14 bc 23 5c 43 3b
       0.022221027 0.0017991848 -0.009089597 0.0029809556
0001d0 23 9a 4f 3d 39 86 de ba f6 d4 d6 3c c2 89 e5 3c
       0.050684106 -0.0016977257 0.026224595 0.02801979
0001e0 3f 1c be bc 1b d9 10 3c 05 7d a5 bc d0 96 bf bb
       -0.023206828 0.0088408245 -0.020201216 -0.0058468357
0001f0 5c c2 de 3c 9e fb ae bc 2a 5a 2a 3c 52 b5 fb bb
       0.027192287 -0.021360215 0.010397473 -0.007681527
000200 5b 64 25 bc d7 58 ee 3c 6f de ea bc 22 89 86 3c
       -0.010094727 0.029095097 -0.028670518 0.016422812
000210 57 61 c3 bb 16 13 04 3c d2 db f2 bb 3c 0b 96 3b
       -0.0059625315 0.008061191 -0.0074114585 0.004578976
000220 1b 9e a1 bb 4b 37 93 bb 70 a7 b0 3c 44 01 ca bb
       -0.0049321777 -0.0044926754 0.021564215 -0.0061647017
000230 af 46 0c bb 91 49 4c bc 6e 33 c9 3c cf 1d 8d bb
       -0.0021404435 -0.0124687115 0.024560656 -0.004306532
000240 ad 1e 5a 3c 03 21 2f 3a 4a 53 33 3c 9f 1f aa 3c
       0.013312978 0.00066806393 0.010945151 0.020767031
000250 b0 60 96 3c 59 11 fd 3b 96 2f 54 3c 43 07 1f 3c
       0.018356651 0.0077230153 0.0129507985 0.009706321
000260 74 1e 37 3c c7 20 19 3c 0a 1a 2d bc bc 7c 4c 3c
       0.011176694 0.009346194 -0.01056529 0.012480911
000270 82 f1 58 3b d5 16 df 3c b9 7e d3 3c 05 b5 b2 bc
       0.0033102934 0.027232567 0.025817262 -0.021814832
000280 03 c2 fc 3c f9 47 07 bb ed 78 91 bc 15 43 f8 3c
       0.03085423 -0.0020642264 -0.017757857 0.030305425
000290 52 16 59 bb d8 28 d0 3b c0 ed 04 3d 92 7e 67 3c
       -0.0033124876 0.006352525 0.0324533 0.014129298
0002a0 cc f8 13 3d 34 80 bd bc 78 a3 3b 3c 9a df 70 3c
       0.036125943 -0.023132421 0.011452548 0.014701748
0002b0 9f f5 aa 3c 0d 0b 0b bb 50 e4 25 3c 71 a8 53 3c
       0.020869074 -0.0021216304 0.010125235 0.0129185775
0002c0 16 bc ec 3c 72 69 14 bc cd 9b 80 bc e5 67 89 bc
       0.02889828 -0.009058343 -0.015699292 -0.016773174
0002d0 54 88 dd 3b e0 34 90 bc b2 f7 30 bc 41 46 44 bc
       0.0067606363 -0.017603338 -0.010801243 -0.01197964
0002e0 d9 69 14 3c f3 ed 18 bc 08 4f a1 3c ba 0a a7 bc
       0.009058439 -0.009334075 0.019691005 -0.020390857
0002f0 a1 a4 eb bb fa fe 36 3c 54 d8 a3 bc c4 55 34 3c
       -0.007191256 0.01116919 -0.020000614 0.011006776
000300 db e7 dd ba 84 84 dd bb f1 88 98 3c a3 88 77 bc
       -0.001693006 -0.006760182 0.018619986 -0.01510826
000310 0a e7 d4 3b 4c 3b 10 bb 2b ee a3 3c 53 ca c6 3c
       0.0064972686 -0.0022008 0.020011028 0.024266398
000320 c6 1a ce 3c e3 b0 f1 bb 3c 63 90 bc 57 5e 82 bc
       0.025159251 -0.007375823 -0.017625444 -0.015914125
000330 ea 6b 13 3c f4 f8 97 3c bb 6d ab 3c da af 50 3c
       0.008997897 0.018551327 0.020926347 0.012737239
000340 72 37 7f 3c 94 a2 88 bc 47 f9 36 bc 42 6d 98 39
       0.015577184 -0.016679086 -0.011167831 0.00029073103
000350 f7 ed 9d 3c a7 cd 91 bc 5f 62 d2 3c bd 40 29 3c
       0.01927851 -0.017798258 0.025681673 0.010330376
000360 89 c7 74 3c ea 2f cc 3c 91 70 06 3d 4c 9e 06 3d
       0.014940151 0.024925191 0.032822195 0.032865807
000370 69 d0 4f bb ed 66 99 bc ef c6 49 3c 6f 69 e4 3c
       -0.0031709915 -0.018725837 0.012315496 0.027882306
000380 24 1d ce 3b 58 6c c1 bb d3 bb 3f bb 72 8f f2 ba
       0.006290095 -0.005902808 -0.002925624 -0.0018505885
000390 aa f0 8d 3c 6c 03 be bc 52 89 a9 3c 6c 40 c4 3b
       0.017326672 -0.023194991 0.020695362 0.005989125
0003a0 a1 a2 b8 bb 92 14 a4 bb 68 b6 bd bc 5c af 9b bc
       -0.0056346213 -0.005007335 -0.023158267 -0.019004516
0003b0 25 b6 02 3c be 79 83 bb db ff 45 bc 4b f8 35 bb
       0.007977997 -0.0040123155 -0.0120849265 -0.0027766402
0003c0 8f 47 2e 3b 8b 3e 80 3c 28 12 96 bc 6e e5 d7 ba
       0.0026592945 0.015654823 -0.018319204 -0.0016471574
0003d0 fb db 10 3b ed c1 47 bc c1 a9 dd 3c 00 16 a5 bc
       0.0022103775 -0.012192232 0.027058484 -0.020152092
0003e0 1d 30 ac 3c d6 87 b5 3c b5 ff c2 ba 52 23 87 3c
       0.021019036 0.022159498 -0.0014877232 0.016496334
0003f0 e0 8b 8d bc 31 ff 0b 3b 10 20 84 bc ca e9 5f bc
       -0.017278612 0.0021361823 -0.01612857 -0.0136665795

linear_layer.1.bias f4 [2]
000000 fb 4c 6e 3c 37 8c 50 3c
       0.014544721 0.012728742
