models/TinyVGG_data_manual_5_epochs.pth (torch, 29379 bytes, 10 tensors)

conv_block_1.0.weight f4 [10, 3, 3, 3]
0.1504598 0.16431403 -0.040509827 0.1794605 -0.037802216 0.043209925 -0.09092584 0.11723898
0.17379417 -0.13786252 0.1718558 0.04059475 0.1448575 0.0304279 0.09717244 -0.024402754
0.15257344 0.03258697 -0.08651914 0.053634115 -0.08409289 -0.019895475 -0.073800944 0.13204113
-0.14914492 -0.08450511 -0.05020191 -0.09922119 0.034931123 -0.17406578 0.18999246 -0.14690448
0.16460598 0.048027445 -0.046214927 0.1348659 0.04648725 0.17225969 0.03705172 -0.044504557
0.06828396 -0.036159277 0.09699414 0.18809816 0.12718898 -0.06764015 0.12786171 0.050447505
0.113921925 -0.10072354 -0.17447875 -0.05835506 -0.13133915 0.17385413 0.0596621 0.08168817
0.061244313 0.0013173097 0.15285473 -0.13625 0.017215041 -0.12876749 0.05989497 -0.06204596
0.060942575 -0.039715506 0.16428173 -0.111823834 -0.114288464 -0.10968612 0.17568529 0.0646868
0.18941566 -0.15685178 -0.1905068 -0.1459008 -0.12721737 0.0784384 0.0740094 0.16249892
-0.09883351 -0.11757902 0.114188604 -0.06881056 0.12758894 -0.035118192 0.11930576 -0.1393254
-0.089670904 0.067411624 0.054301914 -0.03698805 0.12369225 0.14161576 -0.12900934 -0.093527526
0.18642138 -0.057489928 -0.059488576 -0.17259718 -0.098131634 0.057053365 -0.014615709 -0.12914647
0.0137297055 -0.12125692 -0.15582505 -0.09723693 -0.16504428 -0.11026319 0.20375088 0.043565705
0.07360493 -0.1655539 -0.119634956 -0.04981509 0.04442028 -0.16595057 -0.07064445 -0.10383776
0.0077500446 -0.05731173 0.00060531765 -0.12364868 -0.11785377 -0.09794909 -0.06248473 -0.13962007
0.17273965 -0.030977711 0.179883 0.07390531 -0.15620495 0.14742531 -0.038625013 -0.08062136
-0.16756502 -0.19695118 0.048314434 -0.048146747 0.07107567 -0.1654975 0.1364177 -0.14561313
-0.040081233 0.0323791 0.09372783 0.14861937 0.169207 -0.15644749 0.04087264 -0.08924065
-0.02543407 -0.15089719 0.16747695 -0.14687371 0.09610761 0.06152738 0.058688227 -0.111608155
0.16846497 0.037946533 0.02475679 -0.16959757 0.08078833 -0.028871477 -0.08816606 0.16530435
0.042906508 -0.106478095 -0.097406484 -0.009190589 0.10745667 -0.049177513 -0.109807186 -0.06590316
-0.14377463 0.06863396 0.14896412 -0.18118028 0.044696674 0.09941815 0.03489685 -0.06853622
0.10044782 0.10113506 0.07196234 -0.033817604 -0.050961033 0.012464017 -0.04115517 -0.06422414
0.114385 0.15785913 -0.02600257 -0.051803425 -0.004821282 -0.018282458 0.0381427 0.046772916
-0.18166788 -0.079651766 0.15453552 0.068019375 -0.018286437 -0.12365886 -0.124533534 -0.18051487
-0.06988955 0.05811741 0.114079915 0.08132131 -0.17706566 -0.124446705 -0.038001396 0.17937492
0.03782283 -0.0407397 0.088194825 -0.061376784 -0.11333204 0.15003216 -0.07544592 -0.026851173
-0.17966823 0.13878469 0.15490612 0.078713365 -0.12226658 -0.1787043 -0.1467386 0.15557161
0.104125045 0.17372957 0.110802285 0.05780685 0.0066906754 -0.13443555 -0.15365352 -0.17044263
0.090843216 -0.08275818 -0.02694913 -0.11075604 -0.035068944 -0.13545309 -0.12574992 0.06383778
-0.05719547 0.11880775 -0.061739683 -0.14117508 -0.033955693 -0.09328968 -0.05887848 -0.18321164
00000000: 2212 1a3e f041 283e a2ed 25bd 7ec4 373e
00000010: 7fd6 1abd e4fc 303d 5437 babd fe1a f03d
00000020: 19f7 313e d52b 0dbe f8fa 2f3e ae46 263d
00000030: 8655 143e ee43 f93c 5802 c73d 49e8 c7bc
00000040: 363c 1c3e ea79 053d f230 b1bd 72af 5b3d
00000050: e538 acbd d6fb a2bc f324 97bd ca35 073e
00000060: 72b9 18be 0411 adbd 85a0 4dbd 7b34 cbbd
00000070: f013 0f3d 4d3e 32be 628d 423e 216e 16be
00000080: 788e 283e 6db8 443d dd4b 3dbd 491a 0a3e
00000090: 6a69 3e3d d864 303e 8bc3 173d 694a 36bd
000000a0: 76d8 8b3d c01b 14bd dda4 c63d ce9c 403e
000000b0: d43d 023e eb86 8abd 2eee 023e 0ba2 4e3d
000000c0: e64f e93d 2548 cebd 8faa 32be b705 6fbd
000000d0: c57d 06be d106 323e 3f60 743d 214c a73d
000000e0: 51db 7a3d 94a9 ac3a f385 1c3e 1f85 0bbe
000000f0: 8f06 8d3c a0db 03be 6e54 753d e823 7ebd
00000100: ec9e 793d baac 22bd 7839 283e e503 e5bd
00000110: 1210 eabd 1ea3 e0bd d8e6 333e 837a 843d
00000120: 2ef6 413e c19d 20be 3714 43be 0567 15be
00000130: 4545 02be 50a4 a03d 3e92 973d 1e66 263e
00000140: 3969 cabd 45cd f0bd b7db e93d 8dec 8cbd
00000150: ada6 023e 18d8 0fbd 9456 f43d 51ab 0ebe
00000160: 61a5 b7bd 1b0f 8a3d af6b 5e3d c880 17bd
00000170: 5d52 fd3d b903 113e 061b 04be 5c8b bfbd
00000180: 3fe5 3e3e 8f7a 6bbd 4baa 73bd 51bd 30be
00000190: 3df9 c8bd cab0 693d ba76 6fbc f93e 04be
000001a0: 8ff2 603c 8c55 f8bd 9a90 1fbe 2824 c7bd
000001b0: 5e01 29be abd1 e1bd 12a4 503e f471 323d
000001c0: 2ebe 963d f686 29be 2c03 f5bd e80a 4cbd
000001d0: 0af2 353d f2ee 29be 0aae 90bd e4a8 d4bd
000001e0: 16f4 fd3b b4bf 6abd 2eae 1e3a 853b fdbd
000001f0: 515d f1bd 8899 c8bd fdef 7fbd 90f8 0ebe
00000200: aae2 303e f8c4 fdbc 4033 383e ab5b 973d
00000210: 31f4 1fbe a9f6 163e 4335 1ebd d01c a5bd
00000220: 2a96 2bbe 92ad 49be 5be5 453d 8635 45bd
00000230: 1f90 913d 2d78 29be 15b1 0b3e 9c1b 15be
00000240: 382c 24bd f29f 043d 60f4 bf3d ad2f 183e
00000250: 9a44 2d3e c533 20be 126a 273d cdc3 b6bd
00000260: 1c5b d0bc cb84 1abe 147f 2b3e 1066 16be
00000270: 11d4 c43d 2204 7c3d 1163 703d d192 e4bd
00000280: 1582 2c3e d36d 1b3d c0ce ca3c fcaa 2dbe
00000290: 5a74 a53d e083 ecbc 6890 b4bd 8b45 293e
000002a0: bcbe 2f3d 3011 dabd 0d7d c7bd 2094 16bc
000002b0: 3e12 dc3d 5c6e 49bd 97e2 e0bd 3cf8 86bd
000002c0: a839 13be f68f 8c3d 0d8a 183e 5387 39be
000002d0: dc13 373d be9b cb3d 00f0 0e3d b85c 8cbd
000002e0: 96b7 cd3d e61f cf3d fe60 933d 5484 0abd
000002f0: 84bc 50bd e035 4c3c 5392 28bd f287 83bd
00000300: af42 ea3d d3a5 213e 5703 d5bc d42f 54bd
00000310: d8fb 9dbb 18c5 95bc 853b 1c3d f594 3f3d
00000320: 2507 3abe 7720 a3bd 8f3e 1e3e be4d 8b3d
00000330: 70cd 95bc db40 fdbd 700b ffbd e4d8 38be
00000340: 4122 8fbd 850c 6e3d bba2 e93d c98b a63d
00000350: b350 35be eadd febd 5aa7 1bbd 0fae 373e
00000360: 1dec 1a3d acde 26bd 7d9f b43d 3966 7bbd
00000370: a11a e8bd 08a2 193e 6483 9abd fef6 dbbc
00000380: f3fa 37be 931d 0e3e b69f 1e3e 7934 a13d
00000390: e766 fabd 43fe 36be a542 16be 2a4e 1f3e
000003a0: 833f d53d 2ae6 313e 4fec e23d e0c6 6c3d
000003b0: 743d db3b 79a9 09be 5957 1dbe 8388 2ebe
000003c0: 020c ba3d 1f7d a9bd 6cc4 dcbc 10d4 e2bd
000003d0: 74a4 0fbd 37b4 0abe 96c4 00be 62bd 823d
000003e0: cc45 6abd 7a51 f33d c0e2 7cbd 3390 10be
000003f0: 2015 0bbd a90e bfbd 902a 71bd d59b 3bbe

conv_block_1.0.bias f4 [10]
0.08581735 -0.17695537 0.12518768 0.15861595 0.19712526 -0.05238651 -0.15812506 0.039332286
0.1265729 -0.19154726
00000000: 02c1 af3d ca33 35be 3331 003e 386c 223e
00000010: 34db 493e 3d93 56bd 89eb 21be e41a 213d
00000020: 549c 013e f724 44be

conv_block_1.2.weight f4 [10, 10, 3, 3]
-0.038625415 -0.0780994 -0.024277555 -0.06677883 -0.058182202 -0.048674565 -0.11520522 0.07105097
0.0730164 -0.016535453 -0.012004226 -0.040709637 -0.09519118 -0.10257843 0.04594826 -0.05787455
-0.06324059 -0.0058267317 -0.050307624 -0.04961548 -0.012044014 -0.03755671 -0.05182823 -0.065867394
-0.100816645 0.07314011 -0.057259295 0.0125242 -0.051706947 -0.0007136379 0.0830485 0.03391011
-0.10188355 0.026679195 0.0858011 0.01643562 0.055173755 0.088547654 -0.030940311 0.006508543
-0.0883988 -0.036000665 0.06271939 0.03910752 -0.08086083 -0.08452611 -0.072032854 -0.102071926
-0.07958046 -0.026067436 0.062333796 0.026438728 -0.07236733 -0.08014413 0.052438505 -0.07840776
-0.012978777 0.05056546 -0.048784677 -0.011493817 -0.009175293 -0.024938077 -0.053445883 -0.10866532
-0.09772523 -0.06717866 0.08720776 -0.06379885 -0.081598535 0.010948917 0.016569395 0.045836918
0.06483299 0.043548986 -0.116808824 -0.005704404 0.04920813 -0.022432271 -0.07709199 0.08628421
-0.051490113 -0.060014185 -0.09503225 0.004708454 0.046710335 0.023333691 0.020844646 -0.07994106
-0.098440364 0.001856193 0.099567175 0.06361892 -0.05874866 -0.009165993 -0.07405888 -0.0477677
0.025663475 0.06261642 0.09139818 -0.087146044 0.07791252 -0.065223455 0.05178657 0.098805696
0.0073064296 0.10612743 -0.080539614 -0.032143153 0.071077235 -0.015118799 -0.011838837 -0.032906428
0.08233673 0.06170801 0.045532815 -0.04833041 -0.07470047 0.011049994 0.03349232 -0.043019835
-0.033652328 0.07209093 0.013741907 -0.0011231345 -0.025679858 -0.09128805 -0.10881355 -0.04951322
-0.0499772 0.017748687 -0.031334355 -0.03765147 0.08370826 0.034872983 0.07767866 -0.034567513
-0.033169903 0.042260725 -0.060590863 -0.05469574 0.0026530458 -0.02959955 -0.07039021 0.07370834
0.08476622 0.017099842 -0.01835315 -0.09763775 -0.03839414 0.026835687 0.049703725 -0.013325579
-0.041673847 0.051622897 -0.07999538 0.07632199 -0.041242596 -0.0026482078 -0.024072058 0.020050732
-0.02694258 0.076031715 0.011956202 0.098654784 0.11872684 -0.043774553 -0.06279731 0.10219075
0.08089784 -0.07145298 0.00834288 -0.10394684 -0.08628792 0.020359017 0.028042503 0.02234476
-0.028688677 0.097248234 0.015071198 -0.0622004 -0.005967617 0.025313534 0.03691355 -0.07453287
0.039506294 -0.053851657 -0.08758881 -0.05757532 0.101657666 0.09010992 0.09439235 0.061876424
0.07963138 -0.014109001 -0.05799911 0.05266843 -0.05462126 -0.07113711 -0.033660762 0.022121109
0.05426433 -0.04094191 -0.062040336 0.014218979 -0.062131714 -0.0686279 0.054944776 -0.017707132
0.0963214 0.10254029 0.031528495 0.036277406 0.024274044 0.0016508028 -0.00766667 0.001448758
0.039362423 0.09800645 -0.02731777 -0.044558156 -0.02552642 -0.05092577 0.017923653 0.078682564
0.08242766 0.048396073 -0.07757399 -0.05657365 -0.023159616 -0.019429468 0.008669674 -0.096762694
0.032808073 -0.08041378 -0.06669715 -0.08763541 0.09184516 -0.099816225 0.07951724 -0.0035435334
-0.012258969 0.06593122 -0.009742729 0.06610785 0.07621247 -0.09151738 0.04055979 0.019899048
0.022664227 0.015388846 0.028832696 -0.050708897 -0.013486177 0.10015144 0.07081916 -0.0039600655
00000000: af35 1ebd 94f2 9fbd b9e1 c6bc 57c3 88bd
00000010: 7650 6ebd fb5e 47bd b7f0 ebbd 2c83 913d
00000020: 9f89 953d 5c75 87bc 60ad 44bc 26bf 26bd
00000030: 98f3 c2bd a414 d2bd 3e34 3c3d dd0d 6dbd
00000040: 4884 81bd 2bee bebb 5e0f 4ebd 9a39 4bbd
00000050: 4254 45bc 11d5 19bd d749 54bd 7ce5 86bd
00000060: f578 cebd 7bca 953d b988 6abd 4d32 4d3c
00000070: aaca 53bd 6e13 3bba 5515 aa3d 54e5 0a3d
00000080: 53a8 d0bd 548e da3c 7db8 af3d fea3 863c
00000090: e0fd 613d 7958 b53d 8976 fdbc 9e45 d53b
000000a0: 6e0a b5bd 6f75 13bd 0673 803d 352f 203d
000000b0: 5d9a a5bd 061c adbd f685 93bd 160b d1bd
000000c0: 15fb a2bd 608b d5bc b951 7f3d 0896 d83c
000000d0: 5335 94bd 9b22 a4bd c2c9 563d 3f94 a0bd
000000e0: f0a4 54bc ba1d 4f3d 71d2 47bd 9050 3cbc
000000f0: f853 16bc f04a ccbc 12ea 5abd ec8b debd
00000100: 2a24 c8bd f794 89bd fb99 b23d f9a8 82bd
00000110: 221d a7bd 1663 333c 8abc 873c 7ebf 3b3d
00000120: 29c7 843d 6c60 323d 7739 efbd 02ec babb
00000130: 778e 493d e2c3 b7bc 68e2 9dbd c7b5 b03d
00000140: 4ce7 52bd 6fd1 75bd 45a0 c2bd 6049 9a3b
00000150: 5653 3f3d 4c26 bf3c 64c2 aa3c 23b8 a3bd
00000160: 1a9b c9bd 804b f33a e0e9 cb3d a34a 823d
00000170: 6fa2 70bd f62c 16bc 2fac 97bd 10a8 43bd
00000180: 353c d23c 0a3d 803d f82e bb3d a079 b2bd
00000190: 9990 9f3d e093 85bd 281e 543d a45a ca3d
000001a0: c66a ef3b 5759 d93d f4f1 a4bd 8aa8 03bd
000001b0: f190 913d d7b4 77bc aef7 41bc e4c8 06bd
000001c0: 29a0 a83d 8ac1 7c3d 9e80 3a3d 1cf6 45bd
000001d0: 8ffc 98bd 090b 353c 3e2f 093d 9135 30bd
000001e0: 06d7 09bd 69a4 933d bc25 613c 2436 93ba
000001f0: 915e d2bc 3bf5 babd a3d9 debd 60ce 4abd
00000200: e4b4 4cbd b265 913c 7458 00bd 6e38 1abd
00000210: 3c6f ab3d f9d6 0e3d fd15 9f3d aa96 0dbd
00000220: 2add 07bd 9519 2d3d 202e 78bd a408 60bd
00000230: b9de 2d3b c17a f2bc be28 90bd 66f4 963d
00000240: e999 ad3d f814 8c3c 5859 96bc 4df6 c7bd
00000250: 2c43 1dbd 84d6 db3c 2296 4b3d 8853 5abc
00000260: 32b2 2abd 8872 533d 9ed4 a3bd b44e 9c3d
00000270: ffed 28bd 8e8d 2dbb c432 c5bc 6f41 a43c
00000280: afb6 dcbc 84b6 9b3d f2e3 433c 850b ca3d
00000290: 0f27 f33d f24c 33bd e09b 80bd 6249 d13d
000002a0: c4ad a53d f155 92bd 93b0 083c 15e2 d4bd
000002b0: b9b7 b0bd f4c7 a63c 64b9 e53c 5c0c b73c
000002c0: 8404 ebbc 152a c73d 30ed 763c d9c5 7ebd
000002d0: 008c c3bb 545e cf3c aa32 173d b0a4 98bd
000002e0: 5ad1 213d 8e93 5cbd c361 b3bd 19d4 6bbd
000002f0: e531 d03d 8d8b b83d c750 c13d 2272 7d3d
00000300: c715 a33d 7029 67bc 7a90 6dbd daba 573d
00000310: 8bba 5fbd 55b0 91bd dedf 09bd 5437 b53c
00000320: 4644 5e3d b4b2 27bd 021e 7ebd b8f6 683c
00000330: d37d 7ebd c98c 8cbd c60d 613d 8c0e 91bc
00000340: 2744 c53d a500 d23d 0624 013d 9e97 143d
00000350: 5cda c63c c05f d83a b038 fbbb 40e4 bd3a
00000360: 7e3a 213d 9bb7 c83d 84c9 dfbc 9d82 36bd
00000370: c81c d1bc 8a97 50bd a0d4 923c 5324 a13d
00000380: d5cf a83d f63a 463d 1ddf 9ebd c6b9 67bd
00000390: 3cb9 bdbc 8c2a 9fbc 400b 0e3c 852b c6bd
000003a0: c261 063d fbaf a4bd 8498 88bd 327a b3bd
000003b0: 5119 bc3d 736c ccbd efd9 a23d a03a 68bb
000003c0: d8d9 48bc f306 873d f89f 1fbc 8d63 873d
000003d0: 4915 9c3d 776d bbbd 0622 263d 5403 a33c
000003e0: 54aa b93c 8021 7c3c 8c32 ec3c 22b4 4fbd
000003f0: 20f5 5cbc 331c cd3d a309 913d 70c3 81bb

conv_block_1.2.bias f4 [10]
-0.0067486824 0.026874641 -0.09193063 -0.08491315 0.017200062 -0.05032478 0.00948478 -0.024705712
0.0098226145 0.054541506
00000000: 0d24 ddbb 3528 dc3c 2046 bcbd f2e6 adbd
00000010: 25e7 8c3c 5b21 4ebd 0d66 1b3c a263 cabc
00000020: 08ef 203c ea66 5f3d

conv_block_2.0.weight f4 [10, 10, 3, 3]
-0.022104586 0.09841201 0.09218984 -0.06817607 -0.06726763 -0.07598965 -0.045157433 -0.026569936
0.0007606868 -0.035820823 -0.059749562 -0.037932403 -0.048290502 0.096428454 -0.04437227 -0.08558651
0.03692108 -0.011813386 0.08069753 0.06586314 0.09684252 -0.07719748 0.06776375 0.08846354
-0.052054413 0.09689007 0.079019316 0.0011543557 0.05082334 -0.036853343 -0.091936246 0.026645355
0.031425156 -0.06889117 0.051123448 -0.09004298 0.08025077 0.08511352 0.017497607 -0.07253011
0.03796276 0.005462309 0.021220034 0.028246671 0.07195982 -0.042913552 -0.025255054 0.034384098
0.012970495 0.082268946 -0.05081596 -0.0038386509 0.01969605 -0.027995542 0.09058817 0.025774796
-0.107268974 0.0062066494 -0.033806343 0.0007616079 0.005675766 -0.09077974 -0.029572463 -0.0024810026
-0.019219784 0.09876483 -0.017572835 0.07834101 0.028296659 -0.08253513 0.034549646 0.08904579
-0.0722813 -0.06233121 0.10969209 0.08086827 -0.05214902 0.06778852 -0.008579338 -0.09724214
0.008645742 0.029466964 -0.032323427 0.033824105 -0.09456959 0.07163518 0.08675409 0.053534728
0.0161433 0.03108114 -0.076268636 -0.026338972 -0.010063164 -0.05865879 -0.07785739 0.07090012
0.07153549 -0.095731445 0.033542477 0.03699562 0.094354704 0.05520115 0.091092594 -0.04027657
0.06803117 0.07985186 -0.105307 -0.09046006 0.021335416 0.05755744 -0.052368697 0.011609197
-0.00015302747 0.026679896 -0.05664162 0.059454925 0.07009814 -0.07313909 0.0010211468 0.0002924651
0.033848576 0.09819763 0.030912675 -0.0239513 0.094671525 -0.040111683 -0.03642713 0.0014534631
-0.08579178 0.005886043 -0.07680353 0.0052431813 0.004331123 0.010193739 -0.09195659 -0.10011606
0.04850062 0.09039854 -0.09353726 0.039042987 -0.07759403 0.0066082478 0.09806832 0.07996548
-0.0770891 0.06394694 0.052837722 -0.0011280327 0.10084091 -0.04229403 -0.025681274 -0.054232415
0.014543817 0.026556237 0.008399032 -0.059307158 -0.04852853 0.035855226 -0.09464919 -0.016415864
-0.0036170096 -0.04601922 0.038360335 0.0067940205 0.074004106 -0.009361558 -0.066527836 0.0744771
0.014720276 -0.030189015 -0.06947553 0.019121034 -0.10610493 0.022238413 0.04664986 -0.09807803
-0.07485976 -0.08123767 0.08281987 0.0838963 0.017664615 0.10930396 -0.029788284 -0.09131142
0.047601525 0.04634564 0.114435606 0.010640781 0.089943916 0.05616398 0.072843455 -0.10410508
0.07788101 -0.09371201 0.09386591 -0.01401036 -0.09831937 0.027428104 -0.021455713 -0.094677895
-0.038214885 0.010868244 0.08209764 -0.032405935 0.06260971 0.013200246 0.0035531223 0.020169534
-0.06917679 -0.08761599 -0.03312081 -0.09822604 -0.049157664 0.0048494413 -0.06942351 -0.043723337
-0.036674198 -0.036713336 -0.082931966 -0.011906432 -0.038341004 0.0055924756 -0.009925793 -0.070166364
-0.060280446 -0.0043877033 -0.063192226 0.0027231565 -0.0048255106 0.04287838 0.02080766 0.078886546
-0.0034748614 -0.077887446 0.061399896 -0.06875901 -0.023611523 -0.019319104 -0.036891077 -0.04886865
0.11154425 0.06385649 0.018149467 0.11156563 -0.08274062 0.028710956 0.08019491 0.082748845
-0.07258166 0.04928128 -0.04794947 0.0055583958 -0.016706506 -0.08972274 -0.10238678 -0.063337944
00000000: ad14 b5bc 3c8c c93d 07ce bc3d e59f 8bbd
00000010: 9cc3 89bd 76a0 9bbd 00f7 38bd 32a9 d9bc
00000020: d468 473a dbb8 12bd f5bb 74bd 025f 1bbd
00000030: 43cc 45bd 487c c53d b3bf 35bd fb47 afbd
00000040: 8f3a 173d ef8c 41bc bf44 a53d 41e3 863d
00000050: 5f55 c63d b619 9ebd b9c7 8a3d 5f2c b53d
00000060: 0237 55bd 4d6e c63d e1d4 a13d c04d 973a
00000070: 222c 503d 88f3 16bd 1249 bcbd 5c47 da3c
00000080: aab7 003d d016 8dbd d266 513d 7468 b8bd
00000090: 845a a43d ff4f ae3d 2457 8f3c ab8a 94bd
000000a0: d77e 1b3d 2bfd b23b a3d5 ad3c 9065 e73c
000000b0: ac5f 933d 1fc6 2fbd b0e3 cebc 57d6 0c3d
000000c0: 3382 543c 9f7c a83d 6524 50bd e091 7bbb
000000d0: 9c59 a13c e856 e5bc 4a86 b93d aa25 d33c
000000e0: d6af dbbd 2661 cb3b 8578 0abd a4a6 473a
000000f0: c7fb b93b baea b9bd f341 f2bc 5198 22bb
00000100: cf72 9dbc 3745 ca3d e8f4 8fbc 4071 a03d
00000110: 65ce e73c 2e08 a9bd ee83 0d3d a45d b63d
00000120: 3808 94bd 034f 7fbd 3fa6 e03d 439e a53d
00000130: 369a 55bd b5d4 8a3d 5a90 0cbc e326 c7bd
00000140: dfa6 0d3c b464 f13c 9265 04bd 258b 0a3d
00000150: b4ad c1bd 77b5 923d 21ac b13d 3b47 5b3d
00000160: f43e 843c e09d fe3c bb32 9cbd d4c4 d7bc
00000170: f8df 24bc 3344 70bd b273 9fbd 1534 913d
00000180: 3381 923d d90e c4bd d663 093d b888 173d
00000190: 0a3d c13d 9a1a 623d c18e ba3d 0bf9 24bd
000001a0: ed53 8b3d 5f89 a33d 32ab d7bd 2043 b9bd
000001b0: 9cc7 ae3c 5ac1 6b3d 8f80 56bd 8034 3e3c
000001c0: 0076 20b9 cc8f da3c 0b01 68bd 0287 733d
000001d0: 9d8f 8f3d f2c9 95bd 00d8 853a 0056 9939
000001e0: cea4 0a3d d71b c93d 943c fd3c 8435 c4bc
000001f0: 25e3 c13d 264c 24bd 9d34 15bd 2182 be3a
00000200: 9ab3 afbd b5df c03b 2b4b 9dbd fece ab3b
00000210: 18ec 8d3b a403 273c bd53 bcbd a609 cdbd
00000220: 96a8 463d df22 b93d 7790 bfbd 8aeb 1f3d
00000230: 9ee9 9ebd 008a d83b 0bd8 c83d f1c4 a33d
00000240: e4e0 9dbd 9df6 823d 5e6c 583d 7fda 93ba
00000250: ae85 ce3d 813c 2dbd 8961 d2bc cf22 5ebd
00000260: 3149 6e3c 778c d93c 189c 093c 10ec 72bd
00000270: dac5 46bd eedc 123d 6fd7 c1bd 907a 86bc
00000280: 5a0b 6dbb a67e 3cbd ba1f 1d3d 60a0 de3b
00000290: 778f 973d 3861 19bc bf3f 88bd 7387 983d
000002a0: 502d 713c f44e f7bc 3049 8ebd b7a3 9c3c
000002b0: 8b4d d9bd 552d b63c ec13 3f3d 22dd c8bd
000002c0: 1350 99bd ef5f a6bd 779d a93d d3d1 ab3d
000002d0: 62b5 903c c1da df3d 8f06 f4bc 7b01 bbbd
000002e0: d1f9 423d edd4 3d3d 375d ea3d ac56 2e3c
000002f0: 8434 b83d 340c 663d f32e 953d 0b35 d5bd
00000300: 1480 9f3d 15ec bfbd c53c c03d b68b 65bc
00000310: aa5b c9bd e7b0 e03c e4c3 afbc 7ce6 c1bd
00000320: 3687 1cbd b810 323c cf22 a83d 16bc 04bd
00000330: 8539 803d d845 583c 80db 683b 943a a53c
00000340: 90ac 8dbd 0370 b3bd b0a9 07bd bc2a c9bd
00000350: 8c59 49bd 10e8 9e3b ea2d 8ebd 3e17 33bd
00000360: af37 16bd b960 16bd 3cd8 a9bd 3213 43bc
00000370: 750b 1dbd 1641 b73b cb9f 22bc 62b3 8fbd
00000380: a1e8 76bd b9c6 8fbb ed6a 81bd fc76 323b
00000390: 511f 9ebb 3da1 2f3d d374 aa3c 458f a13d
000003a0: 80ba 63bb 7483 9fbd 757e 7b3d 86d1 8cbd
000003b0: f46c c1bc 1943 9ebc 191b 17bd 7e2a 48bd
000003c0: 5071 e43d 31c7 823d 31ae 943c 857c e43d
000003d0: ea73 a9bd 3d33 eb3c 3b3d a43d 3a78 a93d
000003e0: b1a5 94bd 2bdb 493d aa66 44bd 3423 b63b
000003f0: 15dc 88bc 8ec0 b7bd 29b0 d1bd 53b7 81bd

conv_block_2.0.bias f4 [10]
0.02166966 -0.021119608 0.018677734 0.066739336 -0.053421304 -0.051151276 0.06436395 0.00025152322
-0.01160115 -0.09259024
00000000: 9284 b13c 0703 adbc 0c02 993c a2ae 883d
00000010: 4cd0 5abd 0084 51bd 3fd1 833d e0de 8339
00000020: c012 3ebc f49f bdbd

conv_block_2.2.weight f4 [10, 10, 3, 3]
0.08492301 -0.00899019 -0.025676208 -0.04787035 -0.025869552 0.044945285 -0.0071908557 0.08518533
-0.012153356 -0.01580895 0.05589616 -0.0048174746 -0.018794753 0.032750078 0.08053076 0.024518846
0.07695305 0.070894234 0.025092222 0.032728408 0.029486189 0.005950298 0.08570649 0.09267482
0.032373805 -0.009751302 0.08990076 -0.08864285 0.071811184 0.05017904 0.061063033 -0.0137246065
-0.08416617 0.06862483 -0.05172032 0.022266118 0.059719108 -0.09850765 0.0069953725 -0.037444152
0.074814774 -0.067114234 0.064001314 0.06573004 0.058155857 0.10119418 0.015964352 -0.09554096
0.075247966 0.00964988 0.0020918474 -0.10041173 -0.023691386 -0.051162258 0.09808288 0.06985959
0.07284562 0.06685484 -0.07070149 -0.051061526 -0.04646247 -0.047681168 0.076200195 0.041238736
0.08841778 -0.0007019714 -0.09014306 -0.026240539 0.07862732 0.06937215 0.037924968 -0.026325569
-0.09838595 -0.05663921 0.05495832 -0.04251764 0.05042132 0.028781064 -0.040486358 0.064202495
-0.033871427 -0.003501974 -0.04015176 -0.09998822 0.016995996 0.030460037 -0.0530716 0.06466297
-0.094557956 -0.10161206 -0.07016377 -0.04187614 -0.016568111 -0.025400888 0.042721163 -0.09745928
0.010428981 -0.0037273534 0.022650834 0.10225362 0.06794958 -0.05836559 -0.0831817 -0.024676932
-0.05051422 0.03321147 0.0035130552 0.084783144 0.03699379 -0.023966176 -0.0013226664 0.02086656
-0.01761713 0.0799905 -0.08674025 0.04707463 -0.07216349 -0.09753527 -0.026984848 0.04600874
0.06944249 0.021352574 -0.014299494 -0.01097892 -0.04782463 -0.014540367 -0.0072831437 0.089699335
0.06169016 -0.08435101 0.00043604523 -0.06483406 -0.01673276 -0.083775915 0.027402304 -0.076008305
0.10406224 0.07960533 -0.0725594 -0.099239014 0.004112825 -0.029425174 0.030944653 -0.07135301
0.03715805 -0.09682286 -0.06143444 -0.061391417 0.0452111 -0.008571737 -0.10759959 -0.06633744
-0.054870307 -0.09263414 0.017780202 0.04283471 -0.013855376 -0.03750023 0.0048924596 -0.078569345
-0.05935339 0.0027154626 0.093643196 -0.032414228 0.0522471 -0.041483857 -0.028059714 -0.10034376
0.08732999 0.102639906 -0.00221394 0.06697386 0.08621862 0.052358635 0.0542878 -0.10034862
-0.099049985 -0.080905855 0.032970496 -0.09117655 -0.083872154 -0.054176573 -0.09895727 -0.003241859
0.012381215 -0.06270426 0.06607981 -0.042340998 -0.030263176 0.07784266 0.0905299 -0.01457122
-0.07799297 -0.05046524 0.013657724 0.059208367 0.05286063 -0.044562116 -0.10253633 -0.09669593
-0.039046265 -0.0017676746 -0.051625002 -0.08896618 0.008188681 -0.087717675 -0.08609133 -0.08491437
-0.028149929 0.09310856 0.04164211 -0.0122797685 0.021746011 0.042105738 0.00055846816 -0.08494561
-0.06494397 -0.07161007 -0.0026765838 -0.09649181 -0.019165628 -0.038545214 0.10344549 0.08567918
0.06122736 0.0059115887 -0.03412865 0.026886784 -0.07283038 -0.04495747 -0.021175183 -0.0247664
-0.099854425 0.041903444 0.08904117 -0.05689723 0.02915925 -0.009794789 -0.002408961 0.0072266217
0.094131514 0.015929893 -0.06527071 -0.041549463 0.04505655 0.025990348 -0.0015968237 -0.021048047
-0.037805863 -0.040641844 -0.057960633 0.011786836 0.029603355 0.08071662 -0.023813367 0.0075461194
00000000: 1dec ad3d 974b 13bc e956 d2bc b313 44bd
00000010: 62ec d3bc 8c18 383d 45a1 ebbb a575 ae3d
00000020: df1e 47bc c581 81bc 5ff3 643d e8db 9dbb
00000030: 74f7 99bc f224 063d 50ed a43d bfdb c83c
00000040: 9099 9d3d ff30 913d 348e cd3c 390e 063d
00000050: 058d f13c b8fa c23b e286 af3d 4ccc bd3d
00000060: 659a 043d edc3 1fbc e41d b83d 628a b5bd
00000070: be11 933d 8988 4d3d 3b1d 7a3d 2cdd 60bc
00000080: 505f acbd 2d8b 8c3d b0d8 53bd 6f67 b63c
00000090: 069c 743d 61be c9bd 7039 e53b 0a5f 19bd
000000a0: 7d38 993d 3073 89bd 1f13 833d 799d 863d
000000b0: d634 6e3d e53e cf3d acc7 823c fbaa c3bd
000000c0: 9b1b 9a3d 881a 1e3c 6017 093b aaa4 cdbd
000000d0: 7014 c2bc 848f 51bd addf c83d 8b12 8f3d
000000e0: 1630 953d 31eb 883d f1cb 90bd e425 51bd
000000f0: 6e4f 3ebd 544d 43bd d90e 9c3d f3e9 283d
00000100: 6214 b53d 8104 38ba ed9c b8bd 66f6 d6bc
00000110: 5c07 a13d fc12 8e3d 3657 1b3d b8a8 d7bc
00000120: 937e c9bd 84fe 67bd fa1b 613d fa26 2ebd
00000130: 9686 4e3d 44c6 eb3c 06d5 25bd 997c 833d
00000140: c4bc 0abd 6081 65bb 2c76 24bd a0c6 ccbd
00000150: 303b 8b3c 5487 f93c 9b61 59bd 056e 843d
00000160: 9aa7 c1bd fc19 d0bd 06b2 8fbd 5186 2bbd
00000170: d9b9 87bc 8615 d0bc 63fc 2e3d bb98 c7bd
00000180: 51de 2a3c 9d46 74bb 3e8e b93c 596a d13d
00000190: 2629 8b3d c210 6fbd 2b5b aabd 4727 cabc
000001a0: 00e8 4ebd c008 083d 493b 663b c9a2 ad3d
000001b0: cd86 173d b754 c4bc 525d adba 59f0 aa3c
000001c0: cd51 90bc 0fd2 a33d dfa4 b1bd 54d1 403d
000001d0: 74ca 93bd 92c0 c7bd 540f ddbc a973 3c3d
000001e0: dd37 8e3d 98eb ae3c 6d48 6abc eee0 33bc
000001f0: c2e3 43bd b83a 6ebc 70a7 eebb 49b4 b73d
00000200: d2ae 7c3d 39c0 acbd 009d e439 b8c7 84bd
00000210: 2413 89bc b592 abbd cc7a e03c 3eaa 9bbd
00000220: 951e d53d 1f08 a33d 069a 94bd d33d cbbd
00000230: e0c4 863b 100d f1bc a47f fd3c 8721 92bd
00000240: 0a33 183d 104b c6bd aea2 7bbd 9175 7bbd
00000250: 462f 393d 7970 0cbc 2d5d dcbd ecdb 87bd
00000260: b0bf 60bd f8b6 bdbd c9a7 913c 7373 2f3d
00000270: a901 63bc d799 19bd ed50 a03b f7e8 a0bd
00000280: 8a1c 73bd e7f5 313b 01c8 bf3d c8c4 04bd
00000290: 0e01 563d faea 29bd 7cdd e5bc 0781 cdbd
000002a0: 11da b23d df34 d23d c017 11bb 9729 893d
000002b0: 6393 b03d 0276 563d e25c 5e3d 9483 cdbd
000002c0: b8da cabd f8b1 a5bd 120c 073d c5ba babd
000002d0: 2ac5 abbd 41e8 5dbd 1caa cabd 5e75 54bb
000002e0: 94da 4a3c 176b 80bd da54 873d c16d 2dbd
000002f0: 7bea f7bc f96b 9f3d bd67 b93d 20bc 6ebc
00000300: c7ba 9fbd a4b4 4ebd a5c4 5f3c 7984 723d
00000310: 6384 583d c486 36bd 91fe d1bd 8408 c6bd
00000320: faee 1fbd 51b1 e7ba bd74 53bd e733 b6bd
00000330: d129 063c 53a5 b3bd a750 b0bd 96e7 adbd
00000340: ae9a e6bc b3af be3d eb90 2a3d 1531 49bc
00000350: b124 b23c 1177 2c3d 2a66 123a f7f7 adbd
00000360: 5801 85bd 4da8 92bd a069 2fbb 809d c5bd
00000370: 3c01 9dbc 96e1 1dbd 3bdb d33d 9178 af3d
00000380: 8ac9 7a3d 00b6 c13b 7cca 0bbd ac41 dc3c
00000390: 1828 95bd 5325 38bd 9477 adbc e8e2 cabc
000003a0: 7a80 ccbd f2a2 2b3d 385b b63d 120d 69bd
000003b0: 61df ee3c 537a 20bc a9df 1dbb 4ccd ec3b
000003c0: 06c8 c03d 687f 823c a6ac 85bd c52f 2abd
000003d0: 388d 383d b6e9 d43c 834c d1ba f46c acbc
000003e0: 52da 1abd 1078 26bd 2168 6dbd 931d 413c
000003f0: bc82 f23c c14e a53d 4014 c3bc 7045 f73b

conv_block_2.2.bias f4 [10]
0.073528804 0.07235183 0.03944188 -0.09601737 0.0045881732 -0.039216127 -0.029631563 0.06921674
-0.03582254 -0.07549103
00000000: 4596 963d 322d 943d cf8d 213d c1a4 c4bd
00000010: 6358 963b 17a1 20bd e4bd f2bc 82c1 8d3d
00000020: a8ba 12bd 0b9b 9abd

linear_layer.1.weight f4 [2, 1690]
-0.01950831 0.015799494 0.0020436966 0.025142916 0.006180738 -0.021437002 0.007211125 0.023355555
0.016318683 0.008489625 -0.017435756 -0.014352007 0.0161883 -0.016015304 0.006331205 -0.0019883013
0.009175737 0.0025523705 -0.017307343 -0.008503672 0.022179663 0.0040095393 0.013762532 -0.011034086
0.01967213 -0.005508317 -0.007852422 0.0059501156 -0.0074769673 -0.008982046 -0.0029197957 -0.00023174786
-0.012598624 0.009164662 -0.022773154 0.016235435 0.023962317 0.0045951097 -0.0060478137 -0.021955477
0.0124631245 0.02111566 0.021360444 0.0024326658 0.009191478 0.024554959 0.004356178 -0.01126635
-0.0220858 0.012056315 0.010364655 0.02114844 -0.012012862 0.011405249 -0.007089388 -0.005721222
0.01444641 -0.021204121 0.019142797 0.01202782 -0.014068505 0.013124816 -0.0048369044 0.003116591
-0.0070002796 -0.023412332 -0.0016515403 0.012541261 -0.0026982771 -0.011733248 0.0017681037 0.0055546374
-0.0060037505 -0.018614007 -0.012705599 -0.002967824 0.009703128 0.021165367 0.0008715923 0.009421367
0.014363838 -0.010609119 -0.007786879 0.016982231 0.018375639 0.006441668 -0.01853908 0.013924229
-0.019444114 0.012930899 0.0023256377 0.008243929 -0.023208618 -0.008558603 0.010193136 0.018938195
-0.0062712664 0.022463297 -0.0049519283 -0.014524927 -0.0105507905 0.0017770733 -0.0037501238 0.011126543
-0.013286542 -0.006837229 -0.024597952 0.019348705 -0.004653532 -0.018701814 -0.0006344869 9.6541386e-05
0.0066635087 -0.0030822298 0.015083697 -0.008183989 -0.008050717 -0.0059464355 0.0038232608 0.018380238
-0.0021245915 0.018223582 0.01929656 -0.012387186 -0.0022662028 -0.012093584 0.00911872 -0.00950098
0.0070857904 0.000495289 -0.016615486 -0.01757496 -0.02536719 -0.014913521 0.005971286 0.0014297813
0.018374903 -0.021821832 -0.0016758252 -0.023196267 -0.0014263446 0.007927884 -0.023106253 0.020455247
-0.009050868 0.020061318 -0.0052159163 0.013054358 0.021964991 -0.008896726 -0.006373492 0.01190506
-0.02192717 0.012931178 -0.016583038 0.021021558 -0.016949218 -0.011154809 0.017135108 -0.011423489
0.02021207 0.01655974 0.022133237 -0.023973973 -0.00036778935 -0.008762422 0.0047707492 -0.019560415
0.008199083 0.00034626457 -0.012044285 -0.023495622 0.011135136 -0.010216254 0.01624943 0.0023778696
0.0056550982 -0.0055092243 -0.0050755753 -0.0091195265 -0.020516813 0.016715545 -0.014094705 0.013091442
-0.00993498 0.014126901 0.020000074 -0.016398948 0.018121462 -0.00071079127 -0.019917205 0.00821115
0.012194008 0.02143094 -0.02163341 0.023080874 0.016944295 0.022378825 0.0129422285 -0.012111308
0.017169215 0.020248517 -0.010060272 -0.0045360886 0.017657684 0.017676095 0.015945926 0.020255921
-0.011395247 -0.0055887 -0.010740081 0.012681648 0.005930309 -0.01983704 -0.0050968253 -0.020534134
-0.023127427 0.021326035 -0.014159719 0.010430268 -0.0035276364 -0.003874747 -0.001050228 0.018653642
-0.003088657 0.020342512 0.013184109 0.014767115 -0.022894023 -0.011163511 -0.02005706 -0.0066440003
-0.0057497253 0.0069335415 0.022941116 0.010369569 -0.016748901 -0.014789876 0.018836407 0.0015674308
0.0053109257 -0.013487518 -0.002939055 0.0070991907 -0.016769111 0.014928539 0.014214883 -0.012873477
-0.0100343665 -0.005033975 0.0045457026 -0.008356454 0.022771332 -0.024674075 -0.0144083435 -0.014566166
00000000: e4cf 9fbc f16d 813c 8aef 053b 84f8 cd3c
00000010: ca87 ca3b a79c afbc 4d4b ec3b 2654 bf3c
00000020: c2ae 853c 1118 0b3c 6ed5 8ebc ae24 6bbc
00000030: 539d 843c 8732 83bc ff75 cf3b 294e 02bb
00000040: d555 163c ac45 273b 21c8 8dbc fc52 0bbc
00000050: 20b2 b53c 7462 833b 3e7c 613c 50c8 34bc
00000060: 7227 a13c 1d7f b4bb 72a7 00bc 30f9 c23b
00000070: 5901 f5bb 6e29 13bc 0b5a 3fbb 5801 73b9
00000080: 766a 4ebc 6127 163c c48e babc 2d00 853c
00000090: 9f4c c43c 9392 963b bd2c c6bb f9db b3bc
000000a0: 2232 4c3c c0fa ac3c 19fc ae3c 5c6d 1f3b
000000b0: da97 163c 7b27 c93c 45be 8e3b 7f96 38bc
000000c0: 48ed b4bc da87 453c 84d0 293c 7e3f ad3c
000000d0: 98d1 44bc 15dd 3a3c 194e e8bb 1779 bbbb
000000e0: a3b0 6c3c 44b4 adbc 5bd1 9c3c 5510 453c
000000f0: 967f 66bc 7809 573c e57e 9ebb b83f 4c3b
00000100: 9a62 e5bb 38cb bfbc 7f78 d8ba dc79 4d3c
00000110: 94d5 30bb cf3c 40bc b7bf e73a ad03 b63b
00000120: 1cbb c4bb 677c 98bc 252b 50bc d37f 42bb
00000130: def9 1e3c fe62 ad3c 927b 643a 145c 1a3c
00000140: 4e56 6b3c dfd1 2dbc 1329 ffbb 521e 8b3c
00000150: 8288 963c a114 d33b 45df 97bc 7322 643c
00000160: 4349 9fbc 1fdc 533c ba69 183b 8b11 073c
00000170: 0020 bebc 6239 0cbc 1c01 273c 4624 9b3c
00000180: 327f cdbb f304 b83c c943 a2bb f6f9 6dbc
00000190: 39dd 2cbc afec e83a a3c4 75bb 1b4c 363c
000001a0: ccaf 59bc d50a e0bb a581 c9bc 2d81 9e3c
000001b0: a87c 98bb 8c34 99bc b253 26ba 4376 ca38
000001c0: 9059 da3b 3cff 49bb 9c21 773c 2316 06bc
000001d0: 28e7 03bc 51da c2bb ac8f 7a3b 2792 963c
000001e0: bb3c 0bbb 9f49 953c d213 9e3c a0f3 4abc
000001f0: 9384 14bb 2b24 46bc af66 153c 00aa 1bbc
00000200: eb2f e83b 48d6 013a 331d 88bc 5df9 8fbc
00000210: dace cfbc d757 74bc c7aa c33b 8067 bb3a
00000220: f786 963c b3c3 b2bc 5da7 dbba 1906 bebc
00000230: 2ff4 baba f5e3 013c 5349 bdbc c391 a73c
00000240: 184a 14bc a257 a43c 47ea aabb f2e1 553c
00000250: edef b33c 93c3 11bc bad8 d0bb 710d 433c
00000260: 9ca0 b3bc 4bdd 533c 27d9 87bc 6735 ac3c
00000270: 16d9 8abc a9c2 36bc ed5e 8c3c 9629 3bbc
00000280: c893 a53c 4ba8 873c c350 b53c 1165 c4bc
00000290: dad3 c0b9 4390 0fbc f253 9c3b 2a3d a0bc
000002a0: 7255 063c d88a b539 6555 45bc e479 c0bc
000002b0: 2570 363c 1362 27bc 861d 853c 08d6 1b3b
000002c0: 674e b93b b986 b4bb 0351 a6bb 116a 15bc
000002d0: e012 a8bc 0aef 883c 7aed 66bc 7d7d 563c
000002e0: 54c6 22bc 8474 673c 32d7 a33c 1657 86bc
000002f0: 7673 943c 6554 3aba 6829 a3bc 0f88 063c
00000300: 60c9 473c f08f af3c 8d38 b1bc 1a14 bd3c
00000310: c3ce 8a3c cc53 b73c a40b 543c 826e 46bc
00000320: 74a6 8c3c 38e0 a53c d7d3 24bc 78a3 94bb
00000330: d9a6 903c 75cd 903c 08a1 823c bfef a53c
00000340: 21b3 3abc 6a21 b7bb 2af7 2fbc b0c6 4f3c
00000350: 0a53 c23b 4a81 a2bc 4503 a7bb 3337 a8bc
00000360: bb75 bdbc f0b3 ae3c 2bfe 67bc b7e3 2a3c
00000370: eb2f 67bb 78ef 7dbb cea7 89ba 86cf 983c
00000380: 116b 4abb 57a5 a63c 2902 583c c5f1 713c
00000390: 3f8c bbbc 29e7 36bc b44e a4bc eab5 d9bb
000003a0: 3168 bcbb c332 e33b 02ef bb3c 20e5 293c
000003b0: fe34 89bc 3c51 72bc cf4e 9a3c 4072 cd3a
000003c0: 4607 ae3b c0fa 5cbc 299d 40bb 54a0 e83b
000003d0: 605f 89bc d596 743c 8ae5 683c 47eb 52bc
000003e0: 2f67 24bc 0bf4 a4bb 1ef4 943b 82e9 08bc
000003f0: f28a ba3c 4921 cabc f910 6cbc eea6 6ebc

linear_layer.1.bias f4 [2]
-0.0032755868 0.0006496504
00000000: 3aab 56bb 4d4d 2a3a
